data/user_properties/trained_weights/CrabNet-agl_thermal_conductivity_300K.pth (torch_old, 263425 bytes, 60 tensors)

prelu1.weight f4 [12]
-0.306705 0.3622677 -0.28465512 -0.043084316 -0.058861908 -0.04002136 -0.05414017 -0.056085322
-0.03779453 -0.050174803 -0.053642754 -0.05036801
00000000: 7008 9dbe 277b b93e 51be 91be 2e79 30bd
00000010: 2f19 71bd 70ed 23bd 15c2 5dbd b9b9 65bd
00000020: 70ce 1abd 1884 4dbd 81b8 5bbd b04e 4ebd

fc1.weight f4 [64, 119]
0.1392204 0.13514471 0.017169151 -0.1048963 0.0030941137 0.064404204 0.024332562 0.092897736
-0.041939862 -0.024075149 -0.09489508 0.045895092 0.041278455 0.041459337 0.05725172 0.08313946
-0.028803958 0.041537657 0.02094454 0.069722615 0.025943374 0.09044707 0.09280285 0.20777473
0.0032455653 0.22143596 0.0051117945 0.0064737867 0.0021065676 -0.09958436 -0.012410248 -0.0075743687
0.011044037 -0.026021158 -0.053428248 0.06701971 0.014478093 0.034923993 0.054985702 0.13827476
0.033088695 0.21403861 0.04850046 0.12760341 -0.012430319 0.011924047 0.028279377 -0.018717788
0.09103115 0.044630148 -0.009342483 -0.2643928 -0.02300879 0.036345616 -0.0045574172 0.10516427
0.0058145095 0.10999357 0.04956172 0.037945285 0.08329411 -0.009404742 0.039394207 -0.14294486
0.09042616 0.071792856 0.08250897 0.0892967 0.095406815 0.039940692 -0.012115926 0.07129885
0.048115414 0.13431789 0.058743555 -0.0038277558 -0.018946411 0.05304663 -0.05202007 0.037567083
0.061043713 0.01698185 -0.0020581833 -0.17836902 0.015886016 0.077930436 0.032333035 0.034049727
0.110520005 0.11601594 0.06630002 0.090761 0.2456373 0.12602502 0.07614895 0.074148685
0.12266866 0.123001054 0.08248208 0.031692974 0.0015230763 0.015848536 0.12817582 0.048261918
0.03244494 0.018897226 -0.011668979 0.13533044 0.136255 0.029432543 0.0892343 0.008002013
0.13180687 0.035161674 0.010077074 0.0776225 0.123444445 0.005957155 0.06006867 0.07284304
0.06260157 -0.0014265369 0.0023186207 0.02558555 0.0050537614 -0.011822011 0.023786355 0.094315
-0.16440737 -0.0009182926 -0.06405813 -0.051710624 -0.025345149 -0.025843184 0.105096914 0.036113422
-0.083529815 0.09880828 -0.0564205 -0.020053573 -0.009172263 -0.041664828 0.085199885 0.16048226
0.012398491 -0.04546063 -0.0350021 0.01199243 0.028183887 0.031631604 -0.14989573 -0.024678223
0.0131609375 -0.061449446 -0.01487819 -0.02410058 -0.083102785 -0.13211644 0.04981555 0.07636521
0.03417392 0.20605719 0.1266001 -0.17289937 -0.102203585 -0.036550026 0.020426737 -0.06604163
-0.046143528 -0.05992583 0.029238734 0.10158525 -0.039393507 0.03281101 -0.015965652 -0.08087482
-0.093298994 -0.039801456 0.021488426 0.09151062 0.044242993 -0.021261038 0.21201228 0.010204731
0.087630704 0.09710804 0.11492013 0.07775543 -0.023952655 -0.052668992 0.054855626 -0.051034003
0.48249772 0.03462815 -0.06439908 -0.12730326 0.009223685 -0.059715252 -0.017493198 0.03256757
-0.1117664 0.03450013 0.019109687 0.08455022 0.11225994 0.12846044 0.11366342 0.096270494
0.12782659 -0.010790384 0.028054954 -0.066288255 0.061983276 -0.09610572 -0.048240997 0.11935404
0.121249065 -0.0049712537 0.06048531 0.0756124 0.043817528 0.11196743 0.094256535 0.015494273
0.03911279 -0.04634942 0.10422939 0.005185481 0.04656206 0.06619059 -0.013923086 0.09495484
0.035589166 0.009157214 0.042284492 -0.015973795 0.02011208 0.11588629 -0.015800808 -0.081010535
0.01629734 0.055557594 -0.03618168 -0.013186527 -0.062411863 -0.09332744 0.003819137 -0.020202031
0.007768886 0.06851849 -0.10609443 -0.003107289 -0.061469637 0.038744215 0.085545674 -0.03564243
00000000: cb8f 0e3e 6063 0a3e 52a6 8c3c dfd3 d6bd
00000010: 9dc6 4a3b 5ae6 833d 1555 c73c 2b41 be3d
00000020: 22c9 2bbd 3f39 c5bc 5a58 c2bd 7efc 3b3d
00000030: 9913 293d 44d1 293d c880 6a3d 0545 aa3d
00000040: 47f6 ebbc 6423 2a3d e293 ab3c bbca 8e3d
00000050: 3387 d43c 503c b93d 6c0f be3d e6c2 543e
00000060: 8db3 543b 1cc0 623e d780 a73b 0f22 d43b
00000070: 570e 0a3b e3f2 cbbd 5a54 4bbc 6932 f8bb
00000080: 0cf2 343c 532a d5bc 94d7 5abd a141 893d
00000090: 8635 6d3c 760c 0f3d b038 613d e697 0d3e
000000a0: 0388 073d f02c 5b3e 6ba8 463d 78aa 023e
000000b0: 89a8 4bbc 145d 433c 27aa e73c 0c56 99bc
000000c0: 8a6e ba3d 1ace 363d 3711 19bc 7e5e 87be
000000d0: ee7c bcbc 24df 143d 6356 95bb 5d60 d73d
000000e0: a487 be3b 4f44 e13d 3b01 4b3d 846c 1b3d
000000f0: 1a96 aa3d 5916 1abc d25b 213d 2360 12be
00000100: 5a31 b93d 2208 933d 76fa a83d 30e1 b63d
00000110: a664 c33d da98 233d e081 46bc 2205 923d
00000120: ab14 453d a18a 093e 159d 703d 16db 7abb
00000130: 8135 9bbc 6c47 593d ff12 55bd f1df 193d
00000140: f908 7a3d 851d 8b3c 96e2 06bb 5ea6 36be
00000150: 6423 823c fe99 9f3d a56f 043d ba77 0b3d
00000160: 5058 e23d c499 ed3d 4ec8 873d e7e0 b93d
00000170: 5888 7b3e b40c 013e fbf3 9b3d 44db 973d
00000180: b539 fb3d fae7 fb3d 5dec a83d 7ed0 013d
00000190: f6a1 c73a cad4 813c 8640 033e 4aae 453d
000001a0: fce4 043d 5bce 9a3c 3f2f 3fbc 1094 0a3e
000001b0: 6e86 0b3e 841c f13c 79c0 b63d e01a 033c
000001c0: 61f8 063e b005 103d 501a 253c 8cf8 9e3d
000001d0: 71d0 fc3d 3d34 c33b 910a 763d bb2e 953d
000001e0: 4035 803d a3fa baba 00f4 173b ca98 d13c
000001f0: 069a a53b 1cb1 41bc 9adb c23c 3928 c13d
00000200: 685a 28be 93b9 70ba e930 83bd 85ce 53bd
00000210: a1a0 cfbc 16b5 d3bc 0d3d d73d abeb 133d
00000220: ae11 abbd ff5b ca3d 2f19 67bd 6447 a4bc
00000230: 4247 16bc bda8 2abd 477d ae3d 7655 243e
00000240: 0a23 4b3c ed34 3abd 5d5e 0fbd e67b 443c
00000250: e5e1 e63c 2490 013d 447e 19be fc29 cabc
00000260: f9a0 573c 6ab2 7bbd a7c3 73bc 946e c5bc
00000270: cb31 aabd 8849 07be 640b 4c3d 5d65 9c3d
00000280: f4f9 0b3d a800 533e 75a3 013e 880c 31be
00000290: 1d50 d1bd 7bb5 15bd f955 a73c d640 87bd
000002a0: ff00 3dbd ca74 75bd 1286 ef3c ed0b d03d
000002b0: 165b 21bd d664 063d 66ca 82bc b3a1 a5bd
000002c0: 8b13 bfbd da06 23bd 7f08 b03c ec69 bb3d
000002d0: 2438 353d a12b aebc bf19 593e be31 273c
000002e0: ba77 b33d 94e0 c63d 3f5b eb3d 3d3e 9f3d
000002f0: 5c38 c4bc 71bb 57bd 4bb0 603d 0809 51bd
00000300: f109 f73e 3fd6 0d3d aae3 83bd c95b 02be
00000310: f01e 173c fb97 74bd e54d 8fbc 9365 053d
00000320: c8e5 e4bd 0250 0d3d eb8b 9c3c aa28 ad3d
00000330: 8ae8 e53d 228b 033e 5ec8 e83d 7729 c53d
00000340: f9e4 023e 27ca 30bc 81d3 e53c 23c2 87bd
00000350: 2de2 7d3d 13d3 c4bd 5a98 45bd e46f f43d
00000360: 6e51 f83d e6e5 a2bb 72bf 773d adda 9a3d
00000370: 027a 333d 2e4f e53d 9209 c13d b1db 7d3c
00000380: bc34 203d e4d8 3dbd 3876 d53d f8ea a93b
00000390: dcb7 3e3d ef8e 873d a81d 64bc af77 c23d
000003a0: f2c5 113d 2408 163c 8132 2d3d 7adb 82bc
000003b0: 17c2 a43c cb55 ed3d b270 81bc dae8 a5bd
000003c0: 0082 853c 5c90 633d 3e33 14bd 4e0c 58bc
000003d0: 95a3 7fbd 7522 bfbd 7d4a 7a3b bb7e a5bc
000003e0: 2492 fe3b 6c53 8c3d 0948 d9bd a9a3 4bbb
000003f0: 96c7 7bbd 41b2 1e3d 9232 af3d ccfd 11bd

fc1.bias f4 [64]
0.0019804637 -0.0013463193 0.08176121 -0.13702781 -0.005422654 0.0037018985 0.0055192024 0.014202956
0.008966891 0.003550304 -0.02715998 -0.12509868 0.032132894 0.008021176 -0.06015461 0.0557118
0.01936174 -0.0002840387 -0.0007682144 -0.014097167 -0.020851837 -0.23079672 0.04856158 0.053551156
-0.0025451896 -0.09904701 0.006860596 -0.07586625 0.0423504 0.05354471 -0.015200368 -0.0061873924
-0.08926793 0.004906982 -0.009214275 0.026633201 0.031221107 0.015095258 0.11407071 -0.21135269
-0.0045862994 0.086778104 -0.018323135 -0.033217553 0.04074963 0.027634898 0.036401886 -0.08342703
0.0057969927 -0.007534762 0.00081951625 0.010933548 0.004664016 0.046727 0.008140534 0.008200442
0.028056849 0.003045803 0.0018206269 0.07005222 -0.029832814 0.0072405627 -0.006941302 0.011753999
00000000: abca 013b fb76 b0ba 6c72 a73d 0551 0cbe
00000010: 85b0 b1bb 8d9b 723b 6dda b43b 84b3 683c
00000020: dee9 123c 38ac 683b 9b7e debc de19 00be
00000030: c89d 033d 406b 033c ae64 76bd 0e32 643d
00000040: 839c 9e3c 07eb 94b9 ff61 49ba cef7 66bc
00000050: 79d1 aabc fa55 6cbe 82e8 463d 7558 5b3d
00000060: 32cd 26bb 29d9 cabd dace e03b c45f 9bbd
00000070: 9d77 2d3d b351 5b3d f70a 79bc 9cbf cabb
00000080: 1bd2 b6bd c0ca a03b 78f7 16bc df2d da3c
00000090: 68c3 ff3c 1a52 773c e89d e93d d76c 58be
000000a0: ab48 96bb b8b8 b13d 661a 96bc 210f 08bd
000000b0: 16e9 263d 9562 e23c 251a 153d cadb aabd
000000c0: b3f4 bd3b 2ae6 f6bb ced4 563a a022 333c
000000d0: 9ad4 983b d064 3f3d e05f 053c 265b 063c
000000e0: 7ad7 e53c 189c 473b 1aa2 ee3a 8a77 8f3d
000000f0: f263 f4bc 3e42 ed3b dd73 e3bb d893 403c

fc2.weight f4 [64, 64]
-0.100515276 0.036245108 -0.1261352 0.008191138 -0.056757078 -0.062160473 -0.021106886 0.07877604
-0.13200068 -0.109120734 -0.02325372 0.04943316 0.041646842 -0.02844576 -0.0124778 0.03135551
-0.034318272 0.026528824 0.015607742 -0.11551439 0.11737961 -0.08416758 0.08295055 0.09045099
-0.09218948 0.055781834 -0.003674824 -0.052746084 -0.09179929 0.06342118 0.051481884 0.07169791
0.003846854 -0.024802426 -0.04810237 0.001030503 -0.10271502 -0.064182125 0.09199415 0.045536313
-0.0062589734 0.12558307 0.056716308 -0.013501358 -0.05155463 0.034705877 0.15812944 0.10293304
0.015614404 0.060559135 -0.026171707 0.021536106 0.12250434 -0.08551184 -0.07689505 0.05883315
0.067744255 0.034607686 -0.047067255 -0.053658195 -0.03762763 0.11181808 0.11407049 0.07106599
0.02485704 0.09651515 -0.023983544 0.09889374 0.10961122 -0.060733456 0.0339232 -0.012970614
-0.05219811 0.06082612 0.10102023 0.014544327 -0.12865385 -0.064000554 0.096567884 0.106913365
0.06781597 0.12155089 -0.111742474 -0.13117585 0.11818327 -0.04158431 -0.0022194446 -0.04928624
-0.10443688 -0.108606994 0.015191814 -0.100168 0.05692628 0.10633047 -0.046268772 0.12128102
0.02639629 0.091351345 0.11773015 -0.05221495 0.10422001 0.12792471 0.06129068 0.117183805
-0.14066222 0.055152077 -0.14255407 0.09561402 -0.06390991 0.02861498 -0.021629224 -0.02357234
0.011788413 -0.03612565 0.054355156 0.030084942 0.02778729 -0.070173495 0.09984569 0.014709097
0.11051548 0.09583506 -0.057462044 0.04461448 0.10081344 -0.011441476 -0.036566008 0.07775923
0.07596442 -0.12009007 0.058108527 -0.005783773 -0.06131588 0.056298353 -0.09108135 -0.006865222
0.09598216 0.08847214 -0.04346916 0.110963866 -0.035315823 0.010083145 0.081768855 0.09677798
0.1006842 -0.06259403 -0.08099283 -0.10027969 -0.023681352 0.04216976 -0.06473333 -0.039807796
0.008882151 0.034366257 -0.058826227 -0.012903858 -0.018963732 0.043266132 0.038127497 0.06748135
0.095089346 -0.012231282 0.10059623 0.046936616 0.11006414 -0.10871896 -0.04380112 0.0022324403
0.02692103 -0.09171418 -0.034404363 -0.022962056 -0.023005096 0.033466857 -0.12738562 -0.10603851
-0.0006860619 -0.0886517 -0.07463808 -0.11062995 0.041489188 -0.025428176 0.054988485 -0.0037949309
0.11553539 0.041158855 0.036017295 0.065236256 0.10774016 -0.003254751 -0.016313283 0.0935798
0.096962035 -0.008570623 0.12713881 -0.027146922 0.0050388747 0.13087027 0.06303585 0.034126457
0.11912405 0.092662014 0.016709346 0.02559955 0.076066494 -0.054014605 -0.06814485 -0.10553743
-0.049097866 -0.10437255 -0.07366892 0.062244214 -0.100148045 -0.076536015 0.11666811 -0.0103854425
0.08590606 -0.07650051 -0.103084445 0.04182604 0.011360732 0.11499187 0.08937624 0.10170012
0.046209503 0.08894885 0.03019704 0.1369921 -0.03477343 0.06839827 0.09477394 0.025350364
-0.062440276 -0.0766541 -0.048876297 -0.059750263 0.022485789 -0.014660355 -0.043719787 -0.047807377
-0.056172337 -0.05526801 -0.093749546 0.10586947 0.08010777 -0.012791035 -0.12550613 0.12108266
-0.008710669 0.061580107 -0.023467045 -0.056607578 0.046647824 -0.063455135 -0.033225287 0.074888706
00000000: f4da cdbd c075 143d 9629 01be 1f34 063c
00000010: 1c7a 68bd fb9b 7ebd 59e8 acbc 5555 a13d
00000020: 302b 07be b17a dfbd 967e bebc 6d7a 4a3d
00000030: e195 2a3d 1507 e9bc b06f 4cbc a36e 003d
00000040: 5191 0cbd fa52 d93c 9db7 7f3c cf92 ecbd
00000050: b964 f03d 0d60 acbd fae1 a93d 5e3e b93d
00000060: d7cd bcbd 7e7b 643d 51d5 70bb 470c 58bd
00000070: 4401 bcbd f7e2 813d abde 523d 5bd6 923d
00000080: 801b 7c3b 752e cbbc fe06 45bd f111 873a
00000090: 415c d2bd eb71 83bd 6e67 bc3d 4984 3a3d
000000a0: 1318 cdbb d998 003e 5c4f 683d cd34 5dbc
000000b0: f32a 53bd c027 0e3d afec 213e 8fce d23d
000000c0: 8fd3 7f3c db0c 783d 0c66 d6bc 7d6c b03c
000000d0: 8ee3 fa3d d520 afbd 277b 9dbd 07fb 703d
000000e0: 80bd 8a3d cac0 0d3d 98c9 40bd b2c8 5bbd
000000f0: 6e1f 1abd e100 e53d ca9d e93d 0c8b 913d
00000100: fea0 cb3c bca9 c53d 2379 c4bc cd88 ca3d
00000110: d97b e03d a5c3 78bd 0ef3 0a3d b382 54bc
00000120: afcd 55bd cf24 793d b2e3 ce3d 544b 6e3c
00000130: d6bd 03be b912 83bd 62c5 c53d 65f5 da3d
00000140: 19e3 8a3d acef f83d 3dd9 e4bd f652 06be
00000150: 120a f23d 4f54 2abd 1a74 11bb 5ee0 49bd
00000160: 01e3 d5bd 586d debd 16e7 783c e124 cdbd
00000170: 882b 693d cac3 d93d 5384 3dbd 2f62 f83d
00000180: 083d d83c 6a16 bb3d 811c f13d 58df 55bd
00000190: 4d71 d53d b2fe 023e f00b 7b3d 10fe ef3d
000001a0: c209 10be 25e7 613d b2f9 11be 49d1 c33d
000001b0: 33e3 82bd f669 ea3c c52f b1bc c81a c1bc
000001c0: 3024 413c 7df8 13bd 83a3 5e3d b274 f63c
000001d0: 2ca2 e33c 1fb7 8fbd e67b cc3d 6dfe 703c
000001e0: f155 e23d 2c45 c43d 525d 6bbd acbd 363d
000001f0: 4777 ce3d 0775 3bbc 3dc6 15bd 3b40 9f3d
00000200: 3c93 9b3d c8f1 f5bd 3503 6e3d ce85 bdbb
00000210: 5c26 7bbd 1a99 663d dc88 babd a8f5 e0bb
00000220: 4b92 c43d e230 b53d b80c 32bd 0641 e33d
00000230: 53a7 10bd c733 253c 6e76 a73d 8933 c63d
00000240: 8533 ce3d 4c31 80bd 92df a5bd 705f cdbd
00000250: 65ff c1bc 33ba 2c3d e892 84bd 800d 23bd
00000260: 7186 113c a2c3 0c3d c5f3 70bd b46a 53bc
00000270: d459 9bbc d437 313d 942b 1c3d a933 8a3d
00000280: 34be c23d b765 48bc 6505 ce3d 9c40 403d
00000290: 4f69 e13d 0ca8 debd ce68 33bd 224e 123b
000002a0: 7e89 dc3c a5d4 bbbd 97eb 0cbd ec1a bcbc
000002b0: 2f75 bcbc 8b14 093d 6071 02be b82a d9bd
000002c0: d6d8 33ba 068f b5bd dadb 98bd f591 e2bd
000002d0: 91f0 293d c04e d0bc 9b3b 613d 60b4 78bb
000002e0: d29d ec3d 3096 283d df86 133d 969a 853d
000002f0: dfa6 dc3d a94d 55bb 6fa3 85bc c4a6 bf3d
00000300: 0894 c63d cc6b 0cbc ad30 023e 3963 debc
00000310: 251d a53b db02 063e f118 813d 2fc8 0b3d
00000320: 4ff7 f33d 95c5 bd3d 0ae2 883c 26b6 d13c
00000330: c0c8 9b3d 6b3e 5dbd 878f 8bbd 0224 d8bd
00000340: d81a 49bd 47c1 d5bd bbdf 96bd caf3 7e3d
00000350: 6b1a cdbd eabe 9cbd b1ef ee3d b427 2abc
00000360: 84ef af3d 4dac 9cbd f01d d3bd c851 2b3d
00000370: 5d22 3a3c dc80 eb3d e40a b73d 2748 d03d
00000380: 2d46 3d3d d12a b63d c85f f73c a847 0c3e
00000390: 966e 0ebd 6414 8c3d d718 c23d 91ab cf3c
000003a0: 60c1 7fbd d3fc 9cbd 8332 48bd b1bc 74bd
000003b0: 1e34 b83c fc31 70bc 8513 33bd abd1 43bd
000003c0: f714 66bd b560 62bd c3ff bfbd 18d2 d83d
000003d0: 8b0f a43d 7d91 51bc ae84 00be 30fa f73d
000003e0: 32b7 0ebc 6c3b 7c3d f63d c0bc 59dd 67bd
000003f0: ca11 3f3d c4f4 81bd 3d17 08bd 405f 993d

fc2.bias f4 [64]
0.05180204 -0.06595578 0.087318584 0.095501944 0.06400341 0.057072915 -0.04079668 -0.024004433
0.11128753 0.019477723 0.07491798 0.003386641 0.107967034 -0.10308534 -0.04263508 -0.03288293
-0.06809825 -0.11906556 -0.013126985 -0.122140914 -0.051936485 0.118744284 0.062268306 -0.035929956
-0.0921127 -0.06577798 0.011750489 0.014122425 0.067971654 -0.058774453 -0.09493018 0.09582335
0.1140331 -0.06358864 -0.09805172 -0.048100125 0.075335056 0.081677556 0.009681942 0.038241174
0.12561563 -0.0324482 -0.07832332 0.03466643 -0.0035907817 -0.0060636685 0.043815 -0.05838656
0.008671742 -0.033370823 -0.043247823 0.07874481 -0.086484574 0.079254486 -0.02785186 -0.0069379653
-0.12815991 -0.13252433 -0.06424595 0.04360229 -0.020083139 0.103656046 0.0538909 0.063453175
00000000: 602e 543d d313 87bd 16d4 b23d 8696 c33d
00000010: 3814 833d 4ac5 693d 6b1a 27bd f2a4 c4bc
00000020: b7ea e33d bf8f 9f3c 996e 993d 68f2 5d3b
00000030: d21d dd3d 681e d3bd 1fa2 2ebd 40b0 06bd
00000040: 1877 8bbd a5d8 f3bd 9112 57bc 0425 fabd
00000050: 5abb 54bd 3430 f33d 0d0d 7f3d 4a2b 13bd
00000060: 95a5 bcbd 9bb6 86bd 1f85 403c be61 673c
00000070: b934 8b3d 7bbd 70bd c16a c2bd 083f c43d
00000080: 308a e93d c33a 82bd 57cf c8bd a304 45bd
00000090: 4449 9a3d 9046 a73d 02a1 1e3c c7a2 1c3d
000000a0: 62a1 003e 67e8 04bd fa67 a0bd 63fe 0d3d
000000b0: 5253 6bbb bdb1 c6bb 5c77 333d bf26 6fbd
000000c0: ec13 0e3c d8af 08bd a124 31bd f544 a13d
000000d0: d31e b1bd 2d50 a23d 9529 e4bc df57 e3bb
000000e0: 5a3c 03be 75b4 07be 6193 83bd 5198 323d
000000f0: 6585 a4bc 9f49 d43d b4bc 5c3d bdf3 813d

fc3.weight f4 [1, 64]
-0.0407395 0.00072559534 0.098970704 0.108543105 0.102825664 -0.052475702 -0.04496178 0.1447668
-0.060637955 0.013791789 -0.020720974 0.10474344 -0.10009429 0.08010045 -0.098754376 -0.069965854
0.0654612 0.059828226 -0.019332899 0.02600955 0.10942918 -0.0022089304 -0.014078718 -0.027242279
0.02145481 0.04753356 0.08881393 -0.0007817796 0.07110692 0.05831301 0.029733382 0.067850076
-0.031626813 -0.07749452 -0.104421474 -0.02197302 -0.035950683 0.033808697 0.035719495 0.13334921
-0.10338301 0.020898115 -0.07766199 0.097710654 0.122812755 -0.00043740286 0.020783732 -0.0003593321
0.080788545 0.13010447 -0.025756536 -0.005204154 0.1285089 0.008051879 0.14037149 0.05387851
0.048567295 0.103928044 0.029518366 0.08102131 -0.019662598 0.020620601 -0.10868795 -0.0002997838
00000000: 76de 26bd e135 3e3a 27b1 ca3d d94b de3d
00000010: 4396 d23d c3f0 56bd d829 38bd bf3d 143e
00000020: 815f 78bd f5f6 613c 08bf a9bc bb83 d63d
00000030: 3cfe ccbd b40b a43d bc3f cabd 424a 8fbd
00000040: 8610 863d 710e 753d 0760 9ebc fb11 d53c
00000050: 681c e03d b4c3 10bb 6caa 66bc 332b dfbc
00000060: ffc1 af3c 8db2 423d 14e4 b53d 57f0 4cba
00000070: 81a0 913d 9fd9 6e3d 6c93 f33c fbf4 8a3d
00000080: 1e8b 01bd 72b5 9ebd edda d5bd c300 b4bc
00000090: 0641 13bd fd7a 0a3d 9b4e 123d b28c 083e
000000a0: 79ba d3bd 8632 ab3c 400d 9fbd 861c c83d
000000b0: 4185 fb3d 3853 e5b9 a542 aa3c bd64 bcb9
000000c0: 7774 a53d 1b3a 053e 5fff d2bc 9c87 aabb
000000d0: d697 033e 07ec 033c 8bbd 0f3e b6af 5c3d
000000e0: 80ee 463d 3ad8 d43d 80d0 f13c 80ee a53d
000000f0: 7513 a1bc 89ec a83c ca97 debd 4d2c 9db9

attentionblocks.0.layernorm0.weight f4 [64]
1.021395 1.0037915 0.9390903 0.86286634 1.0131943 1.1302108 1.0732398 1.111383
1.0348449 1.0173343 1.0048943 0.9491337 0.9899423 1.0568154 0.9741575 0.90839195
0.9876527 1.0462794 1.0167775 1.1122926 1.0590692 0.78728825 0.9293729 0.9799812
1.0874563 0.93374056 1.1160926 0.96304876 0.9984101 1.0148408 1.0112709 1.0152177
0.8989951 1.0531632 1.0688037 1.0772072 0.9846179 1.0068605 0.95306414 0.84992427
1.006644 0.989156 0.9895734 1.011429 0.9900038 1.0021315 0.9953422 0.91711706
1.0581405 1.0149533 1.0389206 1.0560491 1.1963335 0.9886936 1.0602541 1.0902078
1.0279014 1.0937074 1.0574505 1.054784 1.01791 1.0631368 1.0619959 1.1909856
00000000: 12bd 823f 3d7c 803f 3968 703f cfe4 5c3f
00000010: 5ab0 813f bfaa 903f ec5f 893f cc41 8e3f
00000020: cc75 843f 0338 823f 60a0 803f 6dfa 723f
00000030: dc6c 7d3f ba45 873f 6362 793f 608c 683f
00000040: cfd6 7c3f 7cec 853f c425 823f 9b5f 8e3f
00000050: 948f 873f b98b 493f 62eb 6d3f 0ce0 7a3f
00000060: c531 8b3f 9f09 6f3f 1fdc 8e3f 5d8a 763f
00000070: ce97 7f3f 4ee6 813f 5371 813f a7f2 813f
00000080: 8b24 663f 0dce 863f 8fce 883f ede1 893f
00000090: eb0f 7c3f cee0 803f 03fc 733f a394 593f
000000a0: b6d9 803f 5439 7d3f af54 7d3f 8176 813f
000000b0: e470 7d3f d845 803f bfce 7e3f 2fc8 6a3f
000000c0: 2671 873f fde9 813f 5afb 843f 9e2c 873f
000000d0: 7521 993f 061b 7d3f 68b6 873f ee8b 8b3f
000000e0: 4692 833f 9bfe 8b3f 8a5a 873f 2a03 873f
000000f0: e04a 823f de14 883f 7bef 873f 3772 983f

attentionblocks.0.layernorm0.bias f4 [64]
0.0046965536 0.013297841 -0.04225582 -0.03259435 -0.031864323 0.00251683 0.02272229 -0.015134669
0.011844078 0.054619767 0.06150703 0.034157205 0.032087553 -0.04092927 0.031719167 -0.0006773001
0.03732597 0.04659042 0.00066879625 -0.036728844 0.071244024 -0.03198784 -0.044058863 -0.015496203
-0.004810522 0.0014140079 0.012279259 -0.012004002 -0.0066098263 0.0018849755 -0.003321359 0.0026854652
0.02925308 -0.033376854 0.030044738 -0.12697291 0.037836578 0.017957533 0.021484515 -0.0052866563
-0.009133013 0.0026015535 0.021266984 -0.008054866 -0.005135386 0.028037723 0.032918397 0.019754345
-0.0034403764 -0.051132236 0.046366222 -0.020467576 0.005113522 -0.028157968 0.115124166 -0.118895546
-0.011523516 -0.036596075 -0.002302514 -0.010282407 0.02438453 0.09223495 0.12753236 -0.0029076547
00000000: 8ce5 993b 30df 593c 7014 2dbd a781 05bd
00000010: 2a84 02bd 67f1 243b 1924 ba3c 67f7 77bc
00000020: aa0d 423c fab8 5f3d ccee 7b3d 6de8 0b3d
00000030: 3d6e 033d 73a5 27bd f5eb 013d d78c 31ba
00000040: 1ee3 183d 99d5 3e3d 2852 2f3a fc70 16bd
00000050: 63e8 913d ae05 03bd 1177 34bd c9e3 7dbc
00000060: 95a1 9dbb 3b56 b93a f22e 493c 6fac 44bc
00000070: 3e97 d8bb 4811 f73a 28ab 59bb a1fe 2f3b
00000080: 28a4 ef3c 2bb6 08bd 6220 f63c 3005 02be
00000090: 87fa 1a3d ad1b 933c 4b00 b03c b03b adbb
000000a0: a2a2 15bc d37e 2a3b 1938 ae3c 8ff8 03bc
000000b0: bd46 a8bb 5eaf e53c 71d5 063d ddd3 a13c
000000c0: f077 61bb 0970 51bd 82ea 3d3d 9eab a7bc
000000d0: 558f a73b 8aab e6bc 38c6 eb3d 827f f3bd
000000e0: 21cd 3cbc c4e5 15bd c6e5 16bb 8a77 28bc
000000f0: 11c2 c73c ade5 bc3d d897 023e 5a8e 3ebb

attentionblocks.0.layernorm1a.weight f4 [64]
1.0440603 0.9389842 0.9804738 0.9461348 1.0184022 1.1217362 1.053732 1.0744628
0.9927809 1.0312866 0.9886634 0.9502572 0.9817523 1.0542271 0.9990725 0.9781976
0.87502754 1.0581571 1.0307792 1.0964332 1.0607466 0.94155777 0.99589074 1.0080298
1.0268915 0.9576007 1.0400206 0.99996287 1.016663 1.0060352 0.97585887 1.008499
0.9264284 1.0431983 1.0149024 1.0085803 0.95726514 1.0157439 0.93500066 0.92819405
1.0200716 0.9989244 0.98036325 1.0026546 1.0102572 1.0474119 1.0057851 0.91062284
1.0008507 1.0370917 1.0339808 1.0709202 1.0766892 0.9204743 1.0654182 0.99753034
1.0091337 1.0135689 1.0375731 1.0051978 0.99808663 1.0334624 1.0783584 1.1070302
00000000: c5a3 853f 4561 703f 5500 7b3f e435 723f
00000010: 015b 823f 0d95 8f3f b1e0 863f ff87 893f
00000020: e426 7e3f 3301 843f 0b19 7d3f 0e44 733f
00000030: 1e54 7b3f eaf0 863f 37c3 7f3f 286b 7a3f
00000040: ce01 603f b171 873f 93f0 833f ec57 8c3f
00000050: 8bc6 873f ee09 713f b2f2 7e3f 1f07 813f
00000060: 2e71 833f 5225 753f 651f 853f 91fd 7f3f
00000070: 0322 823f c3c5 803f e3d1 793f 7f16 813f
00000080: 692a 6d3f 8687 853f 52e8 813f 2919 813f
00000090: 540f 753f e503 823f 345c 6f3f 209e 6d3f
000000a0: b591 823f 82b9 7f3f 16f9 7a3f fc56 803f
000000b0: 1c50 813f 9811 863f 91bd 803f 941e 693f
000000c0: e01b 803f 6cbf 843f 7c59 843f ea13 893f
000000d0: f4d0 893f 34a4 6b3f a05f 883f 265e 7f3f
000000e0: 4b2b 813f a0bc 813f 32cf 843f 52aa 803f
000000f0: 9b82 7f3f 7f48 843f a607 8a3f 2ab3 8d3f

attentionblocks.0.layernorm1a.bias f4 [64]
-0.0073357807 -0.007947295 -0.035398696 0.032193817 -0.031113088 -0.025350578 0.018050227 -0.014416021
-0.020276045 0.03362864 0.03179946 0.031054039 -0.010298269 -0.0080983825 0.03057276 -0.044097897
0.019180479 0.026013827 0.0002195109 0.008189661 0.04290727 0.054349653 -0.04086103 0.03305847
0.037636027 0.0076234057 0.00973343 0.05214813 -0.08938178 -0.016968792 -0.0037758783 -0.0371273
-0.067652404 -0.05142597 0.04707267 -0.0064244596 -0.047524225 -0.00485455 -0.03492934 0.08451563
0.020346534 0.022202263 0.045640744 0.025480995 -0.009745476 -0.011121594 -0.07248226 0.053792026
-0.042506192 0.071956545 0.032052565 -0.03728377 -0.034465007 -0.06587463 0.01565752 -0.07363161
-0.04947756 0.0040645055 0.004095925 -0.025534142 0.021310342 0.019290889 0.050992418 0.009427736
00000000: fd60 f0bb 5f35 02bc 39fe 10bd aadd 033d
00000010: e0e0 febc 04ac cfbc 12de 933c 2d31 6cbc
00000020: f319 a6bc 2fbe 093d 2740 023d 0a65 fe3c
00000030: 12ba 28bc 14af 04bc ba73 fa3c ff9f 34bd
00000040: 6120 9d3c f31a d53c 822c 6639 ee2d 063c
00000050: 89bf 2f3d be9d 5e3d e55d 27bd 5168 073d
00000060: 3c28 1a3d c3cd f93b f778 1f3c 4799 553d
00000070: cb0d b7bd 2302 8bbc ba74 77bb cc12 18bd
00000080: 588d 8abd 0aa4 52bd 46cf 403d 4684 d2bb
00000090: c3a8 42bd eb12 9fbb 1112 0fbd 8816 ad3d
000000a0: c6ad a63c 85e1 b53c caf1 3a3d 85bd d03c
000000b0: 7dab 1fbc 5937 36bc 9471 94bd 0755 5c3d
000000c0: f91a 2ebd f45d 933d 8d49 033d deb6 18bd
000000d0: 2e2b 0dbd 47e9 86bd 3344 803c 2bcc 96bd
000000e0: fba8 4abd 8b2f 853b 1c37 863b fa2c d1bc
000000f0: 0793 ae3c ed07 9e3c 6ddd 503d ca76 1a3c

attentionblocks.0.layernorm1b.weight f4 [64]
1.0779668 0.9717421 1.0764134 1.0442537 1.0595621 1.023109 1.0698215 1.0669737
1.0496671 1.0600065 0.99702346 1.0544636 1.0809191 0.99990934 1.1009885 1.0409316
1.0173851 1.1632048 1.0146116 1.0154084 1.043615 1.0807996 1.044746 1.0533229
1.0311931 1.0461022 1.0445637 1.050251 1.1427562 1.0293567 1.0208552 1.0329669
1.0870024 1.0615596 1.0382888 1.1524869 1.0483316 1.0217073 1.0177535 1.100169
0.9889701 1.1093615 1.0936751 1.0682406 1.0187256 1.0426025 1.0394229 1.0426203
0.9945948 1.0815024 1.1003649 1.0679693 0.998368 1.041696 1.0783632 1.0268556
1.0588787 0.9881502 1.0385042 1.0333326 1.0339869 1.0377988 1.0618647 1.0873446
00000000: d1fa 893f 17c4 783f eac7 893f 1baa 853f
00000010: bb9f 873f 3cf5 823f e9ef 883f 9892 883f
00000020: 7e5b 863f 4bae 873f ee3c 7f3f aaf8 863f
00000030: 8f5b 8a3f 0ffa 7f3f 31ed 8c3f 3f3d 853f
00000040: ad39 823f e5e3 943f cbde 813f e7f8 813f
00000050: 2d95 853f a457 8a3f 3dba 853f 49d3 863f
00000060: 23fe 833f ade6 853f 43b4 853f a06e 863f
00000070: d645 923f f6c1 833f 62ab 823f 4238 843f
00000080: e522 8b3f 2fe1 873f a6e6 843f b184 933f
00000090: bb2f 863f 4ec7 823f bf45 823f 56d2 8c3f
000000a0: 252d 7d3f 8fff 8d3f 8cfd 8b3f 1cbc 883f
000000b0: 9a65 823f 0074 853f cf0b 853f 9574 853f
000000c0: c49d 7e3f ac6e 8a3f c2d8 8c3f 38b3 883f
000000d0: 0c95 7f3f 4b56 853f ce07 8a3f 0170 833f
000000e0: 5689 873f 69f7 7c3f b5ed 843f 3e44 843f
000000f0: af59 843f 97d6 843f 2feb 873f 1c2e 8b3f

attentionblocks.0.layernorm1b.bias f4 [64]
0.03430178 0.005363404 -0.05490316 -0.018815236 -0.011295079 0.070446886 0.012455608 -0.025027456
-0.038511753 0.021452988 0.037518367 0.027725441 0.049567662 -0.027925322 0.035516027 -0.0065379823
-0.0074232006 0.02075459 -0.046089873 -0.029330308 0.011826506 -0.102846295 -0.003782599 0.003154243
-0.054555032 0.015024728 -0.039974 0.031125048 0.039509818 0.042816572 0.002630347 -0.017859576
0.0044574714 -0.044536218 -0.027937394 -0.03920609 0.04683076 0.028326161 0.034089927 -0.026479626
-0.031268276 -0.006848491 0.01409757 0.00732436 -0.04090909 0.023294859 -0.0002599386 -0.015306954
0.009193414 0.0067835744 -0.02189796 0.0367389 -0.00042174506 0.03542404 -0.0026645923 0.0018169151
0.0029972587 0.034976713 -0.018959438 -0.0048811766 -0.026529564 0.037435386 0.019176142 -0.009800774
00000000: 0680 0c3d 7ebf af3b 23e2 60bd 6922 9abc
00000010: ff0e 39bc 7546 903d 9b12 4c3c 6106 cdbc
00000020: 80be 1dbd 2dbe af3c dcac 193d 7720 e33c
00000030: 7607 4b3d a5c3 e4bc 4179 113d 923c d6bb
00000040: 523e f3bb 8805 aa3c bcc8 3cbd 1d46 f0bc
00000050: f6c3 413c 14a1 d2bd 7be5 77bb 6bb7 4e3b
00000060: 1975 5fbd 472a 763c c7bb 23bd f5f9 fe3c
00000070: 0cd5 213d 6e60 2f3d e661 2c3b 3f4e 92bc
00000080: fb0f 923b 9c6b 36bd f6dc e4bc 9196 20bd
00000090: 9cd1 3f3d 440c e83c e1a1 0b3d cdeb d8bc
000000a0: 2a13 00bd 4e69 e0bb 7ff9 663c 2f01 f03b
000000b0: 4a90 27bd dcd4 be3c 5e48 88b9 05ca 7abc
000000c0: f99f 163c bf48 de3b 5a63 b3bc 877b 163d
000000d0: aa1d ddb9 cc18 113d 71a0 2ebb 8e25 ee3a
000000e0: a86d 443b be43 0f3d d350 9bbc 47f2 9fbb
000000f0: 8754 d9bc d955 193d 4917 9d3c 6d93 20bc

attentionblocks.0.layernorm2a.weight f4 [64]
1.011577 1.0261496 0.8855634 0.9336246 1.0010346 0.99903536 1.0075947 1.0584998
0.98404187 1.0757127 1.0069314 0.97724736 0.98318547 0.97895926 0.9726486 0.9489431
1.0526935 1.0179594 1.0289938 0.99310946 0.98927283 0.9577559 0.9982228 1.0388358
1.0475538 0.94397753 1.0824012 0.9460518 1.0191978 0.9861932 0.98629993 1.0341456
1.0372887 1.0031234 1.0482621 1.1050864 1.0126153 0.94780594 0.9883901 0.91129464
0.9784026 0.9976494 1.0211883 0.9785649 0.99926054 1.0365936 0.99365664 0.96499056
0.97311175 1.0285429 1.036466 1.0350965 1.0629905 1.055498 1.0086961 1.0166063
1.0183815 0.9699787 0.9972306 1.0072328 1.0166255 1.0246102 1.0143725 1.0664861
00000000: 5b7b 813f df58 833f 48b4 623f 0602 6f3f
00000010: e721 803f c8c0 7f3f ddf8 803f ec7c 873f
00000020: 2bea 7b3f f4b0 893f 21e3 803f e22c 7a3f
00000030: 0bb2 7b3f 139d 7a3f 80ff 783f efed 723f
00000040: a9be 863f 7e4c 823f 12b6 833f 6c3c 7e3f
00000050: fc40 7d3f 7e2f 753f 888b 7f3f 92f8 843f
00000060: 3e16 863f 83a8 713f 1f8c 8a3f 7330 723f
00000070: 1375 823f 2877 7c3f 277e 7c3f e25e 843f
00000080: e0c5 843f 5966 803f 742d 863f 7973 8d3f
00000090: 619d 813f 69a3 723f 2207 7d3f 9b4a 693f
000000a0: 9878 7a3f f365 7f3f 4cb6 823f 3b83 7a3f
000000b0: 8acf 7f3f 19af 843f 4860 7e3f 9f09 773f
000000c0: da1d 793f 4ba7 833f ebaa 843f 0b7e 843f
000000d0: 1310 883f 8f1a 873f f41c 813f 2820 823f
000000e0: 535a 823f 8650 783f 814a 7f3f 01ed 803f
000000f0: c920 823f 6d26 833f f5d6 813f 9e82 883f

attentionblocks.0.layernorm2a.bias f4 [64]
0.035453457 0.0071265246 -0.041847095 -0.012803347 -0.015850507 0.085454516 0.032701775 -0.023910694
-0.032407053 0.027530456 0.048441794 0.031597465 0.058082018 -0.030517876 0.03560553 -0.007382658
-0.00641204 0.027323436 -0.040729 -0.02840368 0.02282501 -0.11126861 -0.0012326055 0.003825613
-0.060695175 0.022001658 -0.032305777 0.03488868 0.043132957 0.051520664 0.0007606657 -0.003614048
0.0050433385 -0.02783156 -0.020029383 -0.041878443 0.053568106 0.034628987 0.033880882 -0.02348048
-0.028512476 -0.0076314067 0.018688262 0.0045936042 -0.043246258 0.028557915 -0.006302345 -0.00018796865
0.011098452 0.024187727 -0.01955752 0.033415113 -0.002755602 0.048009697 0.01154643 0.0014987207
0.0047115083 0.027087228 -0.021860113 0.0157409 -0.023941843 0.042107232 0.021748314 -0.0005130799
00000000: a537 113d 9f85 e93b dc67 2bbd 21c5 51bc
00000010: ecd8 81bc c702 af3d 4cf2 053d 5ce0 c3bc
00000020: 42bd 04bd 8d87 e13c e76a 463d 586c 013d
00000030: 69e7 6d3d a000 fabc 1bd7 113d 39ea f1bb
00000040: 171c d2bb 66d5 df3c 74d3 26bd d6ae e8bc
00000050: 84fb ba3c cce0 e3bd 618f a1ba 23b7 7a3b
00000060: 819b 78bd d23c b43c 1053 04bd 6fe7 0e3d
00000070: 2fac 303d 5507 533d 6967 473a aad9 6cbb
00000080: 9742 a53b 03ff e3bc a914 a4bc bb88 2bbd
00000090: 3b6a 5b3d 20d7 0d3d aec6 0a3d 235a c0bc
000000a0: ff92 e9bc e110 fabb 2018 993c f285 963b
000000b0: fd22 31bd 4af2 e93c e783 cebb 7319 45b9
000000c0: 48d6 353c 5725 c63c 1837 a0bc 49de 083d
000000d0: 5497 34bb d1a5 443d 3d2d 3d3c b970 c43a
000000e0: ff62 9a3b 09e6 dd3c fb13 b3bc 0ff3 803c
000000f0: af21 c4bc a278 2c3d 8529 b23c 3680 06ba

attentionblocks.0.layernorm2b.weight f4 [64]
1.0425997 1.0093279 0.89354765 0.9907583 0.97167194 1.0521683 0.88873637 1.0061136
0.98359376 0.9906198 0.9823273 0.9850754 0.95108265 0.9971203 1.0369174 1.0408664
1.0234017 0.9933231 0.9777761 0.96359473 0.9794488 0.967738 0.95804906 1.0056847
1.1286956 0.90952873 1.0286793 1.0274975 0.98219717 0.97318757 1.0640211 1.0432525
1.0595758 1.0121695 1.0002218 0.98110586 0.99917614 1.047977 1.013772 1.0249685
1.005508 0.90638334 1.0370622 0.97737944 0.96920854 0.9779542 0.9714229 0.99652773
1.0412185 1.0049285 1.0144231 0.99728674 0.87654895 1.0883814 1.0369748 0.97498864
1.0267214 1.036731 0.9528248 1.0513356 0.9757863 0.99286157 1.0404974 1.0127823
00000000: e873 853f a831 813f 8abf 643f 56a2 7d3f
00000010: 7ebf 783f 73ad 863f 3a84 633f 55c8 803f
00000020: cdcc 7b3f 4299 7d3f cd79 7b3f e72d 7c3f
00000030: 277a 733f 4743 7f3f b6b9 843f 1c3b 853f
00000040: d4fe 823f 6c4a 7e3f 894f 7a3f 25ae 763f
00000050: 28bd 7a3f adbd 773f b442 753f 47ba 803f
00000060: 1979 903f e0d6 683f c3ab 833f 0a85 833f
00000070: 4671 7b3f d222 793f d831 883f 4c89 853f
00000080: 2ea0 873f c58e 813f 4507 803f c129 7b3f
00000090: 02ca 7f3f 1c24 863f 48c3 813f 2b32 833f
000000a0: 7cb4 803f bd08 683f 74be 843f 8a35 7a3f
000000b0: 0d1e 783f 355b 7a3f 2caf 783f 711c 7f3f
000000c0: a646 853f 7fa1 803f 9ed8 813f 2f4e 7f3f
000000d0: 8365 603f 1550 8b3f 97bb 843f db98 793f
000000e0: 9b6b 833f 9ab3 843f 53ec 733f 2a92 863f
000000f0: 22cd 793f 2d2c 7e3f 052f 853f daa2 813f

attentionblocks.0.layernorm2b.bias f4 [64]
-0.06297209 -0.029942304 -0.02369878 -0.009759773 -0.032757375 -0.034416366 0.05596102 -0.076709084
-0.05295446 -0.024910877 -0.068445295 -0.042639125 -0.055831645 -0.094665386 -0.020277655 -0.15059498
-0.030793933 -0.07767392 -0.07704019 -0.03945907 -0.021747602 -0.02743646 -0.05837466 0.00047613773
-0.26582938 -0.03520397 -0.13267678 -0.061878465 -0.02086527 -0.051970366 -0.06242562 -0.10003195
-0.18601187 -0.10440006 -0.06393825 -0.01731681 -0.0051329047 -0.044580348 -0.029071383 -0.045242265
-0.05527047 -0.07422613 -0.0005002231 -0.017651193 -0.030037768 0.044398423 -0.018232657 -0.031353716
-0.06272268 -0.105523996 -0.060050827 -0.08694694 -0.053044904 -0.27233556 0.0033669265 -0.022732269
-0.046672873 -0.0387278 -0.09891123 -0.040594015 -0.046651106 -0.05369473 -0.07304418 -0.026091104
00000000: 83f7 80bd 9049 f5bc f223 c2bc 74e7 1fbc
00000010: 992c 06bd 2df8 0cbd 6237 653d a719 9dbd
00000020: c7e6 58bd e511 ccbc 0c2d 8cbd 5da6 2ebd
00000030: b9af 64bd eddf c1bd 531d a6bc 9235 1abe
00000040: 8f43 fcbc 8113 9fbd 3fc7 9dbd d59f 21bd
00000050: 0728 b2bc 6dc2 e0bc 441a 6fbd 20a2 f939
00000060: ca1a 88be 0a32 10bd 6cdc 07be 4674 7dbd
00000070: a5ed aabc e1de 54bd 02b2 7fbd 8ddd ccbd
00000080: e579 3ebe b3cf d5bd 0ff2 82bd fcdb 8dbc
00000090: ed31 a8bb e299 36bd 1c27 eebc f44f 39bd
000000a0: 4a63 62bd df03 98bd 6721 03ba 3c99 90bc
000000b0: c411 f6bc 1fdb 353d a75c 95bc c16c 00bd
000000c0: c074 80bd f71c d8bd dbf7 75bd 3d11 b2bd
000000d0: 9d45 59bd 916f 8bbe a7a7 5c3b 0639 babc
000000e0: 0e2c 3fbd 0ba1 1ebd f991 cabd e945 26bd
000000f0: 3b15 3fbd 01ef 5bbd 3098 95bd 03bd d5bc

attentionblocks.0.fc_q_list.0.weight f4 [16, 64]
0.06879738 0.1236586 0.019944565 -0.037050545 -0.12472563 -0.21586749 -0.25575215 0.16675445
0.10642262 -0.035600223 -0.029820802 -0.06277092 -0.13275415 0.10090473 -0.25226176 -0.057646748
-0.036651347 0.2747252 0.07822947 0.2300804 0.10029864 0.013168869 0.01622297 0.25255617
-0.059807308 -0.19547434 -0.03133962 0.015508715 0.20783947 0.15654394 -0.17777945 -0.08661581
-0.018310446 0.052540343 0.21357907 -0.029505324 0.1786349 0.16346745 -0.01816577 -0.14006649
0.14812635 0.1946746 0.068811536 -0.033015855 0.2669138 -0.058806133 -0.22760966 0.07336764
0.022746267 -0.028634977 -0.11663931 0.1890012 -0.10151672 0.18679686 -0.06242197 0.023286838
0.106376186 0.122835696 -0.0040367497 0.06303002 -0.2731064 0.03504254 -0.05845645 -0.11989133
-0.15480477 0.19679694 -0.14124176 -0.055033635 0.32290497 -0.14994778 -0.16219136 0.08485143
0.19820152 -0.20546316 0.16524598 -0.14304908 -0.127515 0.0054766405 0.007508965 0.102867745
0.06724092 -0.15033904 0.16030529 -0.07929412 0.042053077 0.048284624 -0.042036563 0.03598907
0.19906664 -0.08497348 -0.18096268 0.09221226 0.17514017 0.08974619 -0.071744755 -0.0052493727
-0.050840966 0.03568184 0.09872992 -0.19988936 -0.005424603 -0.01991725 0.067164026 -0.059578463
-0.18245547 0.09267243 -0.11765765 0.16709799 -0.042098742 -0.19762172 -0.11916911 0.17067753
-0.17677979 -0.09784512 0.066871345 0.07468824 -0.032226633 0.17290895 -0.080109544 -0.06809089
0.15426719 -0.24946342 0.13945782 0.03316084 -0.18317293 0.038632546 0.0053119124 -0.2895374
0.06287256 0.0013332408 -0.027028784 0.11529597 0.054377135 -0.03370519 0.060045004 -0.07799466
-0.06574998 -0.00040487954 0.026563777 -0.08392931 -0.09921232 -0.10689671 0.14534368 -0.011984539
0.052538723 0.10201099 -0.16990173 -0.06138818 -0.16266192 0.09480859 0.034649983 -0.11568185
0.04365358 0.2786685 0.08249345 -0.09975156 -0.12250443 -0.061499156 0.089978755 -0.09303351
0.09692124 0.04619187 -0.06210804 0.055938743 0.038770583 -0.0942103 -0.29633832 0.014225918
-0.0716608 -0.12939087 -0.08710509 -0.027194243 -0.075802155 0.042644918 -0.16505387 -0.0692198
-0.011718317 0.0050578434 -0.1029926 -0.08161179 0.16603465 -0.046896778 0.036979392 -0.07757968
0.10025685 0.010194682 -0.031021819 0.03849829 0.07264322 0.06195636 -0.09487183 0.018681727
-0.033191327 -0.12104849 0.15305923 -0.22057588 -0.0954837 0.010074256 0.07844073 -0.20895292
0.086293295 0.051498614 0.1256381 -0.16421314 0.16837744 0.13306059 -0.006575238 0.070598885
0.06738472 0.123978354 0.20846854 -0.1943971 -0.067978255 -0.04706638 0.09245289 -0.163885
0.0070871483 -0.11896387 -0.023646638 0.13800526 -0.08563037 0.11668759 0.22920975 0.19468358
-0.20204903 0.10770985 0.10106034 -0.16516602 -0.11711843 -0.27289042 0.12426403 -0.07744184
-0.16061386 0.008738905 -0.105754204 -0.09284179 0.10884587 0.10945765 0.12183119 -0.0110650305
0.07995017 0.18693033 -0.09132427 -0.15493609 0.13282403 0.010743376 0.114065535 -0.072342984
-0.12138381 -0.14271447 0.08625339 0.13871533 0.028772052 0.19907096 0.11569574 -0.06464506
00000000: a4e5 8c3d b840 fd3d c962 a33c 50c2 17bd
00000010: 2770 ffbd 5e0c 5dbe f2f1 82be aec1 2a3e
00000020: 1af4 d93d 8ad1 11bd c14a f4bc 0a8e 80bd
00000030: b4f0 07be 24a7 ce3d 7428 81be ff1e 6cbd
00000040: b91f 16bd c8a8 8c3e c636 a03d 329a 6b3e
00000050: 6069 cd3d 3dc2 573c 09e6 843c 0b4f 813e
00000060: 82f8 74bd 6d2a 48be f95d 00bd 4418 7e3c
00000070: dfd3 543e 0e4d 203e d10b 36be a163 b1bd
00000080: caff 95bc 8b34 573d 79b4 5a3e 26b5 f1bc
00000090: 11ec 363e 0364 273e 62d0 94bc 976d 0fbe
000000a0: 6fae 173e c758 473e 10ed 8c3d a23b 07bd
000000b0: eda8 883e b3de 70bd 8212 69be c641 963d
000000c0: 6156 ba3c e693 eabc 97e0 eebd 8889 413e
000000d0: 00e8 cfbd ad47 3f3e 2eae 7fbd 0ac4 be3c
000000e0: c2db d93d 4891 fb3d b646 84bb e215 813d
000000f0: 9ad4 8bbe c488 0f3d 0870 6fbd 9689 f5bd
00000100: 2485 1ebe 2385 493e aea1 10be f36a 61bd
00000110: cd53 a53e e98b 19be 7e15 26be 96c6 ad3d
00000120: 57f5 4a3e ef64 52be 3e36 293e 757b 12be
00000130: 4b93 02be 6475 b33b c40d f63b 53ac d23d
00000140: 9cb5 893d 7af2 19be 1227 243e f564 a2bd
00000150: d93f 2c3d 19c6 453d 882e 2cbd 4669 133d
00000160: 20d8 4b3e 9306 aebd 484e 39be c8d9 bc3d
00000170: f257 333e dacc b73d eaee 92bd ee02 acbb
00000180: 9e3e 50bd 1f27 123d ea32 ca3d ccaf 4cbe
00000190: dec0 b1bb 8029 a3bc 4b8d 893d 8c08 74bd
000001a0: 9bd5 3abe 0bcb bd3d 7ef6 f0bd bc1b 2b3e
000001b0: bb6f 2cbd 595d 4abe ef0e f4bd 17c6 2e3e
000001c0: c305 35be 0663 c8bd d8f3 883d 26f6 983d
000001d0: 1300 04bd 0b0f 313e 7910 a4bd 3d73 8bbd
000001e0: 38f8 1d3e 5773 7fbe 08ce 0e3e a9d3 073d
000001f0: af91 3bbe 293d 1e3d 8d0f ae3b 3f3e 94be
00000200: 54c3 803d 23c0 ae3a 786b ddbc 4b20 ec3d
00000210: 8fba 5e3d 740e 0abd c0f1 753d aabb 9fbd
00000220: eda7 86bd 0346 d4b9 479c d93c 21e3 abbd
00000230: d42f cbbd aaec dabd f9d4 143e cd5a 44bc
00000240: d832 573d 23eb d03d b8fa 2dbe 2c72 7bbd
00000250: d990 26be 022b c23d 24ed 0d3d 9bea ecbd
00000260: 19ce 323d a3ad 8e3e 53f2 a83d 8c4a ccbd
00000270: 9ae3 fabd 8ae6 7bbd c846 b83d 5a88 bebd
00000280: a57e c63d b033 3d3d 0065 7ebd 0620 653d
00000290: e7cd 1e3d 54f1 c0bd a8b9 97be d313 693c
000002a0: e6c2 92bd 0a7f 04be 2764 b2bd 76c6 debc
000002b0: 293e 9bbd 70ac 2e3d e203 29be 1cc3 8dbd
000002c0: 2ffe 3fbc 44bc a53b c9ed d2bd 1524 a7bd
000002d0: fd04 2a3e d616 40bd b477 173d 18e2 9ebd
000002e0: 7753 cd3d 9807 273c 7821 febc 62b0 1d3d
000002f0: f8c5 943d f4c5 7d3d 294c c2bd 6c0a 993c
00000300: a1f3 07bd 45e8 f7bd 8fbb 1c3e a5de 61be
00000310: f58c c3bd 7e0e 253c 89a5 a03d c1f7 55be
00000320: 8aba b03d 36f0 523d 46a7 003e 7d27 28be
00000330: 236b 2c3e 0941 083e 1875 d7bb 2696 903d
00000340: 0001 8a3d 5de8 fd3d c778 553e 0910 47be
00000350: 2f38 8bbd adc8 40bd f157 bd3d 78d1 27be
00000360: 4f3b e83b 54a3 f3bd 98b6 c1bc 4051 0d3e
00000370: fa5e afbd e7f9 ee3d f6b5 6a3e 225b 473e
00000380: f1e5 4ebe fb96 dc3d b9f8 ce3d 4821 29be
00000390: cadb efbd 4bb8 8bbe 247e fe3d d499 9ebd
000003a0: f677 24be a02d 0f3c a995 d8bd d623 bebd
000003b0: 95ea de3d 552b e03d a282 f93d 1a4a 35bc
000003c0: eabc a33d aa6a 3f3e 3808 bbbd 91a7 1ebe
000003d0: 0603 083e fc04 303c 319b e93d 8f28 94bd
000003e0: 1398 f8bd be23 12be 9ea5 b03d 640b 0e3e
000003f0: 5eb3 eb3c 42d9 4b3e e3f1 ec3d a164 84bd

attentionblocks.0.fc_q_list.1.weight f4 [16, 64]
-0.2338873 0.15130053 0.07334262 -0.08877357 -0.042521548 -0.024208462 0.21922773 -0.14299624
0.20274772 0.07089585 0.011272082 -0.020331526 -0.114212796 -0.29969347 -0.27062938 0.15824644
0.103995696 -0.07932211 -0.020313554 0.06807253 -0.07848069 -0.026239866 0.112694494 0.004764315
0.10017527 -0.1853489 0.12416696 0.12916091 0.111379795 0.13314222 -0.11698854 0.077874914
-0.07886331 0.09412767 0.15242697 -0.09295371 0.045778714 0.11692827 0.11432186 -0.23326609
0.02112585 -0.0095548555 -0.16203909 -0.121029064 0.10955462 0.10668529 -0.11211075 0.049911585
0.028010791 -0.093526736 -0.025581313 0.021935618 0.094940625 0.04441251 0.12678865 0.038354367
0.11474399 -0.20345753 -0.055700995 -0.11384321 0.12830962 0.10644063 -0.026792513 0.035925247
0.09020541 -0.060637604 -0.010994985 -0.013444052 -0.07649886 0.037882626 0.0707061 -0.14559308
-0.09758239 -0.053645737 0.06981968 0.07690286 -0.084111065 -0.06327181 -0.063643634 -0.112307586
0.07005731 -0.087422006 -0.088076584 -0.0021388736 0.035192307 0.21865477 0.038589947 -0.1624935
0.104167946 0.11135888 -0.11343324 0.051928595 0.064230956 -0.17728822 0.14454068 -0.072203025
0.11247696 -0.14177099 -0.29226083 0.04669744 0.01981758 0.08342525 -0.07591688 0.22097884
0.12626867 -0.18887013 -0.08557624 0.09867617 -0.003447044 -0.06003539 -0.04365023 0.073200725
-0.035980906 -0.090745844 -0.12217592 0.079429075 0.11899893 -0.16107436 0.052968215 -0.011691376
0.018287506 0.03404304 0.15080836 0.052786894 0.07678638 0.13738069 0.0016599233 0.04698824
-0.06546701 -0.016631221 -0.16865103 -0.08185067 -0.12681282 0.08451329 0.09801371 -0.14583538
0.123419814 0.12692508 0.18298845 -0.14933604 0.12053004 -0.17522842 -0.07349059 0.058382064
0.28609672 0.024976926 -0.30751017 0.028866284 -0.036817793 -0.11953276 -0.15116262 -0.092811465
0.18727165 -0.12630828 0.3000917 -0.017178347 0.06938392 -0.20242615 0.09690128 -0.033185262
0.054003533 0.029967321 -0.14074335 0.11481015 0.14678955 -0.2746356 0.0995651 -0.010779171
0.13239811 0.086407 -0.068238474 -0.1845386 0.19674885 0.12950835 -0.09582559 -0.010241406
0.07231023 0.0869789 0.10819838 -0.13268284 0.23811093 -0.12747163 0.113316715 -0.032043025
0.08356457 -0.12081496 -0.02872905 -0.12279807 0.0042208796 0.13851477 0.006927571 0.18878378
0.29643366 0.2111154 -0.093237445 -0.004053118 0.16259758 -0.0066295764 -0.2662857 -0.012294226
-0.12216584 -0.17899814 0.022333385 -0.10843256 0.08350641 0.007641396 0.028420074 -0.15701014
-0.0066216355 -0.08456131 -0.072389625 0.104228295 -0.238893 0.027006652 -0.15385489 0.17873934
0.38302824 0.12821342 -0.07932714 -0.041169684 -0.06754377 0.07343464 -0.11666536 -0.24511366
-0.07205726 0.035405915 -0.18457413 0.058013443 -0.08728779 -0.049455088 0.09254812 -0.04613678
0.09561346 -0.079194665 -0.020580307 0.08044668 -0.21644884 -0.27101535 0.025241464 0.03363002
-0.18654509 -0.0832622 0.0060421904 0.041928805 -0.07048146 0.0932548 0.0859813 0.103196144
0.2449185 0.13173948 -0.13043392 0.08013884 -0.053546365 -0.13654748 -0.48652995 -0.1297354
00000000: 2780 6fbe 87ee 1a3e a834 963d ebce b5bd
00000010: 132b 2ebd d350 c6bc 3c7d 603e 9b6d 12be
00000020: 199d 4f3e d831 913d 8aae 383c 4d8e a6bc
00000030: 66e8 e9bd 6c71 99be ef8f 8abe 5b0b 223e
00000040: b2fb d43d a173 a2bd 9c68 a6bc 9c69 8b3d
00000050: 7cba a0bd fdf4 d6bc 5fcc e63d f91d 9c3b
00000060: b128 cd3d 1acc 3dbe 3f4b fe3d c242 043e
00000070: 171b e43d 6f56 083e b097 efbd e27c 9f3d
00000080: 1683 a1bd 02c6 c03d d115 1c3e 845e bebd
00000090: 7682 3b3d 1778 ef3d 9421 ea3d 4edd 6ebe
000000a0: 1e10 ad3c f88b 1cbc 93ed 25be 16de f7bd
000000b0: 2c5e e03d d17d da3d 529a e5bd 1770 4c3d
000000c0: e376 e53c f28a bfbd e78f d1bc 53b2 b33c
000000d0: 3b70 c23d e4e9 353d e2d4 013e 7819 1d3d
000000e0: e6fe ea3d 2c57 50be ba26 64bd a126 e9bd
000000f0: 9963 033e 8cfd d93d f97b dbbc 5a26 133d
00000100: 9dbd b83d 235f 78bd 4f24 34bc 7144 5cbc
00000110: 6fab 9cbd d02a 1b3d 5cce 903d 5a16 15be
00000120: 47d9 c7bd a2bb 5bbd 9ffd 8e3d 3f7f 9d3d
00000130: 6c42 acbd a794 81bd 9857 82bd 8501 e6bd
00000140: 357a 8f3d 4f0a b3bd 7f61 b4bd 582c 0cbb
00000150: cf25 103d 09e7 5f3e 7e10 1e3d b264 26be
00000160: 0156 d53d 2010 e43d b04f e8bd 14b3 543d
00000170: 858b 833d 0b8b 35be 7902 143e 2edf 93bd
00000180: 525a e63d 6a2c 11be 36a3 95be d145 3f3d
00000190: 7a58 a23c dcda aa3d 4f7a 9bbd 4748 623e
000001a0: 934c 013e 2c67 41be 9942 afbd bb16 ca3d
000001b0: cde7 61bb abe7 75bd 95ca 32bd 43ea 953d
000001c0: b760 13bd f5d8 b9bd 5e37 fabd b6ab a23d
000001d0: b6b5 f33d adf0 24be 33f5 583d 2f8d 3fbc
000001e0: aecf 953c b770 0b3d 826d 1a3e 1237 583d
000001f0: 2d42 9d3d 86ad 0c3e c991 d93a be76 403d
00000200: 9113 86bd 333e 88bc dbb2 2cbe 53a1 a7bd
00000210: 38db 01be 4e15 ad3d 69bb c83d df55 15be
00000220: 87c3 fc3d a6f8 013e 5361 3b3e 8ceb 18be
00000230: 74d8 f63d 146f 33be 3c82 96bd 0822 6f3d
00000240: 457b 923e 699c cc3c f971 9dbe fc78 ec3c
00000250: 41ce 16bd 97cd f4bd 60ca 1abe f013 bebd
00000260: 24c4 3f3e f556 01be 9fa5 993e 9bb9 8cbc
00000270: 2819 8e3d cd48 4fbe 2e74 c63d 45ed 07bd
00000280: cf32 5d3d 077e f53c 061f 10be 9521 eb3d
00000290: 0050 163e 0a9d 8cbe cae8 cb3d 1f9b 30bc
000002a0: 5f93 073e 27f6 b03d 9dc0 8bbd b0f7 3cbe
000002b0: 8878 493e d69d 043e 3540 c4bd 92cb 27bc
000002c0: 6317 943d fe21 b23d 1d97 dd3d 03de 07be
000002d0: 5ad3 733e ec87 02be 9812 e83d 8c3f 03bd
000002e0: e723 ab3d d56d f7bd 2f59 ebbc 8e7d fbbd
000002f0: 4e4f 8a3b d1d6 0d3e ad00 e33b 8950 413e
00000300: 27c6 973e a32e 583e 46f3 bebd 05d0 84bb
00000310: fb7f 263e eb3c d9bb 9956 88be b96d 49bc
00000320: 1532 fabd 4a4b 37be 81f4 b63c e411 debd
00000330: 6905 ab3d ad64 fa3b 37d1 e83c 44c7 20be
00000340: 4efa d8bb 7b2e adbd 0341 94bd a575 d53d
00000350: 5ea0 74be 0e3d dd3c 238c 1dbe 7207 373e
00000360: 471c c43e 614a 033e 4476 a2bd 8ba1 28bd
00000370: 6354 8abd e764 963d 40ee eebd 13ff 7abe
00000380: c292 93bd cb05 113d 0001 3dbe 819f 6d3d
00000390: f1c3 b2bd 6b91 4abd de89 bd3d ecf9 3cbd
000003a0: fdd0 c33d d030 a2bd 0898 a8bc 3bc1 a43d
000003b0: c4a4 5dbe 86c2 8abe 30c7 ce3c a2bf 093d
000003c0: ad05 3fbe 5f85 aabd 91fd c53b 8abd 2b3d
000003d0: 9558 90bd 5ffc be3d f716 b03d 8058 d33d
000003e0: eacb 7a3e b7e6 063e 7890 05be d51f a43d
000003f0: 6f53 5bbd 1ad3 0bbe 741a f9be 5bd9 04be
