data/user_properties/trained_weights/CrabNet-Egap.pth (torch_old, 263425 bytes, 60 tensors)

prelu1.weight f4 [12]
0.023168413 -0.17404476 -0.27833244 -0.22856462 -0.002453596 0.026755773 -0.033267222 -0.02886038
-0.023965986 -0.018322665 -0.019488169 -0.02036086
00000000: afcb bd3c ca38 32be 9781 8ebe d80c 6abe
00000010: 83cc 20bb ec2e db3c 3643 08bd 9b6c ecbc
00000020: 5154 c4bc 6a19 96bc a7a5 9fbc d1cb a6bc

fc1.weight f4 [64, 119]
0.054355297 0.0066998694 -0.14248727 0.09143525 0.009907097 -0.00031949868 -0.010475182 -0.011433644
0.009031284 0.025228268 -0.14843555 0.04297524 0.07316905 -0.031203479 -0.04032843 -0.1173153
-0.0273432 0.027251108 0.07950608 0.03888979 0.05145681 0.04456764 -0.0014748931 -0.07977872
-0.013482871 0.09777162 0.021809265 -0.090951696 -0.05553802 -0.044087727 0.037871815 0.005016117
-0.023616932 -0.09408669 -0.015278648 -0.23218651 -0.10947908 0.01697469 0.0035879626 0.039475493
-0.025864556 -0.016435806 -0.063282005 0.034068987 -0.064886935 -0.058650948 -0.03394997 -0.034589104
-0.012371228 -0.009669144 -0.0446772 -0.06306416 -0.00027817662 -0.05240082 -0.08408771 0.05425054
0.041137524 -0.0007649715 -0.20161498 0.06232691 -0.008548729 0.04512867 -0.044273347 -0.27821395
0.0067678276 0.0062051495 0.0055227308 0.01019109 -0.037062537 -0.09866065 -0.31105235 -0.051064745
-0.03452744 -0.030841991 -0.11502503 -0.03264392 -0.038096584 -0.045471855 -0.048515543 -0.22472115
0.005410791 0.038813673 0.046510972 -0.008117396 0.08695124 0.13977139 0.07049495 0.1387793
0.1549394 0.12981758 -0.030494664 -0.011456236 -0.07376504 0.049887083 -0.15111297 0.19849005
0.18656383 0.1276951 0.04249423 0.13590746 0.10399694 0.13948292 0.07440732 0.08133316
0.16613102 0.15531266 0.04664302 0.15461223 0.032472197 0.1489128 0.1677575 0.17105083
0.1585167 0.12398238 0.11899203 0.16387807 0.14700043 0.15917724 -0.22711053 0.056063533
-0.0020842028 -0.07545675 -0.04413118 0.10803531 0.014115766 -0.009932323 0.1673335 -0.010428255
-0.029525638 -0.01684303 0.06479243 0.039780598 0.100013375 0.10953135 0.06999976 0.0046728584
-4.964174e-06 0.09828872 -0.034910522 -0.017509064 -0.03950878 -0.06533138 0.0063524204 -0.022030508
0.06230055 -0.048534792 -0.16705748 -0.19877338 -0.025867231 -0.023875495 0.0010773609 -0.0773621
-0.33598202 -0.026376193 0.092248216 0.048985563 -0.022214863 -0.030379971 -0.0318336 -0.050461516
-0.079667985 -0.074647106 0.058144346 -0.019345159 -0.040693223 -0.0709247 -0.01863256 -0.14499794
-0.07680709 -0.14882627 -0.1750667 -0.08000967 -0.0065393075 0.17296092 -0.016218992 -0.040188696
-0.040193688 -0.2665712 -0.2559462 -0.222802 0.13252811 -0.014121084 -0.013463534 -0.06896371
-0.075348295 -0.06696945 -0.027168725 -0.055387426 -0.026547007 0.02647664 -0.0070013874 -0.09044926
-0.20580538 -0.23143406 -0.078131676 -0.05808911 -0.0791698 -0.059301857 0.03714269 -0.00012515053
-0.09549266 -0.10589357 -0.055829145 -0.0073105246 0.10987476 -0.06600881 0.03909212 -0.01900489
0.05481092 -0.07714663 -0.1158283 -0.12000645 0.058401886 -0.0023547022 -0.004561811 -0.0069281547
-0.02945354 0.0627471 0.07015431 0.025261331 -0.057005797 0.0270638 -0.06946452 0.02631569
0.10467117 0.021516465 0.07031548 0.059228487 0.08261429 0.06946328 0.04846408 0.0041239583
0.069078706 0.060497515 0.0879302 0.021324955 0.06813907 0.011013218 -0.01641219 0.060151845
0.18421268 -0.0164233 -0.026535952 -0.019529564 -0.046852835 -0.0152935665 -0.018221918 -0.0090977
0.1876989 -0.04824727 -0.063738756 -0.032370266 0.01413445 -0.08361233 -0.034279462 -0.069462925
00000000: a9a3 5e3d 948a db3b 2fe8 11be 6842 bb3d
00000010: 6051 223c 6382 a7b9 19a0 2bbc 2e54 3bbc
00000020: f3f7 133c 83ab ce3c 7dff 17be ce06 303d
00000030: a8d9 953d 709e ffbc 6c2f 25bd 0143 f0bd
00000040: d9fe dfbc b73d df3c 15d4 a23d e74a 1f3d
00000050: 60c4 523d 8f8c 363d 3351 c1ba 0763 a3bd
00000060: 43e7 5cbc 7d3c c83d 58a9 b23c e244 babd
00000070: d67b 63bd 5595 34bd 7a1f 1b3d 3d5e a43b
00000080: 4c78 c1bc 86b0 c0bd 4b53 7abc 4dc2 6dbe
00000090: 9136 e0bd 810e 8b3c 0624 6b3b 0eb1 213d
000000a0: e8e1 d3bc 62a4 86bc ff99 81bd ec8b 0b3d
000000b0: 71e3 84bd fa3b 70bd 200f 0bbd 4ead 0dbd
000000c0: b1b0 4abc 546b 1ebc 71ff 36bd c827 81bd
000000d0: 3cd8 91b9 3ea2 56bd 2d36 acbd d035 5e3d
000000e0: d27f 283d 5e88 48ba 2874 4ebe 814a 7f3d
000000f0: f80f 0cbc d7d8 383d f857 35bd 0f72 8ebe
00000100: a7c4 dd3b 9154 cb3b 06f8 b43b 88f8 263c
00000110: e3ce 17bd 980e cabd 4142 9fbe 4429 51bd
00000120: a56c 0dbd 58a8 fcbc 3e92 ebbd a2b5 05bd
00000130: 2a0b 1cbd b240 3abd 3cb8 46bd 4d1d 66be
00000140: 014d b13b 16fb 1e3d 4a82 3e3d d4fe 04bc
00000150: 7e13 b23d 3b20 0f3e a85f 903d 291c 0e3e
00000160: 6fa8 1e3e e6ee 043e f2cf f9bc f0b2 3bbc
00000170: 2012 97bd 6656 4c3d 5cbd 1abe fa40 4b3e
00000180: 970a 3f3e 81c2 023e 6e0e 2e3d 532b 0b3e
00000190: 59fc d43d 9cd4 0e3e dd62 983d 0092 a63d
000001a0: 401e 2a3e 480a 1f3e c00c 3f3d ab52 1e3e
000001b0: 9101 053d 997c 183e 9fc8 2b3e f327 2f3e
000001c0: 3452 223e 79ea fd3d 18b2 f33d a7cf 273e
000001d0: 4887 163e 5cff 223e aa8f 68be e0a2 653d
000001e0: 1f97 08bb 1289 9abd e5c2 34bd 9e41 dd3d
000001f0: d045 673c 2fbb 22bc 7959 2b3e 46db 2abc
00000200: c0df f1bc 65fa 89bc e5b1 843d fbf0 223d
00000210: d0d3 cc3d f951 e03d 095c 8f3d c71e 993b
00000220: ee91 a6b6 994b c93d 56fe 0ebd 2b6f 8fbc
00000230: f5d3 21bd 75cc 85bd f727 d03b 5379 b4bc
00000240: dd2e 7f3d 6bcc 46bd 1e11 2bbe 408b 4bbe
00000250: 84e7 d3bc 8b96 c3bc 3c36 8d3a 0570 9ebd
00000260: d605 acbe e312 d8bc a2ec bc3d 16a5 483d
00000270: f2fb b5bc 6bdf f8bc f363 02bd bcb0 4ebd
00000280: f828 a3bd 95e0 98bd c428 6e3d bd79 9ebc
00000290: f0ad 26bd f840 91bd 4fa3 98bc 577a 14be
000002a0: 094d 9dbd ea65 18be af44 33be 1cdc a3bd
000002b0: b047 d6bb ab1c 313e b1dd 84bc e79c 24bd
000002c0: 23a2 24bd 057c 88be 610b 83be 3526 64be
000002d0: 73b5 073e 1e5c 67bc 2896 5cbc d83c 8dbd
000002e0: 3550 9abd 4727 89bd f290 debc eddd 62bd
000002f0: 1c79 d9bc 8ae5 d83c e56b e5bb 763d b9bd
00000300: a5be 52be 0dfd 6cbe 8003 a0bd d9ee 6dbd
00000310: c723 a2bd 81e6 72bd ef22 183d d73a 03b9
00000320: a891 c3bd bade d8bd 1aad 64bd 208d efbb
00000330: 0506 e13d a12f 87bd 0f1f 203d 25b0 9bbc
00000340: 6a81 603d 0dff 9dbd 6337 edbd f1c5 f5bd
00000350: d136 6f3d 5951 1abb 3f7b 95bb 9305 e3bb
00000360: 8d48 f1bc 8d81 803d 10ad 8f3d daf0 ce3c
00000370: e97e 69bd e7b4 dd3c 6a43 8ebd 0094 d73c
00000380: d75d d63d 4c43 b03c 9001 903d 9299 723d
00000390: ae31 a93d c442 8e3d 4582 463d 4522 873b
000003a0: 2379 8d3d 3ecc 773d c014 b43d acb1 ae3c
000003b0: 7f8c 8b3d c970 343c db72 86bc c861 763d
000003c0: 40a2 3c3e 288a 86bc ed61 d9bc 77fc 9fbc
000003d0: c2e8 3fbd de91 7abc 2246 95bc 850e 15bc
000003e0: 2434 403e ee9e 45bd 7789 82bd af96 04bd
000003f0: 2e94 673c f13c abbd 9f68 0cbd 9442 8ebd

fc1.bias f4 [64]
0.119034104 -0.009247983 0.03794152 0.010745568 -0.002153159 -0.12043902 0.0063365228 -0.008245946
0.016757125 0.054147072 -0.0019110499 -0.0013223087 0.00027530466 0.0034649908 -0.0052515417 -0.0091277575
-0.00014777847 0.01071987 0.027970988 6.336059e-06 -0.0478322 0.06398107 -0.023694556 0.053931307
0.002472221 0.0073044677 0.003113462 -0.13079989 -0.09032358 0.06807327 -0.028871333 -0.015258169
-0.041346606 0.00212142 0.015368718 -0.017347284 -0.021193504 0.07847208 0.0023021225 -0.0015682356
-0.00090612425 0.047358815 -0.013337937 0.10604443 -0.05491935 -0.053056598 -0.002231706 -0.016204158
-0.033387322 0.008154257 -0.005282219 -0.07876995 0.014548411 0.012948205 0.0051275464 0.11392883
-0.02533242 0.033094466 0.007463209 0.020126607 0.081044346 -0.01064319 -0.0011965265 -0.13660571
00000000: 27c8 f33d da84 17bc 9168 1b3d 2e0e 303c
00000010: 031c 0dbb bca8 f6bd 9ba2 cf3b 011a 07bc
00000020: 3d46 893c 52c9 5d3d 327c faba 5151 adba
00000030: c456 9039 e614 633b 2015 acbb 978c 15bc
00000040: fbf4 1ab9 65a2 2f3c 6a23 e53c 559a d436
00000050: b2eb 43bd 8208 833d 161b c2bc 13e7 5c3d
00000060: fc04 223b 515a ef3b 390b 4c3b 68f0 05be
00000070: 92fb b8bd 006a 8b3d 9383 ecbc 66fd 79bc
00000080: 0f5b 29bd 8607 0b3b 13cd 7b3c e41b 8ebc
00000090: 009e adbc f8b5 a03d 35df 163b 418d cdba
000000a0: f888 6dba 51fb 413d 5d87 5abc d22d d93d
000000b0: 1df3 60bd e051 59bd d041 12bb 95be 84bc
000000c0: 25c1 08bd 6f99 053c 7716 adbb 2452 a1bd
000000d0: 755c 6e3c b524 543c fa04 a83b 8553 e93d
000000e0: ef85 cfbc 108e 073d ef8d f43b 8ee0 a43c
000000f0: 94fa a53d c660 2ebc c4d4 9cba 5ee2 0bbe

fc2.weight f4 [64, 64]
0.037474275 0.021392372 0.02844238 -0.055716187 -0.043299023 -0.07073617 0.00965374 -0.081359304
-0.09754829 -0.11616351 0.034880128 -0.13901521 -0.080823764 0.0419339 -0.0879882 -0.08673366
-0.14933169 -0.12794349 0.14608502 0.06994244 -0.0058165714 -0.11646765 0.03860255 -0.04380362
0.044581212 -0.024721738 0.16447039 -0.044472545 -0.042817526 -0.10692188 0.050658334 0.0018300575
0.12367423 -0.00082250335 -0.003204486 0.08789214 0.0106831705 0.047488745 -0.021710487 0.006189978
-0.064026415 -0.07194983 -0.042611416 -0.091479704 0.052148968 0.09647866 -0.05376508 0.04483144
0.17167209 0.064556 -0.072967745 -0.027198603 0.031730756 0.022346636 -0.03496645 -0.094396494
0.030412631 0.004730224 0.013154648 -0.08362438 -0.008807951 0.07259892 -0.028112434 -0.08797807
-0.01855167 -0.114324726 0.045042515 0.10765075 -0.048933133 0.11421648 -0.087323755 -0.07226196
-0.06990023 -0.08872266 0.07985653 -0.0028146268 -0.0399539 0.07251187 0.08881675 -0.010184669
-0.096123405 0.036834598 0.118380606 -0.027342739 0.0025597527 -0.06580659 0.07481393 0.104177505
0.025421876 0.0021289887 0.121458106 -0.04962014 -0.039773576 -0.085211515 -0.058526054 0.09049135
0.12294538 0.053053625 0.08750091 -0.09084231 0.05853754 0.057862878 -0.03037013 -0.026902104
-0.07985066 0.07897093 -0.15723534 0.022012547 -0.12332435 0.04647542 -0.089597926 0.07993718
0.11762614 -0.030831454 0.11012467 -0.08821447 0.06805262 0.022096299 0.082170434 -0.11205467
0.124619015 -0.0019345755 0.07750478 -0.10111592 0.07284911 -0.027315537 0.111077234 0.07471409
-0.008279152 -0.123100646 -0.0030858205 0.10206895 0.044674132 -0.10919718 -0.048232984 -0.17044307
0.108419426 -0.13669296 -0.05371686 -0.06121776 -0.044013873 -0.0142222615 0.025594754 -0.10669927
-0.041177187 -0.048301227 -0.056805596 -0.020277705 0.041177068 -0.034134638 0.013144204 -0.033463035
0.047668785 -0.056425292 0.06076897 -0.07493372 -0.017818103 0.020266421 0.06011348 0.099724054
0.09525188 -0.040294413 0.013409312 -0.09715078 0.09157869 -0.13360201 0.07279224 0.109102264
-0.01996211 0.11547536 -0.03906782 -0.07672453 0.019702865 0.07204656 -0.07167813 -0.11504163
0.036144964 -0.08942585 0.08977119 -0.0071865604 -0.041037284 -0.0013922312 0.023447791 0.025046507
-0.01930822 -0.1495806 0.07068643 -0.072289735 -0.010268888 0.056299593 0.09264857 -0.018353561
-0.110941656 -0.038783006 0.0027671687 -0.012948074 -0.11701435 -0.063882366 0.020565366 0.01543781
0.034377903 0.08954733 -0.05945403 -0.106542654 -0.093292244 0.012150257 -0.008680297 0.015004975
0.028497074 -0.051376663 0.033176463 0.060746353 -0.04311219 0.0268339 -0.053047515 0.14398868
-0.11235979 0.093527526 0.048808265 -0.08602108 -0.06645991 0.12796983 -0.083339565 0.023925778
0.039031133 0.077916235 0.08757568 -0.07437439 0.090582795 0.011707741 -0.043844514 -0.118170336
-0.001655964 0.11788346 -0.015588651 0.022333028 -0.008600829 -0.013838424 -0.047723535 0.05081023
0.06529322 -0.07319248 -0.046545587 0.068037055 -0.12388631 -0.07336228 -0.035897464 -0.04624387
-0.088833936 -0.10848695 0.0028494701 -0.035874575 0.0591992 -0.030045139 -0.10789713 0.03350739
00000000: a07e 193d 0e3f af3c feff e83c a836 64bd
00000010: 515a 31bd 20de 90bd b82a 1e3c b59f a6bd
00000020: 66c7 c7bd 22e7 edbd 77de 0e3d 015a 0ebe
00000030: ee86 a5bd e2c2 2b3d 2833 b4bd 6ba1 b1bd
00000040: 68ea 18be 9e03 03be 5097 153e fb3d 8f3d
00000050: f098 bebb 9786 eebd b51d 1e3d 6d6b 33bd
00000060: ca9a 363d 3e85 cabc ed6a 283e d828 36bd
00000070: 6e61 2fbd dcf9 dabd 1d7f 4f3d 8ade ef3a
00000080: ea48 fd3d 449d 57ba 5b02 52bb cb00 b43d
00000090: 7708 2f3c 8f83 423d 31da b1bc 4dd5 ca3b
000000a0: 4820 83bd 6f5a 93bd 4f89 2ebd b659 bbbd
000000b0: 289a 553d 9b96 c53d c638 5cbd 2ca1 373d
000000c0: cfca 2f3e f035 843d 1d70 95bd 9bcf debc
000000d0: 1cf8 013d 4b10 b73c fb38 0fbd f352 c1bd
000000e0: e923 f93c ffff 9a3b 9886 573c 4243 abbd
000000f0: 394f 10bc beae 943d 0c4c e6bc d92d b4bd
00000100: acf9 97bc 1523 eabd 807e 383d ff77 dc3d
00000110: 1c6e 48bd 54ea e93d ccd6 b2bd 14fe 93bd
00000120: da27 8fbd 3ab4 b5bd d28b a33d 9a75 38bb
00000130: b3a6 23bd 1a81 943d 8ee5 b53d 99dd 26bc
00000140: 59dc c4bd e0df 163d 8871 f23d e1fd dfbc
00000150: 86c1 273b 9bc5 86bd 0c38 993d 045b d53d
00000160: 8a41 d03c 8186 0b3b 07bf f83d 7d3e 4bbd
00000170: 9ee9 22bd 6083 aebd 04b9 6fbd 8753 b93d
00000180: caca fb3d c24e 593d ad33 b33d 880b babd
00000190: 0fc5 6f3d a001 6d3d c7ca f8bc cd61 dcbc
000001a0: be88 a3bd 83bb a13d 4d02 21be a853 b43c
000001b0: 7a91 fcbd 035d 3e3d 1e7f b7bd 1bb6 a33d
000001c0: f9e5 f03d 3f92 fcbc 0b89 e13d caa9 b4bd
000001d0: 2c5f 8b3d 4c03 b53c f948 a83d eb7c e5bd
000001e0: 4138 ff3d 9591 fdba d3ba 9e3d dd15 cfbd
000001f0: ea31 953d d5c4 dfbc 767c e33d b303 993d
00000200: 48a5 07bc 311c fcbd 7a3b 4abb 8709 d13d
00000210: 39fc 363d c5a2 dfbd f38f 45bd a188 2ebe
00000220: 010b de3d 3df9 0bbe 3606 5cbd 79bf 7abd
00000230: e447 34bd 7d04 69bc 17ac d13c 2685 dabd
00000240: 69a9 28bd 82d7 45bd fcac 68bd 6e1d a6bc
00000250: 49a9 283d c3d0 0bbd ca5a 573c 8910 09bd
00000260: 5840 433d 351e 67bd e2e8 783d da76 99bd
00000270: 45f7 91bc c405 a63c 8d39 763d 203c cc3d
00000280: 6b13 c33d c10b 25bd bbb2 5b3c fdf6 c6bd
00000290: 9c8d bb3d f7ce 08be 1914 953d 0271 df3d
000002a0: 9487 a3bc 587e ec3d 9405 20bd c021 9dbd
000002b0: e767 a13c 268d 933d fccb 92bd f29a ebbd
000002c0: be0c 143d e624 b7bd f5d9 b73d 3d7d ebbb
000002d0: b616 28bd 877b b6ba 9515 c03c 552e cd3c
000002e0: 462c 9ebc a82b 19be 0cc4 903d a40c 94bd
000002f0: d73e 28bc 679a 663d 89be bd3d 355a 96bc
00000300: 6135 e3bd eeda 1ebd 6359 353b 2924 54bc
00000310: 38a5 efbd c2d4 82bd b378 a83c deee 7c3c
00000320: d8cf 0c3d 9764 b73d 1286 73bd 0933 dabd
00000330: 0110 bfbd df11 473c ce37 0ebc 6dd7 753c
00000340: b272 e93c 5670 52bd 0be4 073d 2bd1 783d
00000350: 6896 30bd c4d2 db3c 5a48 59bd c571 133e
00000360: e41c e6bd 5c8b bf3d 2deb 473d d22b b0bd
00000370: 221c 88bd 860a 033e efad aabd feff c33c
00000380: 1cdf 1f3d 8c92 9f3d e15a b33d 9a51 98bd
00000390: 7983 b93d d3d1 3f3c 4e96 33bd 4a03 f2bd
000003a0: ee0c d9ba e26c f13d 8b67 7fbc c1f3 b63c
000003b0: 7eea 0cbc 8fba 62bc c179 43bd 631e 503d
000003c0: 74b8 853d f0e5 95bd 96a6 3ebd 0357 8b3d
000003d0: 1bb8 fdbd f73e 96bd 3809 13bd 366a 3dbd
000003e0: 91ee b5bd 682e debd 2dbe 3a3b 38f1 12bd
000003f0: dc7a 723d 3921 f6bc 2cf9 dcbd 0c3f 093d

fc2.bias f4 [64]
-0.032234468 -0.08661959 0.068092436 -0.094170436 0.061525438 0.07496687 -0.01264992 -0.114203356
0.008453326 0.003154814 0.05290558 0.11787813 -0.11068555 -0.084396735 0.06563271 0.05979964
-0.011856803 -0.0029910088 0.11547115 0.0903922 0.008050031 0.114599824 -0.04474476 0.05836289
0.095992886 0.036021017 -0.05015199 -0.060687464 -0.08236889 -0.0039463034 -0.089614324 -0.13685746
-0.06303503 0.02394824 0.13434982 -0.124660626 0.08902795 -0.13455363 0.037637264 -0.032527953
-0.04550046 0.06459702 -0.088824935 -0.030097518 -0.10944035 -0.10535612 0.071032934 -0.10631608
0.06978093 -0.10538974 0.04048618 0.027630884 -0.049337186 -0.028421152 0.07308678 -0.099333666
-0.04272077 0.0284345 0.037531115 -0.09840535 -0.13415562 -0.0019813003 -0.044147413 0.075438954
00000000: 4a08 04bd 9d65 b1bd 0c74 8b3d 6edc c0bd
00000010: 1902 7c3d 3b88 993d 9c41 4fbc 73e3 e9bd
00000020: d27f 0a3c ffc0 4e3b 85b3 583d 176a f13d
00000030: 1baf e2bd 32d8 acbd 716a 863d 78f0 743d
00000040: 0943 42bc cd04 44bb 237c ec3d 8c1f b93d
00000050: 47e4 033c 50b3 ea3d 4846 37bd ed0d 6f3d
00000060: eb97 c43d c68a 133d 2c6c 4dbd 6b93 78bd
00000070: 05b1 a8bd fe4f 81bb b787 b7bd 5d24 0cbe
00000080: 8318 81bd 192f c43c 0093 093e 124e ffbd
00000090: 4954 b63d 6dc8 09be 8829 1a3d 083c 05bd
000000a0: b15e 3abd 714b 843d d9e9 b5bd 128f f6bc
000000b0: 4322 e0bd f3c4 d7bd b779 913d 3fbc d9bd
000000c0: 4ee9 8e3d 93d6 d7bd d6d4 253d 2a5a e23c
000000d0: ca15 4abd 7ad3 e8bc 86ae 953d 736f cbbd
000000e0: f9fb 2ebd 78ef e83c 3aba 193d bf88 c9bd
000000f0: 1760 09be b4d8 01bb ebd3 34bd bd7f 9a3d

fc3.weight f4 [1, 64]
-0.13607813 -0.027557686 -0.098757066 -0.002995722 0.115284376 0.024216529 0.018605892 -0.034168273
0.08077239 0.10035657 0.10242794 0.07292436 -0.091972254 0.08089753 0.010646613 0.07092196
-0.13151354 -0.13091661 0.0911051 -0.06024777 0.09727095 0.10404709 0.020434413 -0.18335727
-5.7133737e-05 0.05521344 -0.02010616 -0.017363839 0.040682755 -0.11043217 -0.051153403 -0.097647086
0.14242701 0.13062274 0.054404527 -0.05441308 -0.10422991 -0.060935415 -0.1092373 -0.04739903
0.01579252 0.02790233 -0.08517866 0.12695678 -0.10943307 0.102127 -0.007004452 0.10113921
0.029370276 -0.14542478 -0.02724818 0.07157557 -0.124443315 0.15782884 -0.12931736 0.13561594
-0.09686884 -0.0479033 0.045519892 -0.12556143 -0.035016723 -0.037708525 -0.11546066 0.020383941
00000000: 1158 0bbe a8c0 e1bc 2541 cabd e053 44bb
00000010: 371a ec3d be61 c63c 626b 983c 08f4 0bbd
00000020: ff6b a53d bf87 cd3d bdc5 d13d 5e59 953d
00000030: f35b bcbd 9bad a53d 226f 2e3c 883f 913d
00000040: 7cab 06be 010f 06be 5095 ba3d 5ec6 76bd
00000050: fe35 c73d a416 d53d 1266 a73c 02c2 3bbe
00000060: e2a2 6fb8 7d27 623d acb5 a4bc 9c3e 8ebc
00000070: f6a2 263d 432a e2bd 3b86 51bd 32fb c7bd
00000080: 63d8 113e f8c1 053e 48d7 5e3d 40e0 5ebd
00000090: 7e76 d5bd 6a97 79bd ceb7 dfbd 7c25 42bd
000000a0: 515f 813c 6d93 e43c 2672 aebd f500 023e
000000b0: 721e e0bd f627 d13d 9a85 e5bb 1322 cf3d
000000c0: ef99 f03c 3cea 14be 9337 dfbc 3696 923d
000000d0: 23dc febd e29d 213e c56b 04be e8de 0a3e
000000e0: 2c63 c6bd 4036 44bd 1173 3a3d 2d93 00be
000000f0: b26d 0fbd 4174 1abd a376 ecbd 39fc a63c

attentionblocks.0.layernorm0.weight f4 [64]
0.84661466 1.0550307 0.98850477 0.9798598 0.9772941 0.90181625 1.0264646 1.0531331
0.9927493 0.95042455 1.0494844 1.071132 0.97746754 1.0227607 1.0284371 1.0659424
1.1903958 1.0122083 1.0020746 1.1008759 0.94412875 0.9806017 0.96492773 0.94400316
1.0021486 1.0203192 1.1256579 0.83866274 0.90503573 0.9174822 0.97743714 1.1060586
0.96602345 1.1210909 1.007491 1.0906799 0.9737204 0.9183754 1.1120235 1.0341339
1.0569091 0.91902196 0.99506986 0.9218706 0.9253849 0.93816924 0.97101325 1.1097856
0.9271897 1.053479 1.0251017 0.91432935 1.0029895 1.0608139 1.0242847 0.83520985
0.9728735 1.0035294 0.97233534 0.9580881 0.9329669 0.9849804 1.0878954 0.8807029
00000000: bdbb 583f 3f0b 873f a60e 7d3f 18d8 7a3f
00000010: f22f 7a3f 6edd 663f 3163 833f 11cd 863f
00000020: d124 7e3f 064f 733f 8155 863f da1a 893f
00000030: 503b 7a3f d3e9 823f d4a3 833f cd70 883f
00000040: e45e 983f 0b90 813f fb43 803f 80e9 8c3f
00000050: 6cb2 713f b708 7b3f 8105 773f 31aa 713f
00000060: 6846 803f d299 823f 8f15 903f 9ab2 563f
00000070: 6cb0 673f 1de0 6a3f 5239 7a3f 5493 8d3f
00000080: 504d 773f e87f 8f3f 77f5 803f 669b 8b3f
00000090: bd45 793f a61a 6b3f c956 8e3f 805e 843f
000000a0: cc48 873f 0645 6b3f e6bc 7e3f b6ff 6b3f
000000b0: 06e6 6c3f dc2b 703f 5394 783f 740d 8e3f
000000c0: 4e5c 6d3f 66d8 863f 8836 833f 7d11 6a3f
000000d0: f661 803f c0c8 873f c31b 833f 50d0 553f
000000e0: 3d0e 793f a773 803f f8ea 783f 4345 753f
000000f0: ebd6 6e3f ad27 7c3f 2840 8b3f bf75 613f

attentionblocks.0.layernorm0.bias f4 [64]
-0.0373126 -0.027163124 -0.051245213 0.002330104 0.091698766 -0.022789797 -0.08502672 0.01960398
0.03867767 0.02630963 0.015207793 -0.013959532 0.110588856 -0.002967579 -0.051668435 -0.013345512
0.045812923 -0.022548651 0.096973665 0.020553106 -0.032260597 -0.03820272 0.010861312 0.005205783
-0.008075052 -0.013107734 -0.024154916 -0.075156234 -0.040092062 0.026410172 -0.118070304 -0.045097753
0.030924017 -0.0007731161 -0.008898578 -0.035941627 -0.05382192 -0.033175316 0.017094884 0.044563744
-0.058891904 0.009133606 0.0013194486 0.0775309 -0.04019441 -0.014916095 -0.016404288 -0.066578805
-0.002657564 0.112261355 0.00093479303 -0.010465832 0.033991236 0.049427204 0.057974733 0.07807835
-0.009303339 -0.0056988923 0.07428649 0.03274715 0.06358038 -0.056759924 0.008831069 0.059617367
00000000: 19d5 18bd 3385 debc 80e6 51bd a8b4 183b
00000010: 90cc bb3d abb1 babc 7d22 aebd 8798 a03c
00000020: 7a6c 1e3d 4b87 d73c 1b2a 793c 85b6 64bc
00000030: 697c e23d b77b 42bb 48a2 53bd 22a7 5abc
00000040: 55a6 3b3d f3b7 b8bc 219a c63d fd5e a83c
00000050: b023 04bd 757a 1cbd a5f3 313c 4695 aa3b
00000060: 394d 04bc d2c1 56bc 88e0 c5bc 83eb 99bd
00000070: 9337 24bd 255a d83c d8ce f1bd 6cb8 38bd
00000080: 5d54 fd3c f1aa 4aba 57cb 11bc 8737 13bd
00000090: 6074 5cbd d7e2 07bd 920a 8c3c 7988 363d
000000a0: a338 71bd 1fa5 153c 59f1 ac3a 85c8 9e3d
000000b0: e5a2 24bd a362 74bc 4962 86bc 785a 88bd
000000c0: 862a 2ebb 48e9 e53d e60c 753a e278 2bbc
000000d0: 653a 0b3d 2e74 4a3d ea76 6d3d 8be7 9f3d
000000e0: 086d 18bc c6bd babb 8423 983d e021 063d
000000f0: 6e36 823d 187d 68bd 30b0 103c 5731 743d

attentionblocks.0.layernorm1a.weight f4 [64]
0.9371698 0.98813355 1.0097103 1.0078074 1.0397302 0.9299351 0.99402314 0.9986855
0.9961818 1.0097517 0.98900294 0.9930536 1.0627965 0.9910753 1.0393425 1.0040025
1.1638716 1.0019832 1.003951 1.0653137 0.98627317 0.9595088 0.9415502 0.9725989
1.0190244 1.0831366 1.0405425 0.9303614 0.95535296 0.9311173 0.97847956 1.0275342
0.98186696 1.0227106 1.0506315 1.0864863 0.98911643 0.9823165 1.0845098 1.1085871
1.0903871 0.9892498 1.0342814 0.96081436 0.9519903 0.9750535 0.97132653 1.0183618
0.97028434 1.0865808 1.0650768 0.9555488 1.0149553 1.0748144 1.0820059 0.9659618
0.98109466 1.0029724 0.99684143 0.97142106 0.95107377 1.0287083 1.0645152 0.9465295
00000000: 5cea 6f3f 52f6 7c3f 303e 813f d5ff 803f
00000010: e115 853f 3a10 6e3f 4d78 7e3f daa9 7f3f
00000020: c505 7f3f 8b3f 813f 4c2f 7d3f c338 7e3f
00000030: b709 883f 1cb7 7d3f 2d09 853f 2783 803f
00000040: bff9 943f fc40 803f 7781 803f 335c 883f
00000050: 667c 7c3f 5ea2 753f 6f09 713f 3efc 783f
00000060: 646f 823f 38a4 8a3f 7f30 853f 2a2c 6e3f
00000070: 0392 743f b45d 6e3f a37d 7a3f 3e86 833f
00000080: a25b 7b3f 2ee8 823f 187b 863f fc11 8b3f
00000090: bc36 7d3f 1879 7b3f 38d1 8a3f 2fe6 8d3f
000000a0: ce91 8b3f 7a3f 7d3f 5563 843f eef7 753f
000000b0: a3b5 733f 1b9d 793f dba8 783f ae59 823f
000000c0: 8e64 783f 1415 8b3f 7054 883f d99e 743f
000000d0: 0eea 813f 8593 893f 2b7f 8a3f 4649 773f
000000e0: 0529 7b3f 6661 803f 0031 7f3f 0daf 783f
000000f0: 9279 733f b7ac 833f 0942 883f c24f 723f

attentionblocks.0.layernorm1a.bias f4 [64]
-0.07037119 0.0044702445 -0.04390555 -0.016874835 -0.020115476 0.064744055 -0.005251936 0.0014797763
-0.004395382 0.020731388 0.018986119 -0.03634176 0.00180587 -0.0666103 0.025219772 -0.0076972144
-0.014219927 -0.026287645 -0.046928875 -0.020393435 0.02349058 -0.013921077 -0.010320086 -0.024030104
0.0072858 -0.027861116 -0.030042516 0.005145585 0.06233573 -0.04016198 0.03167089 -0.003568839
0.052927364 0.013823238 -0.029665075 0.041760076 0.015780926 -0.054096777 0.013805287 0.0023902704
-0.02880466 -0.055840548 0.013073086 -0.024510335 -0.013040378 0.029303718 -0.0012135007 0.049091734
-0.03405698 0.04659173 0.011718094 0.063232474 -0.07907487 -0.08557946 -0.016244438 -0.025179474
-0.0019012911 -0.020919906 -0.012053123 -0.060686838 -0.008144543 0.025010632 -0.022663578 0.035664342
00000000: c51e 90bd 217b 923b 4ed6 33bd 183d 8abc
00000010: 36c9 a4bc 8898 843d 6f18 acbb 0ef5 c13a
00000020: 2307 90bb dfd4 a93c c788 9b3c 19db 14bd
00000030: f1b2 ec3a fb6a 88bd b299 ce3c ea38 fcbb
00000040: b2fa 68bc 3059 d7bc 7e38 40bd 2210 a7bc
00000050: 516f c03c 3b15 64bc 9415 29bc c8da c4bc
00000060: b8bd ee3b ff3c e4bc b91b f6bc 4c9c a83b
00000070: c053 7f3d e380 24bd 56b9 013d 2fe3 69bb
00000080: 5dca 583d dd7a 623c 2c04 f3bc 9d0c 2b3d
00000090: 0047 813c 9594 5dbd 922f 623c 15a6 1c3b
000000a0: c0f7 ebbc 0fb9 64bd 7f30 563c e6c9 c8bc
000000b0: 4fa7 55bc 5a0e f03c 540e 9fba 6a14 493d
000000c0: 557f 0bbd f8d6 3e3d 40fd 3f3c 0780 813d
000000d0: 01f2 a1bd 4944 afbd 0e13 85bc 2f45 cebc
000000e0: be34 f9ba 3960 abbc 767a 45bc c392 78bd
000000f0: b070 05bc 19e3 cc3c f8a8 b9bc c614 123d

attentionblocks.0.layernorm1b.weight f4 [64]
1.0877957 1.0110571 1.0786939 1.0608085 1.0069604 1.0724429 1.0552738 1.0326053
1.0551268 1.0839386 1.0244657 1.0328366 1.0874952 1.0791898 1.0808618 1.031862
1.0332431 1.0588207 1.060113 1.002767 1.1893647 1.0533059 1.0964998 1.038492
1.1274569 1.005276 1.1021922 1.1486206 1.0194155 1.0447292 1.0452334 1.0393951
1.1572915 1.0331994 1.0052341 1.1127944 1.0681854 0.99179965 1.0595648 1.0780557
1.0653493 1.0893394 1.0794045 1.237271 1.0882345 1.0913104 1.0324242 1.1668161
1.2137582 1.0823872 1.0631435 1.0464113 1.032403 1.0846136 1.10144 1.1381615
1.0124657 0.9861821 1.1684542 1.1111546 1.1808943 1.0870934 1.0040885 1.0725194
00000000: e43c 8b3f 526a 813f a412 8a3f 93c8 873f
00000010: 14e4 803f cf45 893f 3613 873f 692c 843f
00000020: 650e 873f 80be 8a3f b121 833f fd33 843f
00000030: 0b33 8b3f e422 8a3f ae59 8a3f 0e14 843f
00000040: 4f41 843f 7087 873f c8b1 873f ab5a 803f
00000050: 1a3d 983f bad2 863f 1b5a 8c3f 4eed 843f
00000060: 8250 903f e2ac 803f a214 8d3f 0006 933f
00000070: 357c 823f b0b9 853f 35ca 853f e60a 853f
00000080: 2122 943f e13f 843f 83ab 803f 0c70 8e3f
00000090: 4dba 883f 95e6 7d3f d29f 873f bbfd 893f
000000a0: 5e5d 883f 796f 8b3f ed29 8a3f e55e 9e3f
000000b0: 454b 8b3f 0fb0 8b3f 7a26 843f 3b5a 953f
000000c0: 6e5c 9b3f aa8b 8a3f 1615 883f cef0 853f
000000d0: c825 843f 9ed4 8a3f fcfb 8c3f 47af 913f
000000e0: 7a98 813f 6e76 7c3f e88f 953f 503a 8e3f
000000f0: 8b27 973f e025 8b3f f985 803f 5148 893f

attentionblocks.0.layernorm1b.bias f4 [64]
-0.012839988 -0.006573932 -0.029090747 -0.007432718 0.027532766 0.011422522 -0.02378609 0.003544021
0.012267809 -0.0388977 0.009240994 -0.0038739762 0.021810131 -0.0008711061 -0.018927563 -0.0009241338
-0.019265328 -0.045671348 0.0049150493 -0.022019606 0.07503801 -0.038129006 0.033819716 0.01557227
-0.011637407 -0.019907631 -0.022544729 0.013838549 0.0033259965 0.0010224732 -0.035792604 -0.020680496
0.03263096 0.0026761019 -0.011906156 0.014785528 0.00086828246 -0.017290669 -0.019202389 -0.0023993463
-0.017375326 0.026169058 0.039860044 -0.009062928 -0.012135933 -0.01233113 0.00907793 0.021487202
-0.009652638 0.05197383 0.020682551 -0.008667826 -0.0030530219 0.03229812 0.038365424 0.030143552
0.038884383 -0.05850284 0.009709294 -0.006300543 -0.058962565 0.010234661 0.024901519 0.011456638
00000000: d05e 52bc 236a d7bb b84f eebc 288e f3bb
00000010: 658c e13c 8825 3b3c 0cdb c2bc ce42 683b
00000020: ecfe 483c 3253 1fbd 8a67 173c 89e2 7dbb
00000030: 29ab b23c f15a 64ba fa0d 9bbc 9241 72ba
00000040: 52d2 9dbc e111 3bbd 6c0e a13b 7662 b4bc
00000050: 87ad 993d 292d 1cbd 8b86 0a3d d622 7f3c
00000060: d3aa 3ebc 5415 a3bc b9af b8bc 15bb 623c
00000070: f6f8 593b 8204 863a 449b 12bd 256a a9bc
00000080: 0ba8 053d 8a61 2f3b 0a12 43bc 003f 723c
00000090: 739d 633a 29a5 8dbc 544e 9dbc 5a3e 1dbb
000000a0: b356 8ebc 7e60 d63c 4944 233d ad7c 14bc
000000b0: cbd5 46bc 8208 4abc 99bb 143c ee05 b03c
000000c0: 1926 1ebc 83e2 543d 746e a93c 7f03 0ebc
000000d0: 3515 48bb 094b 043d 1025 1d3d 9cef f63c
000000e0: 3b45 1f3d ada0 6fbd bb13 1f3c c974 cebb
000000f0: bb82 71bd 48af 273c 45fe cb3c 9fb4 3b3c

attentionblocks.0.layernorm2a.weight f4 [64]
0.9650285 1.0202911 0.93860584 1.0079694 0.9692692 0.95756257 1.0383582 1.0178354
1.0016493 0.9698128 1.0457258 1.0214621 1.016364 1.0040985 1.0969288 1.0209785
1.0179172 1.0178114 0.97827053 0.9924397 1.0020744 0.97601116 0.94101924 0.89051086
1.0301108 0.9906076 1.0786707 0.9902806 0.9833826 0.94169354 0.9964734 1.0347173
1.0347333 1.0392852 1.0065011 1.0905184 1.0012306 0.9483321 1.0221585 1.0215191
1.03225 1.0333171 1.0073596 0.9966797 0.96995664 0.9610162 1.0213584 1.0604674
1.0273224 0.9807221 0.9776445 0.99829406 1.0019207 1.052823 1.0879842 1.0046046
1.0028982 0.9719392 1.0486153 0.99933624 0.9665755 0.9730323 1.013177 0.99068683
00000000: 1c0c 773f e698 823f 7948 703f 2405 813f
00000010: 0722 783f d222 753f ece8 843f 6e48 823f
00000020: 0b36 803f a745 783f 58da 853f 45bf 823f
00000030: 3718 823f 4d86 803f 2a68 8c3f 6caf 823f
00000040: 1c4b 823f a547 823f f06f 7a3f 8710 7e3f
00000050: f943 803f dedb 793f a3e6 703f 85f8 633f
00000060: acda 833f 7698 7d3f e211 8a3f 0883 7d3f
00000070: f6be 7b3f d412 713f e118 7f3f 9e71 843f
00000080: 2472 843f 4c07 853f 07d5 803f 1b96 8b3f
00000090: 5328 803f e4c5 723f 17d6 823f 23c1 823f
000000a0: c520 843f bc43 843f 29f1 803f 6726 7f3f
000000b0: 144f 783f 2805 763f dfbb 823f 65bd 873f
000000c0: 4d7f 833f 9b10 7b3f e946 7a3f 3390 7f3f
000000d0: f03e 803f e7c2 863f 1143 8b3f e296 803f
000000e0: f85e 803f 02d1 783f 0739 863f 80d4 7f3f
000000f0: 7e71 773f a518 793f c9af 813f a79d 7d3f

attentionblocks.0.layernorm2a.bias f4 [64]
-0.015957788 -0.0056761648 -0.028292587 -0.006565099 0.031596247 0.014345757 -0.023303574 0.005616699
0.010137821 -0.04250652 0.005693996 -0.009375409 0.023195276 -0.0054751975 -0.019704796 -0.00556825
-0.012914959 -0.042980175 0.006603395 -0.024441639 0.09930435 -0.041223507 0.043467186 0.022895847
-0.019086419 -0.019652752 -0.020786779 0.011837805 0.002705018 0.0024903035 -0.043966245 -0.024550492
0.02597699 0.0043482315 -0.011933662 0.016449936 -0.0060778894 -0.015535846 -0.021967258 -0.0057893917
-0.01944697 0.028398452 0.037443385 -0.009620251 -0.011241014 -0.014243705 0.010568242 0.024692634
-0.012570217 0.048636317 0.024816237 -0.0077674175 -0.009344415 0.031830117 0.032890067 0.03167987
0.044247787 -0.061179947 0.011174606 -0.016406434 -0.07119936 0.01101697 0.024781663 0.011461526
00000000: e8b9 82bc 1fff b9bb dbc5 e7bc 0b20 d7bb
00000010: 116b 013d 770a 6b3c 23e7 bebc 490c b83b
00000020: 1a19 263c 511b 2ebd b394 ba3b 519b 19bc
00000030: 0504 be3c 4969 b3bb f46b a1bc de75 b6bb
00000040: 4499 53bc fb0b 30bd 4b61 d83b d539 c8bc
00000050: 1460 cb3d fbd9 28bd a60a 323d 1290 bb3c
00000060: 1f5b 9cbc cffe a0bc 0949 aabc 5af3 413c
00000070: ac46 313b 5c34 233b f315 34bd 1d1e c9bc
00000080: b2cd d43c 9c7b 8e3b 6885 43bc 04c2 863c
00000090: 0829 c7bb 108a 7ebc aef4 b3bc f0b4 bdbb
000000a0: 414f 9fbc dfa3 e83c 3c5e 193d 429e 1dbc
000000b0: 3b2c 38bc 6e5e 69bc 6b26 2d3c 3548 ca3c
000000c0: 50f3 4dbc e036 473d 6c4b cb3c d285 febb
000000d0: 5119 19bc 4c60 023d bcb7 063d c0c2 013d
000000e0: 2b3d 353d d397 7abd b215 373c c966 86bc
000000f0: f8d0 91bd 8580 343c ea02 cb3c 20c9 3b3c

attentionblocks.0.layernorm2b.weight f4 [64]
0.9458255 0.98111206 0.94260335 0.94115424 0.9978916 1.0334905 0.9721682 1.0237933
1.0086308 0.9675194 1.1305884 0.97094816 0.96094126 1.0040047 1.0021071 0.99937
0.99575716 0.9869374 0.98683906 1.0001795 0.9850678 1.0122731 1.0365809 0.9991955
1.0595827 0.99825376 0.9899321 1.0174332 1.0544533 0.97670335 0.95722586 1.0096536
1.0431565 1.0743625 1.0138099 1.0003542 0.99438876 0.9246448 1.0338167 0.9848579
1.0077341 1.00273 0.88175726 0.98913604 0.9943404 0.98941606 0.99589664 1.0288975
0.9931297 1.0306315 0.9953169 0.9735014 0.9602779 1.0322297 0.9661388 1.0136157
0.94947046 0.9872484 0.9824649 1.0745786 0.96443385 1.0831686 0.9942274 0.9571725
00000000: 9f21 723f 292a 7b3f 744e 713f 7cef 703f
00000010: d375 7f3f 6b49 843f 04e0 783f a90b 833f
00000020: d01a 813f 5aaf 773f 1fb7 903f 0f90 783f
00000030: 3f00 763f 3a83 803f 0c45 803f b6d6 7f3f
00000040: f1e9 7e3f eea7 7c3f 7ca1 7c3f e205 803f
00000050: 672d 7c3f 2a92 813f afae 843f 47cb 7f3f
00000060: 68a0 873f 8f8d 7f3f 316c 7d3f 403b 823f
00000070: 53f8 863f 3b09 7a3f c10c 753f 543c 813f
00000080: 2786 853f b684 893f 86c4 813f 9b0b 803f
00000090: 4390 7e3f 86b5 6c3f 1b54 843f a61f 7c3f
000000a0: 6efd 803f 7559 803f d8ba 613f 0538 7d3f
000000b0: 188d 7e3f 5f4a 7d3f 15f3 7e3f eab2 833f
000000c0: bf3d 7e3f bceb 833f 17cd 7e3f 6337 793f
000000d0: c6d4 753f 1a20 843f df54 773f 29be 813f
000000e0: 7f10 733f 50bc 7c3f d282 7b3f cb8b 893f
000000f0: 23e5 763f 45a5 8a3f b085 7e3f 4209 753f

attentionblocks.0.layernorm2b.bias f4 [64]
-0.039629288 0.0032336311 -0.010334159 -0.036750544 -0.039664973 -0.00057743816 0.033445872 -0.006083298
-0.07127897 -0.010612747 -0.06195906 -0.11520947 -0.03667155 -0.014357022 -0.01663341 -0.042323146
-0.03183992 -0.019299783 -0.0016228543 -0.018157532 -0.0074180407 -0.08043367 -0.013578066 -0.040805392
-0.036433667 -0.048249733 -0.039647754 -0.004702129 -0.042114858 -0.10423687 -0.025688041 -0.005805456
-0.08900466 0.00094511773 0.016906124 -0.024481473 -0.008389559 -0.053730536 -0.08774325 -0.012752877
-0.034385275 -0.035211317 -0.22436702 -0.03920547 -0.015077169 -0.05931817 -0.017253859 -0.10016893
-0.08986128 -0.048345257 0.01034607 -0.028159736 -0.04393261 -0.11221377 -0.0377384 -0.0033874672
-0.036548447 -0.01337197 -0.039442748 -0.09140103 -0.021819713 -0.021325333 -0.038025554 -0.05951246
00000000: 5252 22bd 54eb 533b 9b50 29bc bd87 16bd
00000010: bd77 22bd 385f 17ba 8afe 083d 6756 c7bb
00000020: b5fa 91bd 16e1 2dbc c9c8 7dbd f1f2 ebbd
00000030: e834 16bd b739 6bbc ca42 88bc 095b 2dbd
00000040: 936a 02bd 941a 9ebc f4b5 d4ba 1bbf 94bc
00000050: 0913 f3bb 68ba a4bd 8976 5ebc 8e23 27bd
00000060: 783b 15bd 83a1 45bd af65 22bd 5114 9abb
00000070: a180 2cbd 247a d5bd ba6f d2bc b23b bebb
00000080: 1348 b6bd c7c1 773a b67e 8a3c 5f8d c8bc
00000090: 5c74 09bc 8d14 5cbd bcb2 b3bd 71f1 50bc
000000a0: 93d7 0cbd be39 10bd 78c0 65be ea95 20bd
000000b0: 3b06 77bc 9cf7 72bd f757 8dbc 5e25 cdbd
000000c0: 3109 b8bd ad05 46bd 9082 293c 3faf e6bc
000000d0: aef2 33bd 55d0 e5bd 9593 1abd 4500 5ebb
000000e0: d3b3 15bd 1b16 5bbc b88e 21bd 7730 bbbd
000000f0: 41bf b2bc 77b2 aebc afc0 1bbd 56c3 73bd

attentionblocks.0.fc_q_list.0.weight f4 [16, 64]
-0.082274385 0.1577863 -0.06639992 -0.02341422 -0.08460277 0.09405622 -0.12803724 -0.009805725
-0.14193657 -0.08488391 0.011934668 -0.07115747 -0.018004293 0.057954025 -0.00034370823 0.13592453
0.199994 -0.27218983 -0.03589678 0.09664433 0.008676131 -0.08653925 0.025068557 0.09869633
-0.012423933 -0.088607594 -0.3097506 0.0910318 0.09281936 -0.09115213 0.12812495 -0.04793511
0.2030032 -0.20112294 -0.13627605 -0.008593322 0.020660345 -0.22198837 -0.017880993 0.14717685
0.053009957 -0.022487544 0.100428335 -0.067624986 -0.0953079 0.075780235 -0.037222117 0.21327989
0.09676434 -0.2351803 -0.028241359 0.018373623 -0.01610019 -0.25355664 0.0739128 -0.20491251
0.029554622 0.027980914 -0.023693863 -0.012768712 -0.071227945 -0.027912084 0.05129145 0.11288645
0.017917894 0.098412134 0.0483185 -0.023223061 -0.014992176 0.048431847 0.13249858 -0.054478742
0.02002326 -0.092453845 0.021841994 -0.1266908 0.17810075 0.0148273 0.019706577 0.10633579
-0.077902906 -0.19564511 0.06796269 0.026995216 0.113167435 0.032445267 -0.066506825 -0.059049457
-0.10442359 -0.23444206 -0.105449595 0.003753171 -0.042232737 -0.10873607 0.16625066 0.22178784
0.12521927 0.111028 0.014621453 -0.05012163 -0.12714252 0.01545713 -0.13044836 0.07135524
-0.0028141825 0.087211646 -0.040379547 -0.10124098 0.06515802 0.035672367 -0.17083566 0.31405547
0.08452598 -0.0067118546 0.06121871 -0.10552691 -0.08419176 -0.053132955 -0.24685542 -0.13243854
-0.10568425 0.08968848 -0.07199497 0.083921306 -0.0321419 -0.033512656 -0.005949431 -0.10633943
-0.13320583 -0.117532484 -0.15452614 -0.24362953 0.06439836 0.15936264 -0.01697653 0.114077374
-0.07317354 -0.05454856 0.20141274 -0.06943151 0.20785266 0.11693603 0.020717122 0.1134069
-0.2135041 -0.13932966 -0.003455445 -0.08088954 0.001470061 -0.2207139 -0.0028527456 0.114900805
-0.24205127 -0.2459917 0.039465874 0.10051633 0.08757897 0.12464706 0.15425909 0.05014767
0.08121192 0.021863487 0.06361612 -0.12571593 -0.07675222 -0.11146125 -0.011956667 -0.012525571
0.054438006 -0.23241267 0.0037641532 0.13232923 0.0934947 0.0001737188 -0.049718093 0.31371063
0.085595325 0.2294933 -0.09342784 0.009993199 0.027796896 0.06790527 0.052886628 -0.10127198
-0.001838814 -0.111550845 0.052821387 -0.13844179 0.082807444 -0.029698675 0.09423319 0.1751936
-0.19704868 -0.12238728 -0.06017112 0.12195373 -0.18904711 0.30924764 0.08703313 -0.026475823
0.19340473 -0.24090764 -0.028844856 0.14779735 -0.029201379 -0.19120087 -0.12124931 -0.30985364
0.067089856 -0.09038532 0.016433062 0.18790059 -0.0012534054 -0.02089147 0.06258902 -0.13496482
-0.122219175 -0.057180032 -0.055225976 0.05502298 0.015325114 -0.1591166 0.33665076 0.09352487
0.0016760443 -0.051774673 -0.0738467 0.142953 0.07391503 -0.060469843 0.029544177 0.048212323
-0.04401132 -0.17044923 0.05173335 -0.068378925 -0.0069221323 0.16785279 0.040402763 0.12426766
0.090317294 -0.010645574 -0.04129536 0.033272415 -0.03198731 0.010700396 -0.003986675 -0.28735286
0.058941897 -0.0019026382 0.21212038 -0.02174031 -0.15644537 -0.005665633 -0.026565224 0.14032505
00000000: 797f a8bd bb92 213e aefc 87bd 2ecf bfbc
00000010: 3844 adbd 8ca0 c03d 321c 03be 31a8 20bc
00000020: d257 11be 9ed7 adbd a089 433c 02bb 91bd
00000030: bd7d 93bc 3361 6d3d bd33 b4b9 cd2f 0b3e
00000040: 3acb 4c3e 775c 8bbe 8108 13bd 76ed c53d
00000050: 5526 0e3c 7e3b b1bd 935c cd3c 4d21 ca3d
00000060: c08d 4bbc e677 b5bd a197 9ebe e16e ba3d
00000070: 1418 be3d f8ad babd 3033 033e 9b57 44bd
00000080: 12e0 4f3e 2cf3 4dbe f38b 0bbe 01cb 0cbc
00000090: e23f a93c eb50 63be 297b 92bc 87b5 163e
000000a0: f820 593d cc37 b8bc 5fad cd3d f87e 8abd
000000b0: ca30 c3bd ab32 9b3d 3876 18bd 0b66 5a3e
000000c0: 622c c63d 1bd3 70be 6c5a e7bc 4884 963c
000000d0: 8ce4 83bc 2dd2 81be 985f 973d 96d4 51be
000000e0: 891c f23c 3b38 e53c a219 c2bc dc33 51bc
000000f0: f5df 91bd e2a7 e4bc fc16 523d 0331 e73d
00000100: 8cc8 923c 4d8c c93d 9fe9 453d 4a3e bebc
00000110: bea1 75bc 7960 463d b5ad 073e 1a25 5fbd
00000120: d207 a43c 7158 bdbd fbed b23c 3cbb 01be
00000130: 0b60 363e 34ee 723c b06f a13c 94c6 d93d
00000140: 8f8b 9fbd 3157 48be 0630 8b3d 1225 dd3c
00000150: 54c4 e73d 54e5 043d bb34 88bd d8dd 71bd
00000160: 09dc d5bd 9411 70be f5f5 d7bd c3f7 753b
00000170: 3cfc 2cbd 04b1 debd 9d3d 2a3e 5a1c 633e
00000180: 7b39 003e a662 e33d d28e 6f3c 574c 4dbd
00000190: a631 02be e73f 7d3c 4194 05be b222 923d
000001a0: 266e 38bb 059c b23d 0665 25bd 6e57 cfbd
000001b0: 9171 853d 301d 123d 8bef 2ebe e1cb a03e
000001c0: f51b ad3d 1eef dbbb 78c0 7a3d 7e1e d8bd
000001d0: bb6c acbd f1a1 59bd abc7 7cbe f89d 07be
000001e0: fc70 d8bd 98ae b73d 1972 93bd efde ab3d
000001f0: 3aa7 03bd 9144 09bd 72f3 c2bb 7dc8 d9bd
00000200: 1c67 08be dfb4 f0bd 1a3c 1ebe 057a 79be
00000210: 4ae3 833d f62f 233e 5d12 8bbc 66a1 e93d
00000220: 02dc 95bd 506e 5fbd 243f 4e3e 1c32 8ebd
00000230: 54d7 543e 287c ef3d f4b6 a93c e041 e83d
00000240: d2a0 5abe 6fac 0ebe bf74 62bb 6aa9 a5bd
00000250: 10af c03a d302 62be 21f5 3abb 1d51 eb3d
00000260: 4adc 77be 40e5 7bbe f8a6 213d 81db cd3d
00000270: 9a5c b33d f546 ff3d 18f6 1d3e a567 4d3d
00000280: 6f52 a63d 0e1b b33c 2b49 823d adbb 00be
00000290: 4530 9dbd cc45 e4bd e5e5 43bc 0d38 4dbc
000002a0: 63fa 5e3d 96fd 6dbe 03b0 763b 5081 073e
000002b0: 267a bf3d 4928 3639 33a5 4bbd ae9e a03e
000002c0: 9a4c af3d 4b00 6b3e 1857 bfbd 84ba 233c
000002d0: 51b6 e33c eb11 8b3d a69f 583d af67 cfbd
000002e0: 5c04 f1ba c574 e4bd 3d5b 583d afc3 0dbe
000002f0: f396 a93d a34a f3bc 55fd c03d f365 333e
00000300: 21c7 49be 2fa6 fabd fe75 76bd e1c2 f93d
00000310: 9195 41be b555 9e3e 6d3e b23d d3e3 d8bc
00000320: e40b 463e 7eb0 76be 0c4c ecbc 3058 173e
00000330: bb37 efbc 29ca 43be 8f51 f8bd 23a5 9ebe
00000340: 6866 893d f01b b9bd a19e 863c 0369 403e
00000350: 4e49 a4ba 9724 abbc ac2e 803d 3834 0abe
00000360: 0c4e fabd 9c35 6abd a234 62bd c75f 613d
00000370: 3016 7b3c 76ef 22be 7d5d ac3e f889 bf3d
00000380: b7ae db3a ae11 54bd f03c 97bd 4562 123e
00000390: c360 973d 3aaf 77bd a106 f23c 497a 453d
000003a0: 3745 34bd 3e8a 2ebe 59e6 533d 400a 8cbd
000003b0: 0ed3 e2bb 9ae1 2b3e 5e7d 253d 0b80 fe3d
000003c0: 46f8 b83d c66a 2ebc 5325 29bd a848 083d
000003d0: 2005 03bd b750 2f3c a7a2 82bb ea1f 93be
000003e0: 0f6d 713d f261 f9ba 1636 593e bc18 b2bc
000003f0: 3733 20be c6a6 b9bb 509f d9bc 5fb1 0f3e

attentionblocks.0.fc_q_list.1.weight f4 [16, 64]
-0.089798205 -0.05042 -0.051964965 0.00041172508 -0.085713066 -0.001459987 0.036449213 0.05686195
-0.041452207 -0.012901278 -0.06772298 -0.040124256 -0.05820604 -0.0012581937 0.17475659 -0.27770513
0.12300744 0.16058043 -0.1472708 -0.07957375 0.1604688 0.10277054 0.028762674 -0.15749696
0.06528624 -0.021309113 0.26339355 -0.008973509 -0.025670255 0.07980983 0.06825107 -0.13122058
-0.07145 0.100510545 -0.012947251 -0.015761444 0.11943511 -0.004320252 0.13080102 0.18704373
-0.122989565 0.049925003 0.13021876 -0.08229563 0.014246963 0.039666586 -0.050288152 0.019097695
0.05783887 -0.23831423 0.046720847 -0.09802013 -0.16126673 -0.028380819 0.028293224 0.047572907
0.114113584 0.053290296 0.005690974 -0.21588643 0.0393303 0.15922187 -0.24098936 0.01931441
-0.13770187 -0.003318932 -0.23128326 -0.04157703 -0.16670707 -0.0130427675 -0.13169974 0.084559076
0.01645201 0.045253433 0.038818173 0.039364014 -0.069077134 -0.008410022 0.07941453 0.10341508
-0.059790507 0.07607222 -0.05985722 -0.030066973 0.0810244 0.039328415 0.14462629 -0.019790284
-0.12704265 0.06959263 0.16740549 0.0505588 -0.11063196 -0.054031353 -0.002837853 -0.000763904
-0.048184235 -0.14169212 -0.048346367 0.06702848 -0.055888418 -0.019207535 -0.122215554 0.11275303
-0.03421993 -0.014148842 -0.027642014 -0.016978914 -0.030564021 0.07991701 0.13499197 -0.18176651
0.16564196 -0.08217271 -0.07502516 0.033971366 -0.13440916 -0.19663556 0.034717146 0.018388733
0.15919173 -0.18011612 0.020056652 -0.16682738 0.011857364 -0.03375615 0.011304404 0.07921672
-0.09041932 -0.018472405 -0.100487016 0.04853076 0.08929129 -0.12845474 -0.057328638 0.12460253
-0.16395786 0.05870257 0.29097256 -0.013615812 0.08454207 0.0032700535 0.005919752 -0.15500745
-0.30874184 -0.15060236 0.2551398 -0.027915247 -0.008767209 0.0040511214 -0.032955874 -0.0699859
-0.05821044 0.10900317 -0.21212845 0.12913066 -0.14122468 -0.030938653 0.13934058 0.14057373
0.06385402 -0.22740518 0.25393987 0.1670569 -0.0022197082 -0.07479752 0.12448491 0.123220995
0.13225326 -0.20733218 -0.11479665 0.07274628 -0.1238419 -0.13984638 -0.009337607 -0.07918848
-0.06633579 0.20088145 -0.04093878 0.06290014 0.009266327 -0.05397315 -0.07877228 -0.0030629782
-0.20806274 0.14314356 0.020494847 0.2685007 -0.087338224 0.05506985 0.022309419 0.031184785
0.12176296 -0.2765295 -0.016554555 0.066509716 -0.1064866 0.008289601 0.22154738 -0.120534025
-0.0119760875 -0.01529608 0.15588102 -0.124729596 0.057775233 -0.04704282 0.01716718 -0.016941434
0.09375368 0.06818602 0.111341506 -0.013170022 0.09383468 0.11762897 0.015524814 -0.09228358
-0.17554268 -0.018973289 0.2888845 0.0025551221 -0.0072867665 0.084453456 0.11861771 0.016301624
-0.15004413 0.027006818 -0.061151065 0.068064995 -0.07419138 0.16771762 -0.016738608 0.08597643
-0.10861219 0.2067726 -0.0637239 -0.057949066 0.03525489 0.07500887 -0.16206832 -0.042450804
0.15701267 -0.12211512 -0.0733193 -0.20618892 -0.054829374 0.25393224 -0.015165511 0.04552792
-0.08707892 0.011874256 0.10111317 0.04042317 -0.0056330916 0.04325731 -0.19478844 -0.078158066
00000000: 1fe8 b7bd 3485 4ebd 37d9 54bd cedc d739
00000010: 558a afbd 095d bfba c54b 153d 13e8 683d
00000020: cac9 29bd e25f 53bc 59b2 8abd 5559 24bd
00000030: 7569 6ebd fae9 a4ba 64f3 323e 5e2f 8ebe
00000040: 53eb fb3d 326f 243e 28ce 16be 90f7 a2bd
00000050: ef51 243e 5c79 d23d b39f eb3c e246 21be
00000060: cbb4 853d 7390 aebc 85db 863e a005 13bc
00000070: 6d4a d2bc 5673 a33d 38c7 8b3d b05e 06be
00000080: 6154 92bd 79d8 cd3d b520 54bc 251e 81bc
00000090: 659a f43d e790 8dbb b4f0 053e 6488 3f3e
000000a0: f4e1 fbbd 297e 4c3d 1158 053e 9c8a a8bd
000000b0: 186c 693c 6e79 223d f3fa 4dbd c572 9c3c
000000c0: 73e8 6c3d a508 74be 5c5e 3f3d c7be c8bd
000000d0: 1b23 25be e47e e8bc 31c7 e73c cfdb 423d
000000e0: 62b4 e93d ed46 5a3d 5a7b ba3b 5511 5dbe
000000f0: cf18 213d 0f0b 233e eac5 76be 4139 9e3c
00000100: b801 0dbe 7082 59bb 85d5 6cbe ad4c 2abd
00000110: 42b5 2abe 55b1 55bc 4cdc 06be 4f2d ad3d
00000120: 5ec6 863c aa5b 393d ceff 1e3d 293c 213d
00000130: 5078 8dbd 30ca 09bc 16a4 a23d 49cb d33d
00000140: e4e6 74bd c1cb 9b3d d82c 75bd 034f f6bc
00000150: 1ff0 a53d d516 213d ea18 143e 3c1f a2bc
00000160: 7817 02be 9586 8e3d 586c 2b3e bf16 4f3d
00000170: 0293 e2bd fb4f 5dbd 46fb 39bb bb40 48ba
00000180: d55c 45bd bd17 11be d706 46bd 3a46 893d
00000190: 41eb 64bd 1f59 9dbc 264c fabd 10eb e63d
000001a0: 332a 0cbd 8bd0 67bc 8171 e2bc 5d17 8bbc
000001b0: 6661 fabc 88ab a33d 563b 0a3e 0021 3abe
000001c0: 0c9e 293e 2a4a a8bd cba6 99bd 8f25 0b3d
000001d0: 8ea2 09be d55a 49be 9133 0e3d f8a3 963c
000001e0: 2803 233e 5c70 38be d94d a43c ccd4 2abe
000001f0: 6445 423c e443 0abd 1b36 393c 603c a23d
00000200: c42d b9bd 7153 97bc 23cc cdbd 31c8 463d
00000210: 5ade b63d a489 03be 6fd1 6abd 9c2f ff3d
00000220: 92e4 27be 1b72 703d 5bfa 943e db14 5fbc
00000230: 6524 ad3d 654e 563b 7bfa c13b 46ba 1ebe
00000240: 6913 9ebe 8137 1abe afa1 823e 84ae e4bc
00000250: 57a4 0fbc 45bf 843b bdfc 06bd c454 8fbd
00000260: 126e 6ebd 0e3d df3d 3338 59be d43a 043e
00000270: 349d 10be 0f73 fdbc 4caf 0e3e 8ff2 0f3e
00000280: e5c5 823d e7dc 68be 6804 823e f710 2b3e
00000290: 8678 11bb 712f 99bd f2f1 fe3d 4a5b fc3d
000002a0: 666d 073e e34e 54be 821a ebbd 00fc 943d
000002b0: d2a0 fdbd e433 0fbe c3fc 18bc 922d a2bd
000002c0: 0fdb 87bd deb3 4d3e 6caf 27bd cad1 803d
000002d0: cbd1 173c f312 5dbd 5c53 a1bd 3fbc 48bb
000002e0: 660e 55be 3a94 123e cfe4 a73c ec78 893e
000002f0: 62de b2bd ec90 613d 3ec2 b63c 3c77 ff3c
00000300: dc5e f93d 4695 8dbe 6b9d 87bc 3f36 883d
00000310: a615 dabd 1bd1 073c 51dd 623e 8bda f6bd
00000320: 5a37 44bc 699c 7abc 469f 1f3e 3b72 ffbd
00000330: b9a5 6c3d f9af 40bd 30a2 8c3c c3c8 8abc
00000340: ee01 c03d 1da5 8b3d 0407 e43d 13c7 57bc
00000350: 662c c03d 75e7 f03d ca5b 7e3c 2cff bcbd
00000360: 76c1 33be df6d 9bbc abe8 933e d673 273b
00000370: d4c5 eebb eff5 ac3d d8ed f23d fc8a 853c
00000380: 2ba5 19be 673d dd3c 8a79 7abd a965 8b3d
00000390: a6f1 97bd 2bbe 2b3e 681f 89bc 6914 b03d
000003a0: 1170 debd 32bc 533e ad81 82bd 005c 6dbd
000003b0: 6e67 103d 409e 993d 3df5 25be e5e0 2dbd
000003c0: eec7 203e 7e17 fabd 6e28 96bd 3023 53be
000003d0: c494 60bd 6803 823e c378 78bc 7c7b 3a3d
000003e0: 6f56 b2bd 3d8c 423c 6c14 cf3d c492 253d
000003f0: cc95 b8bb 942e 313d 9f76 47be 5611 a0bd
