data/user_properties/trained_weights/CrabNet-energy_atom.pth (torch_old, 263425 bytes, 60 tensors)

prelu1.weight f4 [12]
00000000: f6c1 343b 31e4 94bd 523b 2cbd 2c07 8bbd
00000010: dc5f 9dbd cd6c 9dbd 8eab 94bd 36cf a1bd
00000020: 6702 a2bd 718d aabd a344 9cbd 3a73 a5bd
0.002758143 -0.072700866 -0.04204876 -0.06788477 -0.07684299 -0.07686768 -0.07259284 -0.079008505
-0.079106145 -0.08327759 -0.07630279 -0.08078618

fc1.weight f4 [64, 119]
00000000: d784 15be db74 ecbc c910 9bbd 52a8 a4bc
00000010: ccad f63b c182 a63b 2937 6fbc b897 093d
00000020: 9722 4abc 5a53 bbbc 50b1 25be d364 e6bc
00000030: 02ed 6dbc 8638 b83c 2fa7 973d c9f9 343d
00000040: 2a8b ac3c dd40 d9bd d804 7fbd a79d f9bc
00000050: 607a 2d3c 3fb6 3f3e da26 a73d bc8f e73d
00000060: 696f 513e 2a8c bd3e cbe2 1abc 5ac7 2fbc
00000070: a654 03bd 704e 92bd 0b6e 8cbd 929c e4bb
00000080: b0ac 773b d6c4 403c 016d 9ebc cbef 13be
00000090: 5bb6 0bbe 7488 28bd 39d0 2b3c a83f 193d
000000a0: a06f 873c d5a8 8e3c a570 f03c d786 d63d
000000b0: 3d30 583e 07a8 91bb 23e9 86bd 61aa a8bd
000000c0: 29a5 e7bd 257c 28bd 8a31 36bb 7638 a6bb
000000d0: 17d2 d0bc fd3a 36be ada5 09be 710c fcbc
000000e0: c52f 2a3c c744 183e 183e a73d dac4 4c3d
000000f0: 9233 753d bb57 90b9 967f be3c a88a b2ba
00000100: b25b 12bd 4a21 ef3d 406a 373e 3da2 143e
00000110: 2682 d23d f0c0 a23d d8b0 aeba d5c5 a53d
00000120: d97a 0e3a b745 f6bc cdd3 7bbc 7fbe f13b
00000130: 3b02 273d 0baa 253e 65b4 113c 2316 23be
00000140: b71c cfbd 2a10 9dbd 93ec 01bb 1b19 1f3c
00000150: badc be3c dab9 9fbd 4fff 36bd 4718 fabd
00000160: 47ee 80bd c420 df3c 5be4 c53d 5d8b e73c
00000170: 45fb 9c3c f7eb 4ebb 146c bbbc 28eb fbbd
00000180: b05c c43c dfba d7bd 4577 0dbe ea6f f9bd
00000190: cb86 88bd 5ede 05be 55a2 9cbd d607 e8bd
000001a0: 6266 38bc e7a7 07be 93f0 663b 12b5 5abd
000001b0: 9fd0 11be b132 f33c 0627 f63c 08fe eabd
000001c0: 709c 0abd 5d57 46bd b77c 0fbe a658 c3bd
000001d0: 893a b73c b053 ebbd 924c 4abd f51f 8cbd
000001e0: e446 1d3d f95a b2bd e8af a33c fa83 bcbc
000001f0: f71b 39bd b3b4 e1bc 5627 03bc d778 20bc
00000200: 5fee e0bb 8cc9 833c ac6d c03d 6715 1ebc
00000210: 3216 02bd 2741 06bd 93bc 8abc 9ef2 8c3b
00000220: 0b9d 89bb e74a d33d fed1 d83d 39aa 84bc
00000230: 0bed 00bd 7061 c5bc a231 e7bc 4b6a 8bbc
00000240: 02ce b3bc 6cf9 57ba e770 5a3c 9852 523e
00000250: c318 6a3e efca cc3c 6269 203b ba00 34bc
00000260: 15a8 c439 5ef4 cf3c 5bce 6abb 5d1c 893d
00000270: c348 fa3d 5719 d8bb 8352 a7bd 8aa0 fcbd
00000280: 31d5 6bbd cdb5 d3bc 0f76 cdbb fa8f 233c
00000290: 49c4 f33b a5ed 123d 65fb 1c3d 4176 683c
000002a0: 223d 943c 888d 803c 14c6 45bc 5dcc 91ba
000002b0: 6458 1f3d f2d9 b23d 1c27 c63d 0607 6fbb
000002c0: 1cfd bcbc 2744 fdbc d8da 9bbc 0848 adbd
000002d0: bfc7 2fbd b63b 24bd cde9 f2bd 1e50 0abe
000002e0: 1e27 14bd 9171 17bd 6c8f 01bd 9066 13bd
000002f0: de42 2cbd 5fd4 3e3b 2c46 d9bb 757a e0bd
00000300: b095 92bd 288f 7cbd 5753 a8bc b7d1 53bc
00000310: fbe6 9c3b e1a0 823c 00e5 693d d4f7 5c3c
00000320: 6a20 ea3d 419f 4e3c 4d50 4b3c f0d2 0cbd
00000330: 9ba1 b4bd 089e e0b9 565a ad3c 368d 3fbd
00000340: 1740 03bd dd77 49bd ce17 10be e696 96bd
00000350: 6f66 7abd cdf6 22be bb28 84bd 2859 ccbb
00000360: dc0b cdbd a695 4b3d 17d4 28bd d159 313d
00000370: 68ba f9bd 134b 3a3c 8267 45bd b19d aabc
00000380: 9cb9 0c3d 423f 8dbd f4c2 a83c 5256 87bc
00000390: e50f 203c 946d 963c fac1 403d 2948 483d
000003a0: 3399 8cbc 205a 0a3d e563 babd 6eac 01be
000003b0: 71c8 1a3c a172 93bc 77c8 31bd a757 c83b
000003c0: e882 2abc 1535 073e b6be ed3b 83a7 3ebc
000003d0: 3980 8ebc e429 debb 8c71 3fbd a547 06be
000003e0: 532b c73d 0112 653d c0df 9b3d 3d1b b43a
000003f0: 42f0 aebb 3fc4 68bd 176e bebd 30cd 23bc
-0.14601456 -0.028864315 -0.07571561 -0.020099793 0.0075280424 0.005081505 -0.014600554 0.033591956
-0.012337348 -0.022866894 -0.1618092 -0.028124249 -0.014521839 0.02248789 0.074049346 0.044183526
0.021062452 -0.10608075 -0.06226048 -0.030470682 0.0105882585 0.18721865 0.08161707 0.11306712
0.20452656 0.37021 -0.009453486 -0.010728681 -0.03206315 -0.07143867 -0.068569265 -0.0069766724
0.0037792139 0.011765679 -0.019339086 -0.14446943 -0.13643782 -0.041145757 0.010486656 0.037414223
0.01653272 0.01741449 0.029350588 0.104749374 0.21112151 -0.0044450792 -0.06587436 -0.08235622
-0.11310799 -0.04113402 -0.0027800524 -0.0050726486 -0.025490804 -0.1779594 -0.13442107 -0.030767651
0.010387366 0.14869986 0.0816614 0.04999242 0.059863634 -0.00027531185 0.023254197 -0.0013621645
-0.03573198 0.11676271 0.17911625 0.14515014 0.1027873 0.07946956 -0.001332785 0.08094374
0.0005435176 -0.03006254 -0.015370321 0.007377445 0.04077361 0.16178147 0.008893107 -0.15926413
-0.10112899 -0.07669099 -0.0019824847 0.009710575 0.02329861 -0.0779912 -0.044677075 -0.12211662
-0.06295448 0.027237304 0.09662696 0.028264696 0.019162783 -0.0031573751 -0.022878684 -0.12300712
0.023969978 -0.1053369 -0.13815029 -0.12179549 -0.06666335 -0.13073108 -0.0764815 -0.113296196
-0.011254879 -0.13247643 0.0035238608 -0.05339534 -0.14239739 0.029687257 0.030047905 -0.11474234
-0.033840597 -0.04842316 -0.14012419 -0.09538393 0.022366779 -0.114905715 -0.04938943 -0.06842033
0.038397685 -0.08708758 0.01998134 -0.02301215 -0.045192685 -0.027551984 -0.008004984 -0.009794435
-0.0068643535 0.016087316 0.09395918 -0.009648657 -0.03175945 -0.032776978 -0.016935622 0.004301383
-0.004199629 0.10317021 0.10586928 -0.01619445 -0.03147606 -0.024094313 -0.028221909 -0.017018458
-0.021948818 -0.0008238766 0.013332582 0.2053932 0.22861008 0.02499911 0.0024476876 -0.010986501
0.00037509264 0.025385078 -0.0035828564 0.06694863 0.122209094 -0.0065948176 -0.08170035 -0.12335308
-0.057576362 -0.025843525 -0.006270177 0.009983057 0.0074391705 0.035871167 0.038325686 0.01418835
0.018095557 0.015692487 -0.012071151 -0.0011123527 0.038902655 0.08732976 0.09675428 -0.0036472692
-0.02306991 -0.030916287 -0.019025251 -0.084610045 -0.042915102 -0.040096007 -0.11861 -0.13507125
-0.036170118 -0.03697354 -0.03163092 -0.035986483 -0.042055957 0.0029118282 -0.0066306796 -0.10960857
-0.07157457 -0.061659962 -0.020547552 -0.012928418 0.004788277 0.015945854 0.057103157 0.013486821
0.11431964 0.012611211 0.012409282 -0.034380853 -0.08819886 -0.00042842352 0.02116124 -0.04676553
-0.032043543 -0.049186576 -0.14071581 -0.07353 -0.061132845 -0.1591446 -0.06453081 -0.006236214
-0.100120276 0.049703263 -0.04121789 0.043298546 -0.12193757 0.011370438 -0.048194416 -0.020827146
0.0343567 -0.06896831 0.020600773 -0.016520653 0.009769415 0.018362798 0.04705999 0.048896942
-0.017162895 0.033777356 -0.091010846 -0.12663433 0.009447203 -0.017998995 -0.04340407 0.0061139646
-0.010407187 0.13203843 0.0072554005 -0.011636618 -0.017395126 -0.006779896 -0.046739146 -0.13113268
0.0972506 0.055925373 0.07611036 0.0013741028 -0.0053386996 -0.05682778 -0.09298342 -0.009997651

fc1.bias f4 [64]
00000000: b1fd ee3a 5f2f 413a 0787 8e3b a022 12ba
00000010: 98a3 8d3c 4188 a4bc cfb5 dbbc 1e6b 6ebc
00000020: cdbf 8aba 2918 a83a eea8 373b 9bb2 32be
00000030: a7ad 343c 76db 1bbc 8525 503a bc7b 483c
00000040: a9d4 f6bb 45b8 063d fb72 4dbb c57f 2a3c
00000050: a73a d43b a5e7 e7bb 800b 31bb 2962 923b
00000060: 0e4c 9a3b def6 4d3b 8899 8c3a 728f ebbd
00000070: 93a0 8ebb 88b4 b23a ef84 26bb ac6c 603a
00000080: 8110 24bb 1dd2 c0bb 8891 5c3a 314b 8a3b
00000090: 1620 613b dc6b 053a fde2 1fba 3ea7 92bb
000000a0: 24ba d93a b2c7 bdba edd0 e7bd d4f8 a8b8
000000b0: 16f8 25bb 078f b2b8 0bc8 e03b b8fc 2c3b
000000c0: a607 843a 4695 96ba 06a2 8cbb 554f 223c
000000d0: 726f c83a 31d1 303d 6c74 63bb 9f82 af3a
000000e0: 151b dcba c37a e739 2028 dbba 1889 2f3a
000000f0: 3826 d43a 112d 94ba 7255 dc39 281a 2ebb
0.0018233565 0.00073694246 0.0043495926 -0.00055746175 0.017289922 -0.020084502 -0.026820092 -0.014551906
-0.0010585726 0.0012824583 0.0028024274 -0.17450945 0.01102773 -0.009512773 0.0007940161 0.012236532
-0.0075326753 0.032890577 -0.0031349051 0.010406439 0.0064767185 -0.0070771747 -0.0027014911 0.004467268
0.0047087735 0.0031427662 0.0010726908 -0.115019694 -0.004352638 0.0013634125 -0.0025408824 0.0008561115
-0.002503425 -0.0058844225 0.000841402 0.0042203893 0.00343514 0.00050896197 -0.00060991925 -0.004475503
0.001661126 -0.001447907 -0.11319146 -8.057212e-05 -0.0025324873 -8.514342e-05 0.0068597845 0.002639575
0.001007308 -0.0011488579 -0.0042917756 0.00990661 0.0015292002 0.04316825 -0.0034706844 0.0013390369
-0.0016792739 0.00044151218 -0.0016720332 0.0006696149 0.0016185706 -0.0011304935 0.00042025332 -0.0026565883

fc2.weight f4 [64, 64]
00000000: fbdf debd 1ded 0c3d 0231 b1bd 810b 82bd
00000010: 2a8d b23c 348c 853d b72c 6abd 725c 6e3d
00000020: d43b a63d eee9 963d d4c2 513d 9984 b53c
00000030: 302f f33d dfb9 e1bc 1766 eebc 0ced b4bd
00000040: 6c8d 6e3d 5967 c9bc 7c06 7cba cd77 97bd
00000050: 89b1 79bc 8ca1 d23d b2fc 233d 0ad9 d8bd
00000060: 46f3 19bd c94c d4bd 51ea 833c 57ac 17bd
00000070: 6d8c 61bb ed99 38be 4cc4 a53d 7c1f cbba
00000080: e0fb 2a3d 4591 843d 347d d33d ddcb 9e3c
00000090: 51d5 8dbd 1909 c53d a957 d83d f966 a8bd
000000a0: 8e8c b7bd 6880 92bd ef83 603d 318b c2bc
000000b0: c666 0d3e 0b52 b7bd 2288 9c3d 7d4b 413c
000000c0: 7b53 6ebd 395b 003e bc31 c23d 3f47 6ebd
000000d0: c4de 843d 8567 9dbd 4ebe c53d f543 f8bd
000000e0: aa2f 34be b50a f3bc 5cc1 1a3d 398c 88bd
000000f0: 4015 9a3d 99b1 c6bd 4324 c1bc ff18 df3c
00000100: 1f04 dabd 58b8 b6bd 0de2 b3bc 1573 8e3c
00000110: 58b9 c6bd 069f bcbc b2cd 923d 47a2 d43c
00000120: c0d1 8abb 6889 0abd f85e b23d d77e 853d
00000130: 5630 ca3d dd02 27bd d91c a5bd dfaf 3bbb
00000140: c1f3 07bd 393c b7bc 2115 ca3c 6707 1f3d
00000150: f070 b53b 45d0 853c ffee 3fbd 179b 0d3d
00000160: 7601 78bd 97b3 c43d 804c 343d a195 e2bc
00000170: b38c 543d 340b 593d b5af 15bd 4450 57bd
00000180: 9229 7bbd 91d1 b03d ef9e d2bd 1678 81bc
00000190: 9656 ec3c 027e c63d aedd 26bc c9d9 00bb
000001a0: c8a8 d23d 21a8 6dbd bb96 b83b 9f77 e13c
000001b0: aa21 f83d e51f 233d 6a42 ba3d 28b9 bfbd
000001c0: 3d41 a43c 1a5d 7e39 09f2 1a3d 30f0 6abd
000001d0: 4a5a ccbb 2d83 febc f770 0dbd bb93 9dbd
000001e0: bddd aa3d 4acb e43d 3e68 b9bd 0aed d1bb
000001f0: b2a7 d93d 5dee dfbd 04bb 543b 5dfd 483d
00000200: f9b6 3bbd ed92 bf3b f711 143d 42c1 90bd
00000210: 4989 f83d dc5d 09bd ffdd 043d dcd9 ab3d
00000220: 07af e9bd 4a7a 99bc ec84 8bbd 2576 003e
00000230: f117 743c 7954 ad3c 0ee7 89bc 639d d93c
00000240: 8eda f93c a2b8 32bd 322c d63d 027b 85bd
00000250: 550a 0e3e 08a4 fcbd 7302 d5bd 6320 debd
00000260: b325 3dbd 28b8 01be 580b 8b3d c775 4b3d
00000270: f2ff a93b f10d 2ebc bd32 84bd b49b 0f3e
00000280: 693b b03d 5916 f6b7 bbfd f8bd 51d0 46bd
00000290: 8c90 62bc d3eb c63d c512 173c 9c3d c7bd
000002a0: 1caa 41bd e511 e3bd 94a8 c2bc 1b2f ebbd
000002b0: cdfc b2bd adff d4bd f655 233d 99cd 7a3d
000002c0: 5995 aabc 70cd 653d 6d5c 903d 912b 233c
000002d0: be99 2dbd b1f7 433c fc8e e03d ae50 b63d
000002e0: 9210 ecbd 3810 de3b 989d a9bd ee54 a53c
000002f0: 3ff0 9ebd 1d5e b23d 14f2 9bbc a79b 0cbd
00000300: 36d6 10bd a8cb e6bd 89eb cf3c 48d2 053c
00000310: 9ab8 cdbd 8a3e db3d fc2a eabd 0e74 9e3d
00000320: 6ed6 88bd d257 22bb 9856 8dbd 8725 35bd
00000330: b843 273d 2552 3abd 2b5f a1bd 2c3b 993d
00000340: 0afe 20bd 3558 593d eca2 f33d 202b c03d
00000350: 512a 01be 76ee 33bd de9d b33d 438d a73d
00000360: ab32 ac3d 2440 003e 896c ac3d 71ed bb3d
00000370: 3ebb 34bd d9c6 2c3d d421 dc3d ce97 f8bd
00000380: a196 88bd d73e d63d 3a1b efbc a332 0bbc
00000390: 17d5 11bc dbdf d8bb 9c79 a4bd 2c76 adbd
000003a0: 8f6c 2fbd e0ff e2bc 29d9 6e3c f244 263d
000003b0: 2133 cc3d e28d 84bd 0f61 b23d b0f9 bcbd
000003c0: 52f2 3bbd 696e 8ebc 4629 e2bd d929 783d
000003d0: 1576 733d 9e53 cfbd 31b1 833c 45d8 79bd
000003e0: 3255 523e 61ad ecbd 2ed0 a0bb a76c 2c3d
000003f0: f78d 6ebd e41a babd 224d f53d b166 f63d
-0.10882565 0.034405816 -0.086519256 -0.063498504 0.021795828 0.06520882 -0.05717155 0.05819363
0.0811688 0.07368837 0.051211193 0.022157954 0.11874235 -0.02755445 -0.029101415 -0.088342756
0.05824034 -0.024585413 -0.00096140034 -0.07395897 -0.015240082 0.10284719 0.04003591 -0.10588272
-0.03758552 -0.10366208 0.016102942 -0.03702959 -0.0034415976 -0.18027468 0.08094081 -0.0015497054
0.041744113 0.064730205 0.10326615 0.019384319 -0.069254525 0.09620876 0.10563595 -0.082227655
-0.089623556 -0.07153398 0.05481332 -0.023748012 0.13808736 -0.08951195 0.07643153 0.011797783
-0.058185082 0.12534799 0.09482142 -0.058173414 0.06487802 -0.076857604 0.09655438 -0.12122337
-0.17596307 -0.029668191 0.037782058 -0.0666737 0.07523584 -0.09701843 -0.023576861 0.027233599
-0.10645317 -0.089218795 -0.021958375 0.01738886 -0.0970332 -0.023025047 0.071681395 0.025956286
-0.00423643 -0.033822447 0.0870952 0.065183334 0.098725006 -0.040774215 -0.08062143 -0.0028638763
-0.033191446 -0.022367584 0.024668278 0.03882542 0.005537145 0.016334662 -0.046858784 0.034571733
-0.06054827 0.096045665 0.04401827 -0.02765924 0.051891994 0.0529892 -0.03654452 -0.05256678
-0.06131894 0.086337216 -0.102842204 -0.015804332 0.028849881 0.09692003 -0.0101846885 -0.001966106
0.10286099 -0.05802167 0.005633203 0.02752286 0.12115796 0.03982534 0.09094699 -0.093614876
0.02005064 0.0002425801 0.03782848 -0.057357967 -0.006236349 -0.031068409 -0.03453156 -0.07694193
0.083430745 0.11171587 -0.09053086 -0.006406431 0.106276885 -0.10934136 0.0032460103 0.04906975
-0.045828793 0.0058463723 0.036149945 -0.07068111 0.1213556 -0.033536777 0.032438274 0.08391163
-0.11410337 -0.01873507 -0.06812462 0.12545069 0.014898286 0.021158444 -0.016833808 0.026564306
0.030499723 -0.04363311 0.10457648 -0.065176025 0.13871129 -0.12335974 -0.10400858 -0.10846021
-0.04617853 -0.12667906 0.06789273 0.049672868 0.0051879818 -0.010623441 -0.0645499 0.1402424
0.086050816 -2.9335892e-05 -0.1215777 -0.04853851 -0.013828408 0.09712949 0.009220784 -0.09728548
-0.04728137 -0.110873975 -0.023762025 -0.11483594 -0.08739624 -0.10400329 0.0398769 0.06123123
-0.020823168 0.056104124 0.07048879 0.0099591175 -0.042382948 0.01196091 0.10964772 0.08902107
-0.11526598 0.006776836 -0.08282012 0.0201821 -0.07760667 0.08709357 -0.01903633 -0.03432813
-0.035360537 -0.11269313 0.025380867 0.008167811 -0.100449756 0.10705288 -0.1143398 0.077369794
-0.06681524 -0.0024771583 -0.06901282 -0.044225242 0.040836066 -0.045488495 -0.0787948 0.07481989
-0.03930477 0.053062636 0.11896309 0.093832254 -0.12613799 -0.043928586 0.08770345 0.081812404
0.08408102 0.12524468 0.08419139 0.09176148 -0.04412388 0.042181823 0.1074864 -0.121383294
-0.06669355 0.104612045 -0.029187787 -0.008495959 -0.008900902 -0.0066184825 -0.08031008 -0.08469805
-0.04282814 -0.027709901 0.014578142 0.040593095 0.099706896 -0.064723745 0.08709919 -0.092273116
-0.04588539 -0.017386632 -0.110430285 0.060586784 0.059438784 -0.101233706 0.016075702 -0.060997266
0.20540312 -0.11556507 -0.0049076295 0.042095806 -0.058240857 -0.0908716 0.119776025 0.120313056

fc2.bias f4 [64]
00000000: f2ef f03d 2c8a d0bc 0c3c 87bd 8503 8dbb
00000010: 43ec d23d 5bf7 c73d 15d0 3f3d f27f babd
00000020: b946 0bbd 8f45 163d c5ac fcbc 9c9a b2bd
00000030: 4c8b df3d 43b8 9abd febc de3d eff0 a8bd
00000040: a44f 92bd f7f9 fcbc 7ea8 723d b5a7 cd3d
00000050: cd23 923c b016 a2bd 83f1 aabd 7ad6 873d
00000060: 9ca4 90bc b260 73bd c6aa b73c 9d4b 523d
00000070: da76 5d3d 4bc0 d03d 4cfd ed3c 8b97 493d
00000080: d6dd 953c 51d3 30bd 396d e13d c426 b5bd
00000090: 4821 0f3d 6e81 ad3d 879c dc3c 5951 a5bd
000000a0: d5c9 543d 5bbf 5dbd 0ab6 89bd bac8 b4bd
000000b0: 6d85 743a 5b94 d73b 74ab b13d 4f62 4dbd
000000c0: 07b8 b73d 72e6 933d ce40 ae3d 2146 30bd
000000d0: a576 db3d b3a9 273d 8864 9c3d 2a52 c1bd
000000e0: 9a52 683d 5680 943d 0e9d 893d 32fe aa3d
000000f0: 8488 53bd 0607 753d 9df6 4f3d e4b8 df3d
0.11764516 -0.02545651 -0.0660325 -0.004303398 0.102989696 0.09763976 0.046829302 -0.09106435
-0.034002993 0.03668743 -0.030844102 -0.08720896 0.10915241 -0.075546764 0.10875891 -0.082490794
-0.071440965 -0.030880911 0.059242718 0.10041753 0.017839337 -0.079144835 -0.08346846 0.06632705
-0.017656617 -0.059418388 0.022420298 0.05134164 0.054068424 0.10192927 0.029051445 0.04921679
0.018294256 -0.043170277 0.11007161 -0.088452846 0.03494385 0.084719524 0.026930107 -0.080721565
0.051950295 -0.05413757 -0.06724174 -0.08827348 0.00093277433 0.0065789646 0.0867528 -0.050142583
0.08970647 0.07221688 0.08508454 -0.04303563 0.10715989 0.040933322 0.07636362 -0.094395
0.0567194 0.07251041 0.06719409 0.08349265 -0.051643863 0.05982115 0.050772298 0.10923937

fc3.weight f4 [1, 64]
00000000: a10f fd3c 6c67 9eba 63d5 ef3d c7b2 3bbd
00000010: b395 26bb bcfe 523d 8674 dd3d 1120 a5bd
00000020: 0e4a 193d bc5f 4f3d 203f b3bd 9f36 8a3d
00000030: 22f0 b9bb 1ffe 553d 1de8 043e d6ce 2ebd
00000040: ea7f 8a3d 852b 67bd e224 863d 7f0a c83d
00000050: 6a25 e4bd d278 733d dc5f aa3d 9824 963d
00000060: 5c77 c5bd 29a5 f1bd 5253 35bd c681 d4bd
00000070: dd5b 5ebb 5019 07be 04db e03d 4878 85bd
00000080: 50c0 57bd 9cb8 f83c 3770 7cbd db41 9dbb
00000090: b468 973d 4d70 713b a795 563c e771 9f3c
000000a0: 4105 173c a74d 08be 00de 033d 1eeb dabd
000000b0: 53d1 a93d 0c98 493d f5e3 c3bd 3c43 6dbd
000000c0: 3ae8 073e 1575 c1bc b9c3 cb3d f434 d23d
000000d0: 5c9c 0abc 2dcc b73d e17e a33d 52bb f8b9
000000e0: 1405 1ebc c1a9 92bd 9980 323d be6e e0bd
000000f0: 5e69 953d ce04 873d cffd 733d 6719 19be
0.030891242 -0.0012085265 0.11710622 -0.045824792 -0.0025418818 0.051512465 0.10813241 -0.08062757
0.03742414 0.05062841 -0.087522745 0.067486994 -0.005674378 0.052244302 0.12979169 -0.042677723
0.06762679 -0.056437988 0.065500036 0.09767627 -0.11139949 0.059441395 0.08319065 0.073311985
-0.096419066 -0.1179908 -0.044268914 -0.10376315 -0.0033929267 -0.1319325 0.10979274 -0.065170825
-0.052673638 0.030361466 -0.061630454 -0.0047991103 0.073930174 0.0036840618 0.013097203 0.019463493
0.009217561 -0.13310872 0.032194138 -0.10689376 0.082918786 0.04921727 -0.09564964 -0.057925448
0.13272181 -0.0236154 0.099494405 0.10264006 -0.008460131 0.0897449 0.079831846 -0.0004744181
-0.009644765 -0.07161284 0.04357967 -0.109586224 0.07295488 0.06592713 0.059568223 -0.14951096

attentionblocks.0.layernorm0.weight f4 [64]
00000000: 2bb4 873f c951 8f3f 3db8 873f fe38 8e3f
00000010: aec0 6e3f d77d 513f 29fc 693f 670a 6b3f
00000020: 5676 7a3f d8b0 933f 01d3 843f 874a 4d3f
00000030: 34b3 803f 33d0 6e3f 8881 7d3f a08e 7e3f
00000040: f786 7b3f f1e3 733f 1345 7d3f 8f12 833f
00000050: 52b6 8a3f a068 733f 9bd6 823f 460d 7e3f
00000060: f467 843f 8686 8b3f 1757 7e3f 431b 503f
00000070: 3bd8 803f 59a4 8b3f 6c55 853f 401e 8d3f
00000080: 501a 983f c81b 713f 53f2 7a3f 1fbe 793f
00000090: 6c59 7f3f e340 8c3f 96c5 843f ce0f 763f
000000a0: f37e 8d3f a3fb 893f bd6e 613f 5f06 8b3f
000000b0: 23f8 7f3f 8851 7c3f 7585 763f c33a 813f
000000c0: 8b20 7f3f cf39 7e3f 2107 7a3f 10b7 7f3f
000000d0: 3c13 943f bd37 6b3f 79bb 793f fd3b 883f
000000e0: 1727 883f 3d53 913f b44e 8a3f 5257 7f3f
000000f0: b8b8 8f3f 40c5 8b3f 5b05 843f dcee 803f
1.0601858 1.1196834 1.06031 1.1111143 0.93262756 0.8183264 0.9140039 0.9181275
0.97836816 1.1538343 1.0376893 0.80191845 1.0054688 0.93286437 0.99025774 0.9943638
0.98252815 0.95269686 0.98933524 1.0240039 1.083689 0.9508152 1.0221742 0.99239004
1.0344224 1.0900428 0.9935164 0.812916 1.0065988 1.090953 1.0416694 1.1024857
1.188303 0.94183016 0.9802601 0.97555727 0.9974582 1.0957302 1.0372798 0.96117866
1.1054367 1.0779918 0.880596 1.0861319 0.99988 0.98561907 0.9629739 1.0096058
0.9965903 0.9930696 0.9766713 0.99888706 1.156837 0.91881925 0.97551686 1.0643307
1.0636929 1.1353527 1.0805268 0.99742615 1.1228247 1.0919571 1.0314134 1.0072894

attentionblocks.0.layernorm0.bias f4 [64]
00000000: a3ec cb3b 6fc7 ac3b fdc7 843c 234a bbba
00000010: 6b93 c43b 10ce bf3b 1f71 edbc 29c8 a1bc
00000020: e721 2bbd 0886 b33c 468f 863c ca93 2f3c
00000030: ceba 243d 06e7 c1bc d7fd 02bd 3fa7 4c3d
00000040: 67a3 2d3d e4e0 f03c 3702 f03c 387b 893c
00000050: 8354 3cbd 908a 0c3c 1c2a 07bd 007d 1b3d
00000060: 941b 1b3a 3220 18bc 94cf cd3c e774 d0bc
00000070: db09 8e3b e089 19bd f454 273d 6a34 b6bc
00000080: ecc7 a73c 4ed3 04bd c646 933d d6df 37bc
00000090: 9f8e 7d3c 5ab5 423d ffb6 ef3c b20f 233c
000000a0: e5ad 3abd 9e45 84bc f72a a53c ea8b fbbc
000000b0: 096e 2ebd a46e 003d 54df 5b3a 3793 af3b
000000c0: 6ab8 63bb fcae b6bc f1f3 673c d812 da3c
000000d0: 1590 12bc cf0b d83c 3a74 603c a711 fc3a
000000e0: d8b3 a2bc 5b09 ef3b 0209 66bb 1cac ecbc
000000f0: 7682 ad3d 1c14 013c 85df 1bbd db6d 12ba
0.0062232777 0.005272798 0.016208643 -0.0014289062 0.005999019 0.005853422 -0.028984604 -0.019748764
-0.04178038 0.021914497 0.01642574 0.010716388 0.040217213 -0.02366973 -0.03198036 0.049964186
0.04239216 0.029404111 0.029297931 0.016782388 -0.045979034 0.008577958 -0.032999143 0.037961006
0.000591689 -0.00928502 0.025123395 -0.025446368 0.004334671 -0.037485003 0.040852502 -0.02224179
0.020481072 -0.03242808 0.07191233 -0.0112228 0.015475898 0.04753623 0.029262064 0.0099524725
-0.045575995 -0.016146477 0.020162089 -0.030706365 -0.042585406 0.031355515 0.00083874655 0.0053581255
-0.003474737 -0.022300236 0.014157281 0.026620314 -0.008945485 0.026372818 0.013699586 0.0019231335
-0.019861147 0.0072948164 -0.0035100584 -0.028890662 0.08472149 0.00787833 -0.03805496 -0.0005585828

attentionblocks.0.layernorm1a.weight f4 [64]
00000000: f7c7 823f df78 913f d30a 8a3f 9989 963f
00000010: 0886 733f 6e3a 743f eb88 733f 872d 793f
00000020: 462d 813f 5786 833f 1737 843f 075b 563f
00000030: f716 773f a448 833f b9a4 813f 3cc8 703f
00000040: 6f9b 803f 6021 643f 86a7 7a3f ef70 7c3f
00000050: 5ba5 863f 609c 7a3f 9116 833f 9051 803f
00000060: 42db 813f 5376 7f3f 0a9a 7c3f 3112 573f
00000070: 3c95 743f 428b 853f 4142 843f 5c92 843f
00000080: 6898 7b3f e933 7c3f 4252 813f 2348 7b3f
00000090: 70a9 7c3f 3174 823f 2bf0 893f cc79 7e3f
000000a0: 905e 833f 6084 8e3f f586 5f3f b1fb 8b3f
000000b0: 4d7b 7b3f 65eb 813f ee46 793f 1c01 823f
000000c0: 71f2 853f f93d 863f ced3 8b3f a390 733f
000000d0: fccf 9b3f fbd9 693f 45eb 853f 6e43 923f
000000e0: 6cc4 943f 1f8f 913f 4c5f 813f 91ba 863f
000000f0: c849 783f 80d1 933f 896d 8f3f 1976 7a3f
1.0217274 1.1365012 1.0784553 1.1760741 0.9512639 0.95401657 0.95130795 0.97335094
1.0091941 1.0275372 1.0329312 0.83732647 0.96519417 1.0256543 1.0128394 0.94055533
1.0047435 0.89113426 0.9791187 0.98609823 1.0519212 0.9789486 1.0241262 1.0024891
1.0145037 0.99789923 0.98672545 0.8401213 0.95540214 1.0433123 1.0332719 1.0357165
0.9827943 0.9851671 1.0103228 0.98156947 0.9869604 1.0191709 1.0776418 0.994046
1.0263233 1.1134148 0.87315303 1.0936185 0.9823502 1.0149962 0.97373855 1.0156589
1.0464612 1.0487663 1.0924013 0.95142573 1.2172847 0.91348237 1.0462424 1.1426828
1.1622443 1.1371802 1.0107207 1.0525686 0.9698758 1.1548309 1.1205302 0.9783645

attentionblocks.0.layernorm1a.bias f4 [64]
00000000: 5778 393b 87ac d5ba aff0 a0bc 0620 f8bb
00000010: a2b8 b2bc 5ab2 bd3b 25bf 883c f188 a63c
00000020: c1c7 cabc f10b 99bc 8442 cebc fc10 4c3d
00000030: 0734 58bc 4b8d 153c 62d9 cfbb bbb2 9abc
00000040: 1aaa 443d 8156 48bd 488a 2d3c aaf8 21bd
00000050: fbe6 123c a912 3c3d 4a86 3f3d 4d8e 263b
00000060: 087b 78bd 324f ddb8 9b3e f03a f8e2 563d
00000070: 84e9 29bc 5eca 9cbc dd5f dd3b 76c9 86bc
00000080: e3bb 97bc 0618 babb 317d 103c 1534 cfbb
00000090: 262b 633c 5904 363c 3e02 e13b ab93 9a3b
000000a0: 7052 89bb 01a4 06bd abcd 283d 7398 93bc
000000b0: d6ab 40bc 6fa4 d13b 08c8 a9bc ccf8 a83b
000000c0: 01f6 64bb b101 423a 9a7b e9bc c9c4 cbbb
000000d0: 30f6 b7bc 6062 c4bc 134e 8f3c b614 e0bb
000000e0: 1914 e3bc 1384 443a 4e85 443b e63a 8b3c
000000f0: e13d 15bc cd4b 5c3b bfb2 50bd 935a 21bd
0.0028300488 -0.0016302028 -0.019646017 -0.007572177 -0.021816555 0.0057890834 0.016692707 0.02032897
-0.024753453 -0.018682452 -0.025178201 0.049820885 -0.013195998 0.009127925 -0.0063430527 -0.018884053
0.048013784 -0.04891062 0.010592051 -0.039543785 0.008966203 0.045916233 0.046758927 0.0025414408
-0.060664207 -0.000105528525 0.0018329205 0.052462548 -0.010370616 -0.019139465 0.0067558126 -0.016453486
-0.018522209 -0.0056791333 0.00881891 -0.0063233473 0.013865268 0.011109435 0.0068667224 0.0047173104
-0.0041907355 -0.03287125 0.041211765 -0.01801703 -0.011759719 0.006397776 -0.020725265 0.005156612
-0.0034936669 0.0007400765 -0.02850132 -0.006218527 -0.022456259 -0.02397269 0.017493283 -0.0068384064
-0.027719544 0.0007496487 0.0029986682 0.016995858 -0.009108991 0.0033614517 -0.050951716 -0.03939302

attentionblocks.0.layernorm1b.weight f4 [64]
00000000: 56a9 7b3f 31f3 7f3f 1886 843f 6f1f 823f
00000010: 1169 8f3f 313f 773f 8d0d 8b3f 8592 843f
00000020: 2f2e 823f 823b 873f 2c4a 7b3f cdd1 883f
00000030: 0443 803f c58e 8b3f 4ba6 903f d4ad 933f
00000040: 0db1 8d3f 946f 8f3f 12ec 853f b281 843f
00000050: 6af1 873f beba 8b3f 3713 883f ffbd 863f
00000060: b8d0 7a3f 6375 7c3f ada0 883f e354 893f
00000070: ee8a 703f abba 8c3f ee36 823f e3e9 843f
00000080: 4d02 813f a1d3 863f 4c44 873f ffef 863f
00000090: ac65 853f a9c7 853f 6d8f 883f fcca 873f
000000a0: 989e 7f3f c125 813f a587 883f 32d2 833f
000000b0: 6699 7f3f 37e6 863f 4da5 813f 6235 833f
000000c0: 2bce 8a3f 4fad 873f 366a 853f 41cc 823f
000000d0: 0d3e 883f 7266 8c3f bc26 883f a764 893f
000000e0: 602d 883f 0f0d 893f 7b43 833f 9906 993f
000000f0: feb0 8b3f 2dbb 853f 9961 833f 7319 7a3f
0.9830526 0.99980456 1.0353422 1.0165843 1.1203939 0.965808 1.086351 1.0357214
1.0170344 1.0565035 0.9816005 1.0689026 1.0020452 1.0902945 1.1300749 1.1537423
1.1069657 1.1205926 1.0462668 1.035208 1.0620549 1.0916364 1.0630864 1.0526732
0.9797473 0.9861662 1.0674034 1.072903 0.9396199 1.0994467 1.0173013 1.0383877
1.0078827 1.0533334 1.0567718 1.0541991 1.0421653 1.0451556 1.066877 1.0608821
0.9985137 1.0089647 1.0666395 1.0298522 0.9984344 1.0539006 1.0128571 1.0250666
1.0844167 1.0599765 1.0423038 1.0218583 1.0643936 1.0968764 1.0636821 1.0733842
1.0638847 1.070711 1.0254968 1.1955138 1.0913389 1.0447747 1.026416 0.9769508

attentionblocks.0.layernorm1b.bias f4 [64]
00000000: f9c2 94bc 2301 dd3b 7449 243d d10d 50bc
00000010: 1cb3 beba 5d10 12bc 88fd 2ebd f325 cbbb
00000020: e042 b1bc 1bf0 9a3c 9f9a 0a3d 0df5 563d
00000030: ce13 b4bb abed 09bb 7eb7 52bc 347f efbc
00000040: 5f71 55bd 6d62 1fbd 080c 11bc 9932 0b3d
00000050: 3150 14bd c01b b23c c194 debc cac4 bb3a
00000060: 27a8 0dbc e338 323c 7eed c9bb 12f7 09bd
00000070: f33b 293c 11a2 b0bc b7d8 a9bb db24 273c
00000080: 6e17 6a3b 7482 4bbc c9e9 ec3b 4f8f 98bc
00000090: 30c4 913c 8de4 61bc 2e00 e93c fa70 9b3c
000000a0: 5110 f5bc c967 113b ebf1 463d 9ae7 c4bc
000000b0: 7170 6fbb 1353 a639 cfa5 963c dc0e 183d
000000c0: b8ae 563b cca9 87bb d602 9438 c2e3 dc3c
000000d0: c652 40bc c356 69bc 2ca5 ab3c e458 9bbb
000000e0: d433 46bc 55a0 53bd 78b4 343b 8ee5 803a
000000f0: 01ec f1ba b7f6 b73c b26b 4bbd 629a c93c
-0.018159376 0.0067445203 0.040109113 -0.012698607 -0.0014549228 -0.008915034 -0.042722255 -0.0061995923
-0.021638334 0.01891332 0.033838864 0.052479792 -0.005495525 -0.0021046202 -0.012861131 -0.02923546
-0.052110072 -0.038912226 -0.008852966 0.0339838 -0.03620929 0.021741748 -0.02717054 0.0014325615
-0.008646048 0.010877821 -0.0061623445 -0.03368289 0.010329234 -0.021561654 -0.005183305 0.010201658
0.0035719532 -0.012421239 0.007230018 -0.018623022 0.017793745 -0.013787401 0.028442468 0.01897477
-0.029915007 0.0022187105 0.048570555 -0.024036217 -0.0036535526 0.00031723882 0.01838961 0.037123546
0.003275795 -0.0041401144 7.057718e-05 0.026964072 -0.011738485 -0.014241877 0.020952784 -0.004740821
-0.012097318 -0.051666576 0.0027573388 0.0009834038 -0.0018457175 0.02245651 -0.049663253 0.024609748

attentionblocks.0.layernorm2a.weight f4 [64]
00000000: f066 803f 4d94 7d3f a755 863f 5cd0 783f
00000010: b312 833f 9204 7b3f d5d4 793f adb5 673f
00000020: 9795 7c3f e594 883f 603d 813f 9cd5 693f
00000030: c8d3 7d3f 92c4 683f 23d3 8e3f 8162 883f
00000040: 19c3 853f 0aa4 683f 75a9 7f3f e803 833f
00000050: 115c 803f b38b 7f3f 07da 553f de1d 713f
00000060: c57d 7d3f 88b1 803f 07db 863f b514 6d3f
00000070: c3d2 7b3f 556b 863f 279d 813f 2b55 8d3f
00000080: 0146 893f 755f 803f d8da 803f 1ab6 7b3f
00000090: 5992 853f df24 863f 0024 7f3f cf12 803f
000000a0: 57f6 813f dbdf 813f 65d8 713f 447c 863f
000000b0: 6733 7a3f b5b2 883f 62ec 783f 95d4 7d3f
000000c0: 7714 793f caba 833f cd37 7e3f 5f70 7d3f
000000d0: 4ff1 813f a29d 783f 1389 7e3f 76d4 7e3f
000000e0: 5107 853f 4d27 873f 025b 843f bc00 803f
000000f0: d063 853f 840e 793f 0932 823f d11f 763f
1.0031414 0.99054414 1.0494889 0.9719293 1.0240082 0.9805385 0.9759038 0.9051159
0.98665756 1.0670439 1.0096855 0.9134157 0.9915128 0.9092494 1.1158184 1.0655061
1.0450164 0.90875304 0.99867946 1.0235567 1.0028096 0.9982254 0.8353581 0.941862
0.99020034 1.0054178 1.0535592 0.9260972 0.9836847 1.0501505 1.0126084 1.1041616
1.0724488 1.0029131 1.0066786 0.9832474 1.0435287 1.0480002 0.99664307 1.000574
1.0153302 1.014644 0.94470817 1.0506673 0.97734684 1.0679537 0.9723569 0.991525
0.9729685 1.0291378 0.99303895 0.9899959 1.0151767 0.9711553 0.9942791 0.9954294
1.0392858 1.0558869 1.0340273 1.0000224 1.0421085 0.97287774 1.017152 0.961423

attentionblocks.0.layernorm2a.bias f4 [64]
00000000: d593 84bc 0b0b c83b 5289 183d 7f5b c8bc
00000010: 407e 12bc 80f6 06bc 2924 25bd fe3e b939
00000020: 7315 fdbc 14f5 ef3c e174 2b3d a9a4 663d
00000030: d7bc e13a fdb3 b03b 1ab7 c0bc 1a1c 57bc
00000040: 5c93 46bc 8a59 7abd 2f2e 93bc 2262 f23c
00000050: 454c 2ebd 2923 f13c 5d5c 12bd ba28 71bc
00000060: 4d30 41bb 39d6 a53c 5345 6cbb e689 d4bc
00000070: 8d13 243c f08d 92bc bd9a 0cbc c6b7 093d
00000080: 601d eb3b 8384 83bc 41cd ba3b 74b6 4ebc
00000090: 7502 133c 95af 86bb 75d8 2b3d 6d30 923c
000000a0: d74c 39bd 7d26 b73b 4097 663d 5938 b4bc
000000b0: cfe2 8cba a4fc 5e38 c5bb ea3b 391c d13c
000000c0: dd6e 31bb b478 233a 6aff 573c 27b1 993c
000000d0: b78c 95bc efcf d9bc 0ad5 dc3c c744 28bc
000000e0: e2f9 04b9 a7ba 3dbd 96f3 f23b d349 6dbc
000000f0: 40a9 abbb 49d1 a13c 64c4 5abd ca37 023d
-0.016183773 0.006104832 0.037240334 -0.024457691 -0.008941233 -0.008237481 -0.040317688 0.00035332883
-0.030894017 0.029291667 0.04185951 0.056309376 0.0017222416 0.00539255 -0.02352481 -0.0131292585
-0.012120094 -0.061120547 -0.017966358 0.029587809 -0.042553205 0.029435711 -0.035732616 -0.014719183
-0.0029478252 0.02024375 -0.0036052063 -0.025944661 0.010014427 -0.017889947 -0.008581814 0.033622526
0.0071751326 -0.016054397 0.0057007377 -0.012616742 0.008972754 -0.0041102865 0.041954476 0.017845357
-0.045239296 0.005589305 0.056296587 -0.021999525 -0.0010748747 5.3164214e-05 0.007163497 0.025526153
-0.0027074136 0.0006235943 0.013183454 0.01876123 -0.018255575 -0.026588408 0.026957054 -0.010270304
-0.0001268159 -0.046320584 0.0074142916 -0.014482933 -0.005238682 0.019753115 -0.05340995 0.031791486

attentionblocks.0.layernorm2b.weight f4 [64]
00000000: ece6 823f 37c7 7c3f d6b2 803f 3720 723f
00000010: b254 7a3f 5f73 7f3f 4f27 823f 07f3 863f
00000020: f7c6 803f eaa3 763f 767b 773f 5eae 723f
00000030: bd11 823f 7da6 7e3f c4cd 903f fa73 813f
00000040: bc59 763f f1bf 6d3f 0a97 853f 2bbb 7e3f
00000050: 570c 7c3f 6af9 883f 35f7 7f3f 4676 833f
00000060: c60e 813f 2d59 803f 70cc 723f b82f 7f3f
00000070: 2bc9 983f 46bb 923f 4498 803f 4593 793f
00000080: 0908 753f a89c 823f fa3a 783f 46d4 793f
00000090: d22c 893f d0ea 7d3f 9694 853f b353 743f
000000a0: cf99 813f fa48 803f 8718 803f 9e19 803f
000000b0: cf31 823f 5d7b 823f ab86 783f 1c38 793f
000000c0: 9257 7a3f 801b 783f e21f 763f f358 833f
000000d0: a0f0 803f 0e6d 7c3f fd74 863f 062e 733f
000000e0: 0d5f 7d3f 52e7 803f 780f 893f 5b42 7e3f
000000f0: 0280 733f 40a6 723f 0743 8b3f 8063 7e3f
1.0226722 0.9874148 1.0054576 0.94580406 0.97785485 0.9978542 1.0168246 1.0542916
1.0060719 0.96343863 0.9667276 0.94797313 1.0161663 0.9947279 1.1312795 1.0113518
0.96230674 0.92871004 1.0436718 0.99504346 0.9845633 1.0701115 0.99986583 1.0270469
1.0082633 1.0027214 0.94843197 0.9968219 1.1936392 1.1463401 1.0046468 0.9749034
0.95715386 1.0204058 0.9696499 0.9758953 1.0716803 0.9918642 1.043597 0.95440215
1.0125064 1.0022271 1.0007485 1.0007818 1.017145 1.0193897 0.97080487 0.9735124
0.9778987 0.9691696 0.961424 1.026152 1.0073433 0.98603904 1.0504452 0.949921
0.9897316 1.0070593 1.0707846 0.9932 0.951172 0.9478493 1.087983 0.99370575

attentionblocks.0.layernorm2b.bias f4 [64]
00000000: ed64 fcbb eef0 98bc fa05 8abe 9444 debd
00000010: c6d7 89bc 8209 80bd d8f6 20bc 0d3c 88bd
00000020: b08f 02be fdf5 69bc 540b 72bd 6d5f 89bc
00000030: a3e0 89bd d897 29bc 000d 84bd a659 8b3c
00000040: 792a 6dbc b17b 7bbb 501d 00be de31 833c
00000050: d060 713c ea58 b0bc 7f02 0bbd f9ca 68bd
00000060: 9942 d8bc 5dab 90bc 6d9f 0fbd df1b 71bd
00000070: f0dc 92bc 6200 e6bd 0d85 2eb9 e04b 56bc
00000080: 655f 1dbd 5d4a 9bbc 4b9a 83bd 3787 f0bc
00000090: 1faf f83a f6d6 e9bb 1189 4bbd 41d8 1cbc
000000a0: 0dec 283b 0e51 55bd 804f 89bc e1bb 85bd
000000b0: 9ce0 96bb 1f26 98bd ef80 79bc 5502 d6bd
000000c0: 72e5 88bc b44c 41bd 256c 59bd 9de7 66bd
000000d0: d706 c6bd a0b9 963b 645d 24be afaa 3eba
000000e0: ae4d adbc dcd3 bdbd 1a03 02bc 0fb0 a7bc
000000f0: b297 86bc b258 bbbc 23ac 593c dc1e 83bc
-0.007702461 -0.018669572 -0.26957685 -0.10852924 -0.016826522 -0.062518135 -0.009824477 -0.06652079
-0.12750125 -0.01427984 -0.059092835 -0.016769135 -0.06732299 -0.010351144 -0.06447792 0.017010521
-0.014475458 -0.0038373286 -0.12511182 0.01601499 0.014732555 -0.021526773 -0.033937927 -0.056834195
-0.026398944 -0.017659837 -0.03506415 -0.05886447 -0.017927617 -0.11230542 -0.00016643498 -0.013079613
-0.038421053 -0.018956358 -0.064259134 -0.02936135 0.0018973089 -0.007136221 -0.049691264 -0.009573043
0.0025775463 -0.052079253 -0.016761541 -0.06529976 -0.0046044122 -0.07429146 -0.015228494 -0.104496635
-0.01671097 -0.04719229 -0.05308165 -0.056373227 -0.09669273 0.004599765 -0.1605125 -0.00072733586
-0.021155205 -0.092689246 -0.00793531 -0.020469693 -0.016429756 -0.022869442 0.0132856695 -0.016005926

attentionblocks.0.fc_q_list.0.weight f4 [16, 64]
00000000: 5435 2fbd 1c34 f5bd 8ce6 81bd 9a15 bd3d
00000010: b214 05be c0bc 0dbd d072 9d3d 4642 183d
00000020: b99b a5bc cca2 2e3d 6e5e 33bc 3bff 3b3b
00000030: e9db dfbd c1ea 243e f699 75bd ebbe 85bd
00000040: f33f 25bd bd9e 943c 0c10 c1bc 6fe3 aabd
00000050: 7517 503c ceb6 7f3d 4443 8b3c 300a 1ebe
00000060: 3f16 9abd 9987 853d 44da 123d a383 b8bc
00000070: aaeb c5bd 0a2b b3bc e33b b43d 5d75 bc3c
00000080: 06a4 833d 6797 6c3d 9076 babc d765 f63c
00000090: b3a8 8ebd 8204 f53d 1c49 34be 6285 013e
000000a0: a508 4fbd 70c8 993b 6151 863d 92db 6a3e
000000b0: 0064 b5bd e868 99b9 0203 01bc 366b 623d
000000c0: 458f ef3d dcd0 bd3d af31 8dbd 1bf4 bbbb
000000d0: 4219 ebbd ee0f cd3c b64f 0f3e 324b dbbc
000000e0: 1f86 683e bf31 1abe 139a b9bc da94 f73c
000000f0: 05ad d0bd aadb 133e ddf2 c83d cea7 dcbd
00000100: 2135 743e 82a7 fa3a 8e2e f23d 22f1 2f3d
00000110: 8586 243e 45d2 17be 47c9 ef3c 49e2 26bd
00000120: 92d6 e43c 3edc 9d3d 0afd e53d 1488 c83c
00000130: 2719 4bbd 5703 613d fcf0 de3d 1658 2c3d
00000140: d2f5 5abd fec2 3a3c ab0e 31be 1442 093c
00000150: 26ec f6bc 8326 d53c fc25 c7bd 872c 3b3d
00000160: d3da 7a3d 6bf6 2e3e a578 823c 3c43 d23c
00000170: 91bc 8d3c e3bf 5d3d f1ba 9abd 9809 393d
00000180: 58e9 773e db1d 85bd b27a a7bd 151f 0c3d
00000190: c85a 0e3c 5e22 95bc 6610 a33d 13f1 43be
000001a0: 948f 1ebd 867d dfbc d734 28bd fdca 5f3e
000001b0: be86 60bd 740b 853d 5237 9dba 612e 0d3d
000001c0: 2dd3 04bd 263a cbbd a8e3 aebd 2b43 eebc
000001d0: b49a a9be 6848 d53d a798 ccbd 8eb4 c7ba
000001e0: 776d 60bd 32a7 a1be e22b 0cbd c8e7 e23d
000001f0: 687c ae3d 5f92 333e 8c9e 17be 4d49 1c3e
00000200: 5f41 e93e 7d90 4ebe af84 b3bd 7c32 84be
00000210: ea96 9bbd 3c75 543b 3462 08be f9ad 0abc
00000220: 667a 753e ce73 b53e fa11 853d cbd1 63bd
00000230: c5de 87bd c0ce 013e ba55 27bd f324 5fbc
00000240: dbda acbd b70c 1bbe 20b8 00bc bd6c 5d3d
00000250: d267 38be 2671 ba3c 8657 e6bd f251 3fbd
00000260: 65b6 ac3c 99d1 743d 1210 e23c 4aa3 eebd
00000270: 94c3 61be fa6e 613d d723 b9bb 2a5b 9dbd
00000280: f1da 41be fe7a 143d 930b 223a 048f c3bc
00000290: 7b95 5dbd b20a 06be 0ed5 cabc 2eaa be3c
000002a0: c043 db3d a0ce 733e b686 4dbd 93ec e4bd
000002b0: 3bb9 203b a2f3 3bbd f6b5 98bd eec2 df3d
000002c0: 1dcb f03c 205a ef3d a244 9b3d e28b 8bbd
000002d0: 5d15 57be bbdc ee3a d845 b93c 913f c5be
000002e0: dc88 a43e 48fc 0fbe 983e 4d3c 25fe 19be
000002f0: 8a94 c33d 9b09 4a3e 9a5c debc e8a8 153d
00000300: af22 f3bd c844 debd 3312 b2bd 1fba 5a3d
00000310: bb7a dbbd cc25 1e3d 1034 8a3d 06d9 be3d
00000320: ddee 85bd 7bdf dcbd bf3e 66bb d3ff 363e
00000330: 2fb9 72bd 9f92 55bd 0640 163d 8222 af3c
00000340: 6c54 e93d 30c5 db3c 038a 793d 8ce8 9cbd
00000350: 3715 1e3d 047e bbbd 507c 17be 2439 89bd
00000360: a715 ffbd 3b20 0abd a0fb e43c 86a3 6d3d
00000370: 39e8 9c3c c185 b2bd 8e58 c03d e7d3 c4bd
00000380: 5461 36bb b2a8 533d 5058 db3b 43d8 1bbd
00000390: f37b 20be 914e 7abb 82c2 1abd 8367 c93c
000003a0: 0113 71be 12a1 9d3d 22ab 92bc 97d8 a93e
000003b0: 0cc9 e93d a36e 533e f78b f5bd 0450 a3be
000003c0: c793 233d f71f 78bc 1647 663d db7b 8fbc
000003d0: 638b 11be 66c1 70bd 2b30 e7bc a11e 7e3d
000003e0: 1f67 7f3e 4e33 31be e334 29bd 0c17 ddbc
000003f0: be72 f43d 50e9 37bd 2559 50bd b948 cbbd
-0.042775467 -0.1197283 -0.063428015 0.09232636 -0.12996176 -0.034603834 0.07687914 0.03717258
-0.020215856 0.042635724 -0.010947807 0.0028686065 -0.109306164 0.16105177 -0.05996128 -0.06530555
-0.04034419 0.018142099 -0.023567222 -0.08344161 0.012700905 0.062430196 0.016999848 -0.15433574
-0.07523774 0.06520004 0.035852686 -0.022523707 -0.0966409 -0.021871109 0.08800485 0.023005182
0.06427769 0.057761576 -0.022761613 0.030077858 -0.069657706 0.119637504 -0.17606014 0.12648538
-0.050545353 0.0046930835 0.065584905 0.22935322 -0.08856964 -0.00029260595 -0.007874252 0.055278026
0.11697248 0.092683524 -0.06894242 -0.0057358867 -0.11479427 0.02503201 0.13995251 -0.026769254
0.22707413 -0.15058039 -0.022656476 0.030222345 -0.10189251 0.14439264 0.098119475 -0.10774194
0.23848392 0.0019123408 0.11825286 0.04295457 0.1606694 -0.14826305 0.029270781 -0.040743146
0.027934346 0.077080235 0.11229904 0.02447895 -0.049584534 0.054934826 0.10885808 0.042076193
-0.05345709 0.011399029 -0.17290752 0.008377571 -0.030141901 0.02601934 -0.09724042 0.04569676
0.061243843 0.17086188 0.015926668 0.025666825 0.01730183 0.054138076 -0.075551875 0.045175165
0.24210107 -0.06499835 -0.08177699 0.03420933 0.008688636 -0.018204864 0.07962112 -0.19134931
-0.038711146 -0.027281534 -0.041066017 0.21854778 -0.054816 0.06496325 -0.0011994636 0.03446806
-0.032427955 -0.099232 -0.08539516 -0.029084763 -0.33125842 0.10414201 -0.099900536 -0.0015236305
-0.054791894 -0.31572872 -0.034221537 0.11079365 0.08519822 0.17536305 -0.14806575 0.15262337
0.45557687 -0.20172305 -0.08765542 -0.25819767 -0.07597144 0.003241851 -0.13318712 -0.00846433
0.23972473 0.35439914 0.064975694 -0.055619996 -0.06634287 0.12676525 -0.04085324 -0.013619649
-0.08440181 -0.15141569 -0.007856399 0.05405878 -0.18008354 0.022759032 -0.112471625 -0.04670901
0.021083066 0.0597702 0.027595554 -0.11652239 -0.22047263 0.055037476 -0.0056500244 -0.07683404
-0.18931176 0.036250107 0.0006181534 -0.023871906 -0.054097634 -0.13090017 -0.024759796 0.023274507
0.10706282 0.2380929 -0.0501773 -0.111779355 0.0024524468 -0.045886643 -0.07456581 0.10925852
0.029393727 0.11687112 0.0758145 -0.0681379 -0.21004243 0.0018223742 0.022616312 -0.3852506
0.32135665 -0.14061081 0.012527131 -0.15038355 0.09549816 0.19730227 -0.027143765 0.036538035
-0.1187185 -0.10852963 -0.086948775 0.053400155 -0.10716768 0.038610265 0.067482114 0.09318738
-0.065397 -0.10784813 -0.0035132614 0.17871027 -0.059258636 -0.052141782 0.03668215 0.02137876
0.11393055 0.026827425 0.060922634 -0.07661542 0.03859445 -0.09154895 -0.14793515 -0.06700352
-0.12455302 -0.033722144 0.027952015 0.058017276 0.019153701 -0.08716918 0.093918905 -0.0961073
-0.0027829008 0.051674552 0.0066938773 -0.03804804 -0.15672283 -0.0038193802 -0.037783153 0.024585491
-0.23542406 0.07696737 -0.017903868 0.33173057 0.114153 0.20647673 -0.11989587 -0.31896985
0.039935853 -0.01514434 0.056220137 -0.017515114 -0.14213328 -0.05877819 -0.02822121 0.06204093
0.24941681 -0.17304727 -0.041310202 -0.026988529 0.11935948 -0.04490024 -0.050866265 -0.0992598

attentionblocks.0.fc_q_list.1.weight f4 [16, 64]
00000000: 704a c4be 6f82 933e a338 b73d 51eb 4e3e
00000010: ff73 2c3c 262d 78bd 9add c93d 22c2 f23c
00000020: d205 6b3e fbee cabe 451e 13be 2ba2 a03d
00000030: 98dd e3bd 161b b83d ebce 6fbc 13df a73c
00000040: d034 803d 366a 813d e5cb a63b 37ef 8abd
00000050: 4125 93bd 8b0d 9aba 7ae8 503e 3b45 593d
00000060: b250 c43c ae64 f2bd 139c 79bd 0067 c8bc
00000070: fa4c 683b e868 89be 50d9 f4bd df8e f5bd
00000080: c8a9 7cbd 11ea 473d ad6e 6c3d 029c 99bd
00000090: 829b 993c b3af 23be 7ccb 81bd dce7 303d
000000a0: 9aa4 993d 4135 66be 0031 34bc 8ab5 103e
000000b0: 8689 d5bb 42aa 3a3d eab2 c8bb 4123 1ebe
000000c0: da3e 28be 1cf4 1abe 7b52 86be 6e88 cf3d
000000d0: 6208 3d3e 100a c8bd 1d17 b73b d9da ca3d
000000e0: 36c4 d63d b44f 8c3e 7514 4cbd 6b88 083e
000000f0: 1fe2 faba 4044 e7bd 520c 803e 980e 41be
00000100: 6f0e 85bd 5be1 b53b e5f1 8f3c 7462 e33d
00000110: 271a cd3d a4ea 4dbc 7d6a 0dbd 7a3b 56bd
00000120: 76b6 c4bb c28d 1e3e 4036 5c3e 13f8 bbbd
00000130: 1308 043e f31c 16be 0a74 ea3d 5db7 523d
00000140: 9ab8 19be 7e12 da3d 309f 9ebc 3429 443e
00000150: 17ee 423e ec4f 4abd 2fda 40bb ff53 053c
00000160: 40c1 3a3e 2270 1cbd 8ab9 633e 5a34 45be
00000170: 3a7f 3ebe 9cd7 c4bd 9ef0 10bd f7b7 053e
00000180: 0ea8 12bd 9a11 d43d 3861 553e 90cf 80bd
00000190: dfe8 82bd 1062 9a3d 933d 94bd 9ada 813b
000001a0: 4025 a9bc 1e07 b73d 7b54 2dbe 144b 3fbe
000001b0: 0b04 b2bd 7ce5 13be 3621 ee3d 5868 a7bd
000001c0: 7ad6 d6bc 2cb9 cdbb 68ac a63c 82b3 d63d
000001d0: 6743 7d3e 9a56 373e 8e68 0a3e c45d 563c
000001e0: 6a8a 323e 96ec 0d3e 0c0d 9ebd 479e 53bd
000001f0: 54dd d03d d2bf 223d 95e1 4fbd 0127 03be
00000200: 173c e63d a13e 973c 634e 5f3d c62d 2b3e
00000210: 40c6 403e 82f7 a3bd f61e babd f868 5f3b
00000220: 10a0 853d e137 853e aea9 363e 7932 43be
00000230: b9ad b6bc fe56 a1bc bd62 97bb 9869 1c3e
00000240: b769 18be 7f03 f23d 2232 a23c 0726 243e
00000250: 98d4 263e 154d 1d3d 0527 603d 8f69 963c
00000260: 3cce cfbd b48c 4abd d067 9fbd 0166 5dbe
00000270: 829a 47bd 8fb4 1b3d 8449 34bd 60f4 f4bd
00000280: d87a 3c3d f470 5bbd aed2 323e 7f29 d1bc
00000290: 2f14 813a c7b6 b6bd ad67 4f3e 3dce f3bc
000002a0: d8ea 9c3d d45d 743d f705 d3bd 3ac8 d13c
000002b0: 7dc7 c23c faed aa3d 0015 20bd 2cc2 1f3d
000002c0: 0fb0 47bc 6476 953c 47f2 703d 79b0 babd
000002d0: 78b4 5ebd 11d0 fc3d ba1f babd 8865 c4bc
000002e0: 3a10 3bbc 9c09 013e f39e 1fbd c40d 58ba
000002f0: de68 49bc aa73 95bd ccaa 893d 558f 9c3d
00000300: 34c5 953e 7e55 523d ddc5 6e3e fc84 973d
00000310: 2cd7 323e 5364 143c df6a 2dbd 3597 42bd
00000320: e801 8bbc 8ca0 7b3e bceb 2b3d a79c 12be
00000330: 15a9 5eba 0966 ebbc a57d 993c af5a be3d
00000340: 3e1f c43c 8031 013e 83c6 8ebc 8818 b03d
00000350: 5d81 b8bd b5b0 d3bc 4b31 2c3d 3e10 7c3c
00000360: 5de5 293d 3f37 193d b32b 043e 0397 a6bd
00000370: 32df 05be 8bc9 16bd 5df6 c53d c497 48bd
00000380: 2d7b 793e dbd9 62bc 5bfa 533b bfe8 1e3e
00000390: e747 d73d e66d f53d ebce 7cbd cd74 1fbe
000003a0: 1c93 343e 8725 123d 6948 8ebc ea33 31be
000003b0: ca6e 48bd 63ee e3bc 3142 92bd 6fe9 b2bd
000003c0: 7709 96bc 501c ffbd f1d1 f33a 49c6 843d
000003d0: bcd8 ee3d b578 bd3d c9d4 bebd 2475 30be
000003e0: 9cbe a8bd f063 4f3d d806 28bc 42e3 843d
000003f0: fee0 84bc d7fb f3bc 57c0 67bd 4870 353e
-0.3833804 0.2881045 0.089463495 0.20206954 0.0105257025 -0.060589932 0.0985672 0.029633585
0.22951439 -0.39635453 -0.14367016 0.07843431 -0.1112625 0.08989541 -0.014636735 0.020492112
0.06260073 0.06319086 0.005090224 -0.06783908 -0.0718484 -0.0011753304 0.20401183 0.05304454
0.02396426 -0.118356094 -0.06093986 -0.024463177 0.0035446272 -0.2683785 -0.119555116 -0.11990141
-0.061685354 0.048807207 0.057722736 -0.07500459 0.01875091 -0.15984993 -0.0633764 0.04318987
0.075020984 -0.22481252 -0.010998011 0.14131752 -0.006516638 0.045572527 -0.006124844 -0.15443136
-0.16430226 -0.15132183 -0.26234803 0.10133444 0.18460229 -0.09767544 0.005587472 0.09905023
0.10486643 0.2740456 -0.049824197 0.1333329 -0.0019140876 -0.112923145 0.250094 -0.18853223
-0.064968936 0.005550546 0.017571399 0.11102763 0.10014754 -0.01256815 -0.034525383 -0.052302815
-0.0060031964 0.15483764 0.2150507 -0.09178176 0.12893705 -0.14659481 0.11447914 0.0514444
-0.15011826 0.10648058 -0.019363016 0.19156343 0.19036137 -0.049392626 -0.0029426923 0.008137702
0.18237782 -0.038192876 0.22238746 -0.19258252 -0.1860322 -0.09611437 -0.03538572 0.13058458
-0.0358048 0.1035492 0.20837867 -0.062895894 -0.06392073 0.07538235 -0.07238307 0.003962827
-0.020647645 0.08936904 -0.16926758 -0.18680984 -0.086921774 -0.1444301 0.11627428 -0.08174199
-0.026225317 -0.0062781777 0.020345882 0.10483457 0.24732743 0.1790413 0.13516447 0.013083879
0.17435613 0.13859782 -0.07717332 -0.051664617 0.10198465 0.039733715 -0.05075224 -0.12807848
0.1124193 0.018462481 0.054518115 0.1671668 0.18825626 -0.08006193 -0.090879366 0.0034089666
0.0652467 0.26019195 0.17838165 -0.19062223 -0.022299634 -0.019694801 -0.004619925 0.15274656
-0.14884077 0.11817073 0.019799296 0.16030131 0.16292036 0.03840359 0.054724712 0.018360881
-0.10146758 -0.04945059 -0.077834725 -0.21620943 -0.048731335 0.03801399 -0.044015422 -0.11960673
0.04601559 -0.053574517 0.1746318 -0.025532482 0.0009847934 -0.08921581 0.20254393 -0.029761428
0.076619804 0.059659794 -0.10303872 0.02560817 0.023776764 0.08346172 -0.039082527 0.039003536
-0.012187972 0.01824493 0.058824804 -0.09115691 -0.054371327 0.12344373 -0.090880826 -0.023974195
-0.011417443 0.12601322 -0.038969945 -0.00082417973 -0.012293069 -0.07297452 0.0672203 0.07644526
0.29252017 0.051351063 0.23317666 0.07398412 0.17464894 0.009057122 -0.04233825 -0.047507484
-0.016968682 0.24572963 0.04197286 -0.1431757 -0.0008493823 -0.028735178 0.01873667 0.0929464
0.023940679 0.12616539 -0.017428642 0.08598429 -0.09009049 -0.025841096 0.042039197 0.015384732
0.041478503 0.037406202 0.12907295 -0.08134272 -0.13073424 -0.0368133 0.09666131 -0.04897286
0.24363394 -0.013845886 0.0032345268 0.15518473 0.10511761 0.11983852 -0.06172077 -0.155719
0.17634243 0.03568032 -0.017368512 -0.1730496 -0.04893378 -0.027823633 -0.07141531 -0.0873593
-0.01831506 -0.12456572 0.0018601996 0.064831324 0.116624326 0.09251539 -0.09317929 -0.17232186
-0.08239481 0.050632417 -0.010255538 0.064886585 -0.016220566 -0.029783173 -0.056579914 0.17718613
