data/user_properties/trained_weights/CrabNet-ael_debye_temperature.pth (torch_old, 263425 bytes, 60 tensors)

prelu1.weight f4 [12]
00000000: 870a 1f3e 568b c9be b2ac 15bd 1fc4 b8bc
00000010: 8479 d7bc 9b74 efbc 090d e2bc 373f 15bc
00000020: 6ff4 b5bc 8157 24bd f8db 13bd e530 01bd
0.1553136 -0.39364117 -0.03654165 -0.022554455 -0.02630306 -0.029230407 -0.027594106 -0.00910931
-0.022211282 -0.040122513 -0.03609845 -0.03154077

fc1.weight f4 [64, 119]
00000000: 51e1 b63c b8dd dfbd 3083 8c3d 1d2f 973c
00000010: 6942 e0bd 5726 6abd 58b7 413d ec03 8ebd
00000020: 5e5e 8b3c d2c9 bdbc 3e9e f43c db94 853d
00000030: a77f 10bc 96bf 95bd 3d24 b8bd afa2 00be
00000040: 1a53 073d ab11 b33c 4db8 c4bd 600b f73d
00000050: 1f8f ca3d 89b3 4e3c d4d2 d6bd cdfe 083c
00000060: 0ffe 0a3d 9140 7c3d b8a8 89bd b232 0e3d
00000070: 0317 913d 2f9d 933d 1165 463d 5fe1 833d
00000080: cb35 8f3c e07f a8bd 2926 9f3c 3f47 1c3d
00000090: a7d2 0c3c 5375 573d addd 1b3e 87fe a23d
000000a0: f888 423d 7baa 1f3d 9ffd 583c 7fb3 143d
000000b0: 339c 833c 8654 503c 7e62 443d 6848 f33b
000000c0: 18c2 233e 0ad4 453e 6d8a 993c dd52 17bc
000000d0: c927 7b3d b642 25bd 971b 6c3d ca61 d93c
000000e0: 3abe a33d 5db6 333e 6391 213e b46e c63d
000000f0: f89a 9e3d 7f43 3bbc 79f1 893d e3e9 183e
00000100: 83fd e73c 8df9 093e d5a2 0d3e 4c3d 713d
00000110: 40cb a73d 5f3c efbc 1c54 303e c43f b33d
00000120: d2a9 853d 236f 203d 0865 ba3d 4eb6 203d
00000130: 127c 033d a8dc 783d b2b3 813d 9c0f a43d
00000140: f638 773d 320c da3d 8ad1 a53c a7fe 863d
00000150: cb3a e0bd 8765 9ebd b9a4 d73b fa07 9abd
00000160: 07a1 abbd bce0 ea3d 33bb 913d 9266 903a
00000170: 7ca5 a03d 80d9 003d f344 643e 791a 0c3d
00000180: e8d6 ccbd ae04 f8bd 2cd0 ffbd 9f43 efbc
00000190: e505 56bd 1216 fc3c 117b 60bd 2ca9 f2bd
000001a0: 7142 a3ba f556 623b ea9a 413d dcf7 43bd
000001b0: c2e8 e33c 68f7 263c 0e9c 68bd 716d d93c
000001c0: cfc4 edbd ebc6 2ebd 0d97 abbc 8daf 60bb
000001d0: c03b 84bd 66b7 0e3d 30ba 21bd d64e c23c
000001e0: e7e8 3f3d c3b2 a73d ab3c 2e3c 5ed4 01bd
000001f0: 57d2 053c 3f87 cabd 162b 05be d5b3 e83c
00000200: 50b5 f73c d6d4 8fbd 57d0 803d dc64 be3b
00000210: 2b13 1cbd 6ca0 0abe 6c7d 04bd 7e10 3e3a
00000220: 8a37 083d 07a6 f83c d5e2 d43d d523 be3d
00000230: 9e74 d43c 9442 853d ad8d b03c cbf2 e8bc
00000240: 6e9c 31bd 3e5c 493d 7200 873c d408 f33c
00000250: 038e 993d 26fa 16bd 200e 0e3d dd3d 393d
00000260: a247 603d 918c 033d 2b69 2c3d 8ae7 963c
00000270: b5b1 1d3e cbd2 ae3d fd45 843d 1423 5e3d
00000280: bdf6 043d c27c 08bc c305 783c d868 1f3d
00000290: 6282 8f3d a58a 323d 1893 1b3d 21ba bf3d
000002a0: eb81 b43d 5f31 dd3c d0f4 f93c 323e 393d
000002b0: dc32 b43d 21fd 883c 954c 053e a800 043e
000002c0: 0dbb b03d b19b f73d de7b b43d b211 c13d
000002d0: d464 253c b082 dfbc 0825 b03d 9c31 2a3d
000002e0: cb63 a23d 266d 863d b179 453d 7774 9d3d
000002f0: 60ff 693d ae4e 083e 049b a03d 4245 763d
00000300: 7f45 0a3d 0ad6 173d 91b3 743d 5dbb 903d
00000310: 586e ea3d 6117 b63d 43d0 9a3d 6ec0 c33d
00000320: a888 dd3d 58e6 b23d 8326 583d d0be 473d
00000330: 384d d0bc 033f cc3c e400 c03b e037 4bbd
00000340: ae38 fc3d 9c2f db3d e9dc 5f3e 86fc ee3d
00000350: ea1a c5bb 41bb 5c3e d61b a5bc a496 80bd
00000360: 8de8 ea3b 4ca9 82bd 6002 1d3a 8a0d 813c
00000370: 3624 a5bc 6814 cabc 8a68 47bd 9732 a03d
00000380: 4d08 013d 9cb1 793c 9e0d 473c b93a c4bd
00000390: d98d 533d c2a3 0e3c 4d87 57bd eb29 843d
000003a0: 8937 40bd a731 f33b d24b c8bd dc8e 293d
000003b0: b28e 223b c35f 763d 5c75 a2bc a71c 143d
000003c0: 395e 953c d38e 1fbe f1e5 e5bd fee7 1bbc
000003d0: 3ea0 0b3d adfb 243d 2e54 7e3d 4d4e 3fbc
000003e0: 9fce aebb d806 483d a28c cabd 3585 3bbe
000003f0: a698 dcbd 2ab5 6ebe a76f 183e 9979 2b3e
0.022324236 -0.10930961 0.068609595 0.018455083 -0.10950167 -0.05716547 0.04729399 -0.06934342
0.017012771 -0.023167524 0.029860612 0.065225326 -0.008819497 -0.07311933 -0.08991287 -0.12562059
0.033038236 0.02185901 -0.09605465 0.120627165 0.098905794 0.012616047 -0.10489431 0.0083615305
0.033933695 0.061585013 -0.06721634 0.034716316 0.07084467 0.07207715 0.04843623 0.064394705
0.017481705 -0.08227515 0.019427376 0.038153883 0.008595145 0.052602123 0.15221281 0.079587035
0.047493905 0.038980942 0.013244062 0.036303993 0.016065693 0.012715464 0.047945492 0.007424403
0.1599201 0.19319168 0.018742764 -0.009236065 0.06131724 -0.040346824 0.0576435 0.026535887
0.07995267 0.17550035 0.15778117 0.09689084 0.07744402 -0.011429667 0.067355104 0.1493297
0.028319126 0.13474102 0.13831647 0.058896348 0.08193064 -0.029203592 0.17219585 0.08752397
0.06526531 0.03916849 0.091013014 0.03923636 0.032100745 0.06075731 0.06333102 0.0801079
0.060357057 0.10646857 0.020241518 0.0659154 -0.10948714 -0.077342086 0.006580916 -0.07521053
-0.08380323 0.11468646 0.071157835 0.0011016896 0.07844064 0.031457424 0.22291927 0.034204934
-0.100019276 -0.121102676 -0.124908775 -0.029207049 -0.052251715 0.030772243 -0.054804865 -0.11848673
-0.0012455714 0.0034536694 0.04726688 -0.0478438 0.027820949 0.010190822 -0.05678945 0.026541444
-0.11609804 -0.04267017 -0.02094605 -0.0034284324 -0.06456709 0.03484287 -0.039484203 0.023719233
0.046852972 0.08188393 0.010634582 -0.03169667 0.008167825 -0.098890774 -0.13004717 0.028406063
0.030237824 -0.07023017 0.06289738 0.005810363 -0.038104217 -0.13537759 -0.032346174 0.00072503823
0.03325609 0.030352606 0.10394827 0.09284178 0.025934514 0.065068394 0.021551931 -0.028436085
-0.043362074 0.049160235 0.016479705 0.029667296 0.0749779 -0.036859654 0.03468144 0.045225013
0.054755814 0.032116476 0.042092483 0.018420953 0.15399821 0.08536299 0.06458662 0.05423267
0.03246187 -0.008330526 0.015138092 0.038918346 0.070072904 0.043589253 0.037982076 0.09361673
0.088138424 0.027001081 0.030512244 0.04522533 0.08798763 0.016722264 0.13017495 0.12890875
0.08629427 0.12090243 0.08812688 0.09427203 0.01009484 -0.027283996 0.08600813 0.041551217
0.0792919 0.06563787 0.048211757 0.076882295 0.05712831 0.13311264 0.07842067 0.060124643
0.033757683 0.037069358 0.05974156 0.07066987 0.11446828 0.08891178 0.07559254 0.095581874
0.10817081 0.08735341 0.052771103 0.048765957 -0.025427446 0.02493239 0.005859481 -0.049613833
0.12315498 0.1070244 0.21861614 0.11669259 -0.0060151713 0.21555807 -0.020154875 -0.062787324
0.0071688355 -0.06379947 0.00059894286 0.015753526 -0.020158868 -0.024667934 -0.04868368 0.07822149
0.031502057 0.015240099 0.012149243 -0.09581513 0.05164895 0.008706035 -0.052619267 0.06453308
-0.046927962 0.0074216905 -0.097800866 0.041396007 0.0024804291 0.06014992 -0.019831352 0.036160138
0.018233405 -0.15581827 -0.112254985 -0.0095157605 0.034088366 0.04027908 0.062092 -0.011676383
-0.0053346897 0.04883465 -0.09890105 -0.18312533 -0.10771303 -0.23311296 0.14886342 0.16745605

fc1.bias f4 [64]
00000000: 4870 d6bb 2da7 4cbd 5bf0 dfbb b150 b1bb
00000010: bcd3 e43d 97de 263d 0289 1abc d737 e53d
00000020: 2614 293c 708f 373d fb4c 33bd cfaf a1bc
00000030: 5571 c23c aac8 f1ba ec27 a73d 5422 bebc
00000040: 2963 38ba 3573 e13b c6d0 3f3c 1176 42b9
00000050: 6092 e43c 33cc 603d a4bc c0bc b6d5 953d
00000060: fa95 0bbd c696 773d dda0 d4bc 90df adbd
00000070: f843 e5bc 94c8 c43a cc80 84bd 63d2 08be
00000080: 5479 8cbc 0933 64bc ebea b23d 169a b2ba
00000090: 597d 063c f442 0e3c 819a 643d 836b 79bc
000000a0: 0816 9c3b 0cb5 1f3e 034b b2bc 21c9 21bc
000000b0: 2893 433c 6410 aebb 6d2c b7bd 3b1b d4bc
000000c0: 0ed5 df3d f676 57bc df37 a43c 9631 acbc
000000d0: a1b6 d2bd 8ee9 313c d572 243c df23 363c
000000e0: afb0 90bc 5667 653c 3fcb 6b3c 22eb bfbd
000000f0: 179a 85bd 1630 8b3d e278 92bc b5e3 cd3d
-0.0065441467 -0.04996412 -0.0068340725 -0.0054112305 0.111731976 0.040739622 -0.009432079 0.11192291
0.010319745 0.044814527 -0.043774586 -0.019737152 0.023735682 -0.0018446643 0.08161911 -0.023209728
-0.0007033819 0.006880189 0.01170749 -0.00018545265 0.027901828 0.05488224 -0.02352745 0.07316153
-0.034078576 0.060446523 -0.025955612 -0.08489907 -0.027986512 0.001501339 -0.064698786 -0.13361506
-0.017147698 -0.013928183 0.08736213 -0.0013626243 0.008208596 0.008682955 0.05581141 -0.015223387
0.0047633685 0.15596408 -0.021764284 -0.009874613 0.01193694 -0.0053120125 -0.089440204 -0.02589189
0.10929309 -0.013150921 0.020046173 -0.021019738 -0.1028874 0.010858906 0.010037144 0.011116951
-0.017662374 0.014001688 0.014391719 -0.0937102 -0.06523531 0.06796281 -0.017879907 0.10053197

fc2.weight f4 [64, 64]
00000000: ba06 de3c 1448 c8bd 7ee8 07bd 8f2c 4f3d
00000010: 2bab bbbc 0b48 b6bb 21ea c13d 950e 9ebd
00000020: c678 c9bd 8ca5 863d 03e5 90bc a8a5 073e
00000030: c1d2 b63b d51b cdbd 56b4 053e a186 c73d
00000040: 3fcc 7e3d b42f 5fbc 5fa9 613d f50f 94bd
00000050: 4f8e 52bc 6af7 e2bd c26a c8bd ebb5 94bc
00000060: 6059 c13d 30a1 c93d 2ff3 db3d b9cb 8fbd
00000070: 41c7 18bd e29d 20bc 17d9 4ebd 03e6 1b3d
00000080: 399c e8bd 6765 a93d a11b 54bc a6c4 763b
00000090: 350d a8bd cc1d bcbb e8ea a63d f5b9 b9bd
000000a0: 68b9 a63c 4d43 903d bd47 6c3c d960 0dbc
000000b0: c5ca f2bc 7da0 6abd f911 bb3d 876b 3bbc
000000c0: cdeb b63d 7090 e5bc 95c5 7a3c fc43 8c3c
000000d0: 0a34 ea3d 3070 d2bc 2185 d5bc 1875 06be
000000e0: 6ffb c3bd f7bd c3bd 8910 b73d 435a 54bd
000000f0: f7b8 e13d 2dc1 ecbd f56f 88bd b7b8 943d
00000100: a8a5 09bd 907f c5bd e9aa c4bd d8ed d4bd
00000110: 8d09 9e3c 7fc1 6bbd 75b2 be3d 4c26 be3d
00000120: e45e b2bd 78de 06be 26a1 4abd 06b5 a8bd
00000130: 4c63 a8bd 2cc7 50bd 2998 1a3e afc8 18bc
00000140: 5909 c83d 45a2 8ebd b4c6 ce3b 6a0e 8b3d
00000150: 3ee0 8dbb 9d51 d53d 3088 113e 4a39 353d
00000160: 985e 713a 9f65 fdba 8953 d3bc 1441 053e
00000170: 448b f23d 350c 883b 452a b03d 7509 2e3d
00000180: 0c6b 8b3c a455 043d b848 c1bd 9f3e 9ebd
00000190: 4671 9639 a4de a4bd ecfb 65bd 7d6f e3bd
000001a0: 5d28 92bd 534f 8dbd 0a86 8a3d a88b a63d
000001b0: 620e b03c f16e 903d 9792 af3d 9e7a 0bbd
000001c0: 78c6 8cbd e75d f0bd f6e4 6dbd fa30 28bc
000001d0: 8cc2 01bc dcce 83bd f3c0 d5bc 5a45 b03d
000001e0: 04eb de3d 810d b23d 1366 d43d e636 bcbd
000001f0: 717c cb3d 172d fcbc 6d26 583c 3bd9 2f3d
00000200: 9015 693c 3ea3 563d fb11 c8bd 2ef9 06b8
00000210: 3f27 c13c 9b56 53bd 4fc3 e63c 1e2a c1bd
00000220: e74d 673d 9867 663c dfba 313a 8901 77bc
00000230: 43b6 9abd b943 a8bd d222 703d ca6e bbbc
00000240: 3f47 06bd b4e8 ce3d 0c5d 0cbe bf9d 263d
00000250: f5d7 e13d 6f99 ebbc 76f6 003e e820 873d
00000260: 1883 7ebc b0a7 3abd 3005 90bc 3e09 85bd
00000270: 308a fb3d 6527 7fbd 6978 03bd d477 de3b
00000280: 59ed 87bd 48cd 8a3d 07fc 9b3d 6613 acbc
00000290: 21ec a13d 7b72 02be 820d 0f3e 99c9 27be
000002a0: 7321 e6bc 9c15 5abc f7fa bf3c 0c0b dd3d
000002b0: 7673 d03d 96b9 9c3d 2985 acbd 354a fc3d
000002c0: d9fe a73b 7d37 f03c 3546 54bc 4554 7ebd
000002d0: 8566 e9bd 1891 02be 92d2 64bd c053 06bb
000002e0: c483 ab3d 6eae 8abd 9066 c03d 9b88 a33c
000002f0: e08e 9dbd 42aa 883c 29f0 b13d a6ca d2bd
00000300: 6614 b3bd 7c94 04bd 6ded b1bd fafa da3d
00000310: 4bc2 bd3d 075b 8abd b264 b2bd f406 4bbb
00000320: 3434 efbd 0322 38bd 3287 8c3d 57e6 363d
00000330: 18c9 67bc 93c8 9c3d 1e5f 8cbd e991 d6bd
00000340: f535 193d 7c1e f5bd 35a5 95bd b08d 313d
00000350: 14b5 a2bd afab 8ebd ab26 8b3d 85e2 96bd
00000360: a702 debd f0b4 053d 926d b6bc 12e3 cd3c
00000370: c3f1 d93d c17d c33c dc36 a1bd 5946 debd
00000380: cb85 c6bd c02c d9bc 7a64 f13d 4d9e cf3a
00000390: a6c6 4abc b02c 16be e259 46bd 17cb d2bb
000003a0: 4f1c 473a 9143 593d 5033 d1bd 0649 e4bd
000003b0: 3c8d 73bd 668e fcbc 4345 acbd ed7d 95bd
000003c0: 0314 c5bd ac2e 303d 1f8e 003e 1bfd ea3d
000003d0: b007 423c 139b df3d 2132 033e 9eb5 3e3d
000003e0: c718 4f3d 2f1f c63d ad74 803c 83ea febd
000003f0: c84e 34bd b2cc e5bc afdf 00be ff7d ff3d
0.027102817 -0.09779373 -0.033180706 0.050579604 -0.022908768 -0.0055627874 0.09468485 -0.07717625
-0.09837489 0.06574544 -0.017687326 0.13246787 0.005579323 -0.10015074 0.13057074 0.09742475
0.062206503 -0.013622213 0.055093165 -0.07229606 -0.012851312 -0.11082347 -0.097859874 -0.018153151
0.09440875 0.09845197 0.10739743 -0.07021279 -0.0372994 -0.009803267 -0.0505 0.038061153
-0.11357922 0.08271294 -0.01294604 0.0037653833 -0.08205644 -0.0057408568 0.081502736 -0.090686716
0.02035208 0.070440866 0.014421401 -0.008629047 -0.029637704 -0.05728196 0.091342874 -0.011439211
0.08931694 -0.028022975 0.015305896 0.017122261 0.11435707 -0.02568826 -0.026064457 -0.13130605
-0.095694415 -0.09557717 0.08938701 -0.051843893 0.11021607 -0.11560283 -0.06661979 0.07261794
-0.033605248 -0.09643471 -0.09602911 -0.103969276 0.019291664 -0.05755758 0.09311382 0.09284648
-0.08709505 -0.13170803 -0.04947009 -0.082376525 -0.082220644 -0.050971195 0.15097107 -0.00932519
0.09767408 -0.06964544 0.0063103084 0.06789859 -0.0043297103 0.10415957 0.14212108 0.04424409
0.0009207516 -0.0019332654 -0.025796669 0.13013107 0.11842969 0.004151846 0.08601812 0.042489488
0.017018817 0.032308236 -0.09437698 -0.07726788 0.00028694625 -0.08050278 -0.056148455 -0.11105249
-0.07136605 -0.068998955 0.06763847 0.08132106 0.021491233 0.070524104 0.08572882 -0.034052484
-0.068737924 -0.117366605 -0.058079682 -0.010265583 -0.007919919 -0.0643594 -0.026092982 0.08606978
0.108846694 0.08693982 0.103710316 -0.091901585 0.09935845 -0.03078322 0.013192755 0.042931776
0.014226332 0.052401774 -0.097690545 -3.2180156e-05 0.023578284 -0.051596265 0.028169302 -0.09431861
0.056470778 0.014062785 0.000677986 -0.01507605 -0.07554295 -0.08216042 0.058626957 -0.022879977
-0.03278279 0.10102978 -0.1370737 0.040677782 0.11027519 -0.028759686 0.12594017 0.06598073
-0.015534185 -0.045570076 -0.017580599 -0.064959034 0.122822165 -0.06229343 -0.032097254 0.006789187
-0.06637067 0.067774355 0.0761643 -0.021005344 0.07906366 -0.12738983 0.13969997 -0.16385497
-0.028092122 -0.013310816 0.023435099 0.10793123 0.101782724 0.07652585 -0.08423836 0.12318841
0.0051268158 0.029323334 -0.012956192 -0.062092084 -0.11396507 -0.12750661 -0.055864878 -0.0020496696
0.08374742 -0.06771551 0.09394562 0.0199626 -0.07693267 0.016682748 0.08688385 -0.10292558
-0.08744125 -0.03236817 -0.086878635 0.10692401 0.09265574 -0.06755643 -0.08710612 -0.0030979486
-0.11679879 -0.04495431 0.06861724 0.044653263 -0.014147066 0.07655444 -0.0685408 -0.10477049
0.037404973 -0.11968705 -0.07306901 0.043348014 -0.07944694 -0.0696634 0.06794485 -0.07367424
-0.1084035 0.03264326 -0.022269044 0.02513269 0.106418155 0.023863675 -0.07871792 -0.108532615
-0.09693488 -0.026510596 0.117867425 0.0015840024 -0.012376463 -0.14665484 -0.048425563 -0.0064329016
0.0007595466 0.053042952 -0.10214865 -0.111467406 -0.059460863 -0.03082962 -0.08411648 -0.07299409
-0.096229576 0.04301326 0.12554215 0.11474057 0.011842653 0.1091825 0.12812091 0.046559922
0.05056074 0.096739165 0.015680635 -0.12447073 -0.044020444 -0.028051708 -0.12585329 0.12475204

fc2.bias f4 [64]
00000000: 4919 58bd 4c32 533d 4c41 a1bd 595c 48bc
00000010: f817 1bbd cff9 983d c366 e3bd eb65 e83d
00000020: 2779 ba3d 82eb ac3d 86ec 873d 11db f4bd
00000030: 7930 73bd d9bf aebd cdb8 883c 8e17 593d
00000040: f29c 43bd 135c e23d 11a8 3c3d 1c7f 2bbb
00000050: 6fd0 afbd 4e60 e4bd 2274 b9bd fcc4 e0bc
00000060: e689 2a3d 2d4e aebd 15f5 3b3d 5650 8abd
00000070: 2e23 e83d ee44 923d 63bd ba3d eae2 403c
00000080: 785f bcbd 588f 8bbd 199e dcbd e279 bfbd
00000090: 5933 b93a 26f2 9e3a 3067 bb3d 4bf6 d83d
000000a0: ac12 943d 2026 d73d 95f9 18bd ec9e 273c
000000b0: de95 323d 70b0 02be 2241 b13d 7cfb 0f3d
000000c0: 4d65 e63d 75a0 60bd 79bc 8a3c 2b52 f0bd
000000d0: 8ff7 a2bd 4984 933c a533 c8bc 7f30 6abb
000000e0: 7c74 72bd 1fb9 093d b438 553d 1e2e 613d
000000f0: 1e12 2abd ac9b b23b 2c10 af3d 447b 60bd
-0.05275849 0.05156164 -0.078737825 -0.012229049 -0.037864655 0.07469522 -0.111035846 0.11347564
0.09105139 0.08443357 0.0663691 -0.11955846 -0.0593724 -0.08532686 0.016689682 0.05300098
-0.047757097 0.11052718 0.046058718 -0.0026168292 -0.085846774 -0.11151181 -0.09055354 -0.02743768
0.041635416 -0.085110046 0.045888025 -0.06753604 0.11334835 0.071420535 0.09118154 0.0117728505
-0.09197897 -0.0681445 -0.10772342 -0.09349419 0.0014129683 0.0012126609 0.09150541 0.10593852
0.07230124 0.10505319 -0.037347395 0.010230761 0.043599956 -0.12762618 0.08655001 0.035151944
0.1124979 -0.054840524 0.016935574 -0.11734422 -0.07957374 0.018007414 -0.024438689 -0.0035734472
-0.05919312 0.03362381 0.05205603 0.05497562 -0.041521184 0.0054506864 0.085480064 -0.054805055

fc3.weight f4 [1, 64]
00000000: 8e81 413d f697 5e3d d1ca 963d 054e d03b
00000010: 534a 03be 2a92 e53b 82a4 afbc e62e 0b3e
00000020: f5b1 c63a 9356 36ba 53aa c8bd cba0 abbd
00000030: 220c 1e3d aa4c 96ba 59ce 3bbd a60f 8d3d
00000040: e779 bd3d 32b6 013e 4d12 47bd 0032 24bd
00000050: 8b76 fe3d f91c c83d 8aaa e93d 6ed8 97bd
00000060: b1fa 843c ca6a 743c 59ec 13bb 137e d83c
00000070: da80 b93a b7b8 1abd be09 b0bc b675 7dbd
00000080: 4b26 e33d ba88 24bd b0b1 813d 03ac cdbd
00000090: 751f 44bd 12b2 7b3c e631 94bd caf8 ebbb
000000a0: 8cbf 293d d467 b5bd 706f a33a 4a8f 283c
000000b0: 64ad 4a3d 162c f73d ca03 563d 269e 88bd
000000c0: 2f6c 493a a236 c0ba e27b 233c 24c9 7fbc
000000d0: c2c6 14bd 09b8 703b 65e2 45bd b108 0bbc
000000e0: a059 e73d 1155 9fbc 60b8 d73d 16ec 3b3d
000000f0: 98c1 123d fbea 823a 5583 cf3d 0dd7 8a3d
0.047242694 0.05434414 0.07362903 0.006356957 -0.12821321 0.0070059495 -0.021440748 0.13592109
0.0015159237 -0.00069556496 -0.09798112 -0.08380278 0.03858579 -0.001146694 -0.045851085 0.0688775
0.09251767 0.12667158 -0.048601437 -0.040086746 0.12424954 0.09771151 0.11409481 -0.074143276
0.01623282 0.014918039 -0.0022571294 0.026427304 0.0014152781 -0.037773814 -0.02148902 -0.061879836
0.11091288 -0.040169455 0.06332719 -0.10042574 -0.047881562 0.0153622795 -0.0723608 -0.007201289
0.04144244 -0.08857694 0.0012469124 0.010288069 0.049481764 0.120689556 0.052249707 -0.066707894
0.0007683662 -0.0014664719 0.009978266 -0.0156119205 -0.036322363 0.0036730787 -0.04831161 -0.008485959
0.112963915 -0.019449743 0.105332136 0.045879446 0.035829157 0.0009988243 0.101324715 0.06779299

attentionblocks.0.layernorm0.weight f4 [64]
00000000: 0ea5 853f 46a6 773f e765 7c3f d5f8 883f
00000010: ae44 6e3f 3b1f 833f c453 873f 9ba0 573f
00000020: fd6c 893f c3e8 7e3f 7450 833f c8dc 803f
00000030: 1e60 7d3f 72d9 833f be94 6e3f 4d2c 733f
00000040: d3cf 8f3f 496e 823f 860a 913f 586e 8b3f
00000050: 2f90 843f 9872 6b3f f370 863f d40e 783f
00000060: 293b 7f3f 2ad9 7e3f 348e 833f 7b19 6a3f
00000070: 3e32 893f 6164 853f 5bef 713f 254f 643f
00000080: 09b7 853f 12a4 903f 3266 653f 5702 883f
00000090: cdc6 893f cf83 8c3f 2e49 7b3f f0e2 7c3f
000000a0: 8690 843f 6746 643f b12b 863f f13d 873f
000000b0: af94 803f 241a 893f c945 6c3f f92f 813f
000000c0: 0eb2 653f 20fc 843f cabf 7c3f 166b 853f
000000d0: 4304 713f 67e9 863f 86c4 833f a0df 8c3f
000000e0: 8421 813f 0287 883f 4893 8d3f f418 713f
000000f0: 283b 7d3f 06e3 6d3f af8c 7f3f a508 6f3f
1.0440996 0.9673809 0.9859299 1.0700938 0.93073547 1.0243906 1.0572438 0.8422944
1.0736386 0.99573916 1.0258927 1.0067377 0.9897479 1.0300734 0.9319571 0.9498947
1.1235298 1.0189906 1.1331336 1.0893049 1.0356501 0.9197173 1.0503219 0.96897626
0.99699646 0.99550116 1.0277772 0.9144513 1.0718458 1.0421258 0.9450585 0.89183265
1.0446483 1.130007 0.8960906 1.0625714 1.0763794 1.0977725 0.9815854 0.9878378
1.0356605 0.89169925 1.0482084 1.0565778 1.0045375 1.0711102 0.92293984 1.0092765
0.89724815 1.0389442 0.98730147 1.0423305 0.9414713 1.0539979 1.0294349 1.1005745
1.0088353 1.0666201 1.1060572 0.941787 0.9891839 0.92924535 0.9982404 0.93372566

attentionblocks.0.layernorm0.bias f4 [64]
00000000: 05d3 de3b bdff 2dbc f519 39bd 5d0c 473d
00000010: 2ed5 293d a7dd b93b ca47 463c e58e 613b
00000020: 9d7b 27bc 0528 1c3d 342e 02bd 75b3 2e3a
00000030: c48c 2d3c a192 c53b 35d1 603b 5113 053c
00000040: 5ef5 0d3c 845d 99bb b73e 73bc 394d 9f3c
00000050: fef4 19bd e47f efba 4343 54bd b812 c8bb
00000060: e707 813a aa53 39ba e9ed 0ebd 5554 c73d
00000070: a0c5 933c 1a77 cbbc 523d 08bd 1f40 e33c
00000080: 3537 c23c fc61 443c 6392 163d f0ea 223d
00000090: c5e7 9abc a60e dfbc 2eb7 653b c59a f4bc
000000a0: 2c16 82bc 57a0 6abc 3e7b 2e3d d8c0 6dbd
000000b0: a29a 65bc 69d9 e83b 995a 7a3c 20d8 7abc
000000c0: 8cf5 183d 7f63 723c a35b b93c a714 983c
000000d0: 8090 243c 3382 c13c d48f f8bb 6631 debb
000000e0: 3a01 0cbc 43ea 20bc d456 d0bc e872 d03c
000000f0: ebe1 a03c 742f 65bc 4f21 95bc f577 1b3c
0.006800058 -0.010620055 -0.04519077 0.048595775 0.04146307 0.005672175 0.012102077 0.0034417447
-0.010222343 0.038124103 -0.031782344 0.00066643144 0.010592643 0.0060294424 0.0034304385 0.008122281
0.008664457 -0.0046803374 -0.014846495 0.019446002 -0.03758716 -0.0018272367 -0.05182196 -0.006105747
0.0009844274 -0.0007069657 -0.034894858 0.09732882 0.01803857 -0.024837065 -0.033261605 0.027740536
0.023707965 0.011986252 0.0367607 0.039774835 -0.018909344 -0.027228665 0.003505181 -0.029858956
-0.015879713 -0.014320455 0.042598 -0.05804524 -0.014013918 0.0071059954 0.015280389 -0.015310317
0.037343547 0.0147942295 0.022626704 0.018564535 0.010044217 0.023621654 -0.007585505 -0.006780791
-0.008545214 -0.009821477 -0.025432028 0.025445417 0.019638976 -0.0139883645 -0.01820436 0.009489049

attentionblocks.0.layernorm1a.weight f4 [64]
00000000: 2a03 843f e81f 713f 7021 7d3f 0828 893f
00000010: 2f20 693f cf8a 833f 96ef 8a3f ab27 813f
00000020: 7263 813f 5913 833f 372e 813f 43ab 7c3f
00000030: 9735 823f b99e 803f f831 763f ff2d 803f
00000040: 6a8d 933f 971a 813f c823 8b3f 58f8 893f
00000050: 802a 7d3f 7604 833f 8bab 873f 7ef2 6c3f
00000060: 6038 833f d66a 6e3f 2d9e 723f 4250 763f
00000070: d4c0 853f 499c 853f d8bf 773f 9250 5a3f
00000080: 2a61 873f 4e15 843f b1dd 733f 42a6 7d3f
00000090: 17e0 8e3f cedf 873f b8dd 703f cf25 823f
000000a0: 306e 843f 9c2e 783f 2913 8c3f 7fbb 843f
000000b0: 69b6 813f 18f9 873f ae33 803f 54a0 843f
000000c0: 537d 783f cc1e 813f 564b 763f 1276 833f
000000d0: 190b 713f 5761 813f 4081 873f a39f 873f
000000e0: d5c5 843f 830d 843f 572b 8b3f 6d98 713f
000000f0: 30a2 763f a586 793f e293 733f 0f0a 743f
1.0313466 0.9418931 0.98879147 1.0715342 0.91064733 1.0276736 1.0854366 1.0090231
1.0108473 1.024028 1.0092229 0.98698825 1.0172604 1.0048438 0.96169996 1.0014037
1.1527531 1.008624 1.0870295 1.0778913 0.98892975 1.0235736 1.0599226 0.92557514
1.0251579 0.9313177 0.9477261 0.96216214 1.0449471 1.043832 0.96777105 0.8527919
1.0576527 1.0319002 0.9526015 0.99081814 1.1162137 1.0615175 0.94088316 1.0167788
1.0346127 0.9694612 1.0943347 1.0369719 1.0133792 1.0622892 1.0015771 1.0361428
0.9706623 1.0087523 0.96208704 1.0270407 0.9415756 1.0107831 1.0586319 1.0595592
1.0372874 1.0316623 1.0872601 0.9437321 0.9634123 0.97471076 0.95147526 0.9532785

attentionblocks.0.layernorm1a.bias f4 [64]
00000000: 8566 e8bb 5cd5 55bc f955 86bc 000e 513c
00000010: d877 dbbc 28a8 b83b 886b c73b 8e6a 25bd
00000020: 73be 28bd 2a48 e0bb 648d 443d edca 0a3d
00000030: 5e8d 2fbc 145c 8c3c 3aa1 01bb b0a8 003c
00000040: c332 833a 98fe 78bc f0c6 07bd bf70 d6bb
00000050: 292a 4dbd 761f 46bd 9fd7 76ba 9f6a febc
00000060: 80ca 1c3d 4cae f43b 519e 363d 36fe 463c
00000070: 7040 873b 035e 10bc c644 303d 75e0 3a3d
00000080: 98b1 403d 12ad 393d 4a86 1cbd bbac ed3c
00000090: bef2 393c 785e 8cbc 3123 babc 4443 2fbd
000000a0: ca6e fb39 a01b 57bd 3b62 423d 7944 f83b
000000b0: 7c09 1b3b 5e11 3bbc a869 4f3d 2a01 4f3d
000000c0: 5e46 23bc be46 a33c ee98 323c 0efb 663c
000000d0: 3e65 303d b822 67bc 94ea a03c 17c1 39bc
000000e0: 9fab 04bc 58e6 87bc 300e 20bd 7614 f43c
000000f0: 34c1 3d3d 4b9b a9bd c09d eb3a 78b2 adbd
-0.0070922994 -0.013051357 -0.016398417 0.0127596855 -0.026790544 0.00563528 0.006085817 -0.04038482
-0.04119725 -0.00684454 0.047986403 0.03388493 -0.010714857 0.01713375 -0.0019779936 0.007852718
0.0010009635 -0.015197419 -0.033148706 -0.006544202 -0.050089035 -0.048369847 -0.00094162853 -0.0310567
0.038279057 0.007467067 0.044584576 0.01214557 0.0041275546 -0.008811477 0.043034337 0.045624215
0.047044367 0.04533107 -0.038214006 0.029013028 0.011349378 -0.01713489 -0.022721859 -0.04278876
0.00047956995 -0.05251658 0.04745696 0.007576522 0.0023656776 -0.011417715 0.05063787 0.05053822
-0.009965507 0.019931193 0.010900719 0.014097942 0.043065302 -0.014107399 0.019643106 -0.01133754
-0.008097558 -0.016589329 -0.03907603 0.029794913 0.04632683 -0.08281573 0.001797609 -0.08481306

attentionblocks.0.layernorm1b.weight f4 [64]
00000000: 2224 823f d050 843f 5cce 7d3f b6e9 893f
00000010: 23ea 813f bab1 8b3f 2cfb 833f ebdf 883f
00000020: 9dd1 923f c6c6 8d3f 7f10 7d3f c361 813f
00000030: cb4e 8d3f 2735 833f 988d 8e3f 1931 8a3f
00000040: 8e35 863f bbdf 823f 081e 793f 44a4 863f
00000050: d16a 743f 15e9 903f 3e9c 863f 9d8c 843f
00000060: 81e3 853f 6c09 813f cbf1 833f 775c 8c3f
00000070: 2793 863f ff25 873f ae3e 8f3f 2388 8a3f
00000080: 1026 863f 935d 853f 3a9c 813f 347b 803f
00000090: 8b99 843f e7b1 843f 1960 883f cd52 823f
000000a0: da45 843f c2b4 8d3f 05e3 873f 3a11 883f
000000b0: 4edd 803f 5627 7e3f fcac 813f 7d16 823f
000000c0: d78b 8e3f 3cdb 8b3f 1493 823f f8a6 8c3f
000000d0: 410d 823f d1fd 863f 16e0 883f bf13 783f
000000e0: c911 833f 4b2e 803f d7bb 843f b87f 793f
000000f0: adad 873f b313 7f3f 2fbe 813f 60db 863f
1.0167277 1.0337162 0.99143004 1.0774448 1.0149578 1.0913613 1.0311027 1.0693334
1.1470219 1.1076286 0.98853296 1.010796 1.1039671 1.0250596 1.1136961 1.0796233
1.0485094 1.0224527 0.9731145 1.051888 0.9547549 1.1321131 1.0516431 1.0355412
1.0460054 1.0081 1.0308164 1.0965718 1.0513657 1.055847 1.1191003 1.0822796
1.0480366 1.0419182 1.0125802 1.0037599 1.0359358 1.0366791 1.0654327 1.0181519
1.0333817 1.1070788 1.0616156 1.0630257 1.0067537 0.9927877 1.0130916 1.0163113
1.1136426 1.092628 1.0201135 1.0988455 1.0160295 1.0546209 1.0693386 0.9690513
1.0239803 1.0014127 1.0369824 0.9746051 1.0599877 0.99639434 1.0136164 1.0535698

attentionblocks.0.layernorm1b.bias f4 [64]
00000000: 6379 243c 161f 6e3a 9176 88bb e138 c63d
00000010: b694 bcbb 2448 a8bc 5769 4e3c 140e 9eba
00000020: d42c 1a3d 17e2 f1bc eca0 8ebc 60e0 783c
00000030: c8de 4c3b dcd5 083d 41fb dc3a b531 96bc
00000040: 34a0 fc3a f1a1 4cbb c852 a13b 7940 8a3b
00000050: b786 28bc 65ac 8c3c 298c 60bd 6e6c ffbb
00000060: 7a54 b0bc ffba 86bc 14db e1bb bee4 853d
00000070: 5167 5a39 588e d7bc f0a7 d2bc 7748 d03c
00000080: f4f8 543b 4358 23bc a9f3 773b 3996 703c
00000090: dba7 d33b aa62 80bb efc0 743d f635 bfbb
000000a0: ac24 7c3c 8382 22bc 7ff4 613c 0f6b 10bc
000000b0: d590 df3b 29eb a2bb 5dd6 c9bb 992b ccbb
000000c0: e338 bd3a 8b1a 9d3b d08c 643b c7e3 aa3c
000000d0: b6b6 1ebc 0156 7b3c ae98 c1bb 4733 0dbc
000000e0: 9911 cf3c 33a3 19bc 9393 54bd bc40 0bbb
000000f0: b878 473c 0274 fcbc 7786 8abb 87de 223b
0.0100387065 0.00090836117 -0.004164525 0.096788175 -0.0057550324 -0.020542212 0.012598357 -0.0012058639
0.037640408 -0.029526753 -0.017410718 0.015190214 0.0031260718 0.033407077 0.0016859547 -0.018334249
0.0019273818 -0.0031224454 0.0049231984 0.0042191115 -0.010286025 0.017172048 -0.054821167 -0.0077949082
-0.021524657 -0.016446589 -0.006892571 0.0653777 0.00020828588 -0.026312992 -0.025714844 0.025425179
0.003249702 -0.009969774 0.0037834442 0.014684253 0.006459219 -0.0039180117 0.05975431 -0.00583529
0.015389603 -0.009918812 0.013791203 -0.008814587 0.0068226852 -0.004971881 -0.0061595873 -0.006230783
0.0014436509 0.004794424 0.003487397 0.020860566 -0.009687116 0.015340329 -0.0059080934 -0.0086181825
0.025276946 -0.009377289 -0.05189855 -0.0021248301 0.012174778 -0.030817036 -0.0042274552 0.0024851875

attentionblocks.0.layernorm2a.weight f4 [64]
00000000: fc91 803f 598b 803f 5267 7f3f edaa 853f
00000010: e8e7 653f 5af3 833f 4bd2 853f 052c 6f3f
00000020: 1aac 823f 3cfc 763f bf68 803f 01d6 823f
00000030: 4473 793f ee52 7e3f 019d 6f3f 1c7b 833f
00000040: 8903 863f 2605 833f 11a2 763f 61dd 833f
00000050: 5db4 7f3f 09a8 783f 264a 833f 2d6c 803f
00000060: 6123 783f 6c24 823f a6e5 7e3f ad5b 793f
00000070: 1b60 853f ccec 843f 51cf 803f c352 843f
00000080: 04ec 763f 6f7d 883f f5ff 7d3f 273a 813f
00000090: 1080 803f 6e74 883f e197 823f b4e3 7d3f
000000a0: 9b9f 7e3f 671e 803f 6bb1 803f f73d 7c3f
000000b0: 5ef4 733f b78b 7f3f 817f 703f 83c0 7e3f
000000c0: a012 723f 23e4 853f f89f 7f3f 017f 833f
000000d0: 15d3 803f 4b4e 853f 207f 7d3f 6a6f 833f
000000e0: 89cd 753f 3de6 8a3f c7c3 803f 4cf7 6e3f
000000f0: 8534 833f 9a31 7b3f 39af 803f 325b 733f
1.0044551 1.0042526 0.9976703 1.0442787 0.89806986 1.030864 1.0454801 0.93426543
1.0208771 0.9647863 1.0031966 1.0221559 0.97441506 0.9934529 0.93598944 1.0271945
1.0469829 1.0235946 0.96341044 1.0301934 0.9988459 0.971314 1.0257003 1.0033013
0.96928984 1.0167365 0.99569166 0.9740551 1.0419954 1.0384765 1.0063268 1.0337757
0.9645388 1.0663279 0.99218684 1.0095872 1.0039082 1.0660532 1.02026 0.9917557
0.9946229 1.0009278 1.0054144 0.9853205 0.9529475 0.9982256 0.93944556 0.995125
0.9455967 1.0460247 0.9985347 1.0273134 1.0064417 1.0414518 0.990221 1.0268376
0.96016747 1.0851513 1.0059747 0.93346095 1.0250403 0.9812256 1.0053474 0.9506103

attentionblocks.0.layernorm2a.bias f4 [64]
00000000: e703 3a3c f8c9 ef3a b78c 6fba 98f9 023e
00000010: c015 8fbc 4ae1 e6bc 43b9 843c 39e9 903b
00000020: 5d7e 193d 33db f0bc 46e8 82bc 6ac7 783c
00000030: 6e7c b53b 8470 3d3c 53f6 49bc e423 a9bc
00000040: fd9c 143a d56a 9fbb 7c52 723a 68d3 be3b
00000050: a128 11bc 9c34 3a3c 3329 81bd 3e6c f6bb
00000060: f7ef eabc b55b cfbc 0f2b 07bc 5c68 9c3d
00000070: bd0d 863b b336 10bd 8d85 24bd 2946 ca3c
00000080: 15b3 c33b a7ca 06bc e64c 043c 2444 463c
00000090: ec67 0c3c eb80 38bc ffd0 863d 37e9 30bc
000000a0: 3c76 98bb 24e3 20bc 2740 8c3b 4174 f6bb
000000b0: 32c5 0538 7ea1 ebba d94c 22bc 2450 3dbc
000000c0: 95fe 893b cb13 393c c22c 923b ff17 f63c
000000d0: 283e 68bc 71d5 513c 6d14 08bc f19d 7dbc
000000e0: cae6 b93c 1a1d 13bc 1033 86bd 0d6b 10bc
000000f0: 1465 a13c fe48 02bd a5ff 2bbc 3bb1 273b
0.011353469 0.0018294444 -0.00091380946 0.12790525 -0.017466426 -0.028183598 0.01620162 0.0044223336
0.037474025 -0.029401397 -0.015979897 0.015184263 0.005538515 0.01156247 -0.012326795 -0.020646997
0.0005669145 -0.0048650303 0.00092438585 0.0058235414 -0.008859784 0.011365082 -0.06306686 -0.0075202277
-0.028678877 -0.025312284 -0.008250012 0.076370925 0.004090993 -0.035208415 -0.040166426 0.024691658
0.005972276 -0.008227027 0.008074975 0.012101207 0.008569699 -0.011261205 0.065828316 -0.01079779
-0.0046527665 -0.00981978 0.0042801085 -0.0075211828 3.1893323e-05 -0.0017977206 -0.009906017 -0.011554752
0.0042112567 0.011296223 0.004460902 0.03004074 -0.014174975 0.012807236 -0.008305651 -0.015479551
0.022693057 -0.008979106 -0.06552708 -0.008814585 0.019701518 -0.031807892 -0.010497962 0.0025587815

attentionblocks.0.layernorm2b.weight f4 [64]
00000000: 4ecc 873f 2ba0 873f f106 773f 64ec 813f
00000010: dfe0 893f 20f9 803f 1944 813f 834e 7b3f
00000020: 7402 883f 8228 813f 9648 7b3f d85f 793f
00000030: a37d 803f efd6 7b3f 86e8 7d3f 2716 8f3f
00000040: 2037 6b3f 4471 833f 80ae 6f3f 6339 873f
00000050: 4edb 753f 2d90 733f a611 813f 52e2 823f
00000060: 3fd6 8f3f beb7 743f 32ca 883f ee8f 8a3f
00000070: 6b81 7f3f ccbf 733f 13c0 803f af09 803f
00000080: 27cf 773f 03ec 803f c52b 803f f4d7 793f
00000090: 4fb1 7c3f 5c17 823f d637 823f 7fcf 7e3f
000000a0: 3573 703f ccd7 843f c2d3 753f 5bbf 643f
000000b0: a2c4 7d3f 3371 7f3f 48ed 783f 9d68 773f
000000c0: 2f52 813f b98c 8a3f bfa8 773f d528 7d3f
000000d0: 475e 853f 1acf 883f 64cd 773f 1d24 8b3f
000000e0: 1818 7e3f 5b56 883f e85e 8a3f 24d5 743f
000000f0: 132b 703f 777b 7f3f 78ca 733f c64f 7a3f
1.0609224 1.0595754 0.96494967 1.0150266 1.077175 1.0076027 1.0098907 0.98166674
1.0625749 1.0090487 0.9815763 0.9741187 1.0038341 0.9837484 0.9918293 1.1178635
0.9188099 1.0268941 0.9362564 1.0564388 0.9603776 0.9514187 1.0083511 1.0225317
1.1237258 0.9559287 1.0686705 1.0825174 0.9980685 0.95214534 1.0058616 1.0002955
0.96800464 1.0072025 1.0013357 0.97595143 0.9870805 1.0163379 1.017329 0.99535364
0.9392579 1.0378356 0.9602624 0.89354485 0.9912816 0.99782103 0.9723706 0.96644
1.0103205 1.0824195 0.9674186 0.9889043 1.0419396 1.0688202 0.96797776 1.0870396
0.99255514 1.0651354 1.0810213 0.95637727 0.93815726 0.9979777 0.9523082 0.97777975

attentionblocks.0.layernorm2b.bias f4 [64]
00000000: af2a 91bd 0318 5cbd 517b eabc 75a2 1bbe
00000010: 8f46 b7bd f6da c9bd 1b48 cfbd 55d1 9dbd
00000020: 7d95 c1bd f998 36bd 1c74 88bb d537 9dbd
00000030: 4b0a bdbd 88bf 48bd fe03 b8bc 6727 d1bd
00000040: 02ae 95bb 5153 b7bc 9e95 e1bb 086d f1bd
00000050: 9155 ee3c c0a2 223d b22c 69bd 30dd 6fbd
00000060: fe2e 28bd 7238 c0bd be4c d5bd 471e 09bd
00000070: 13ee 5cbc 32ec b1bb bd50 22bd 615c 43bd
00000080: f106 e7bb da35 d4bc db84 bbbb c36c 7e3a
00000090: d2d2 8fbd 5796 2fbe aa3a 8fbd 4a7f 3ebb
000000a0: 69b4 d9bd f1cc 5dbd 02b5 56bd f3ef b4bd
000000b0: 052d 19bd f354 903c 98c6 09bd 486e 6fbd
000000c0: f4d4 66bd ddb7 91bd 3890 abbd 0c5a 09bd
000000d0: 02eb 0bbe 473d 86bd 167a e23c ffdf 2abd
000000e0: 94c2 b9bc da57 6abd ad85 b5bd fd4c 1ebd
000000f0: e953 0bbd 62f9 f9bd 205f b6bc 2200 d43c
-0.070882194 -0.053733837 -0.028623255 -0.15198691 -0.08949005 -0.098562166 -0.10121175 -0.077059425
-0.09452341 -0.04457948 -0.004164232 -0.07676665 -0.09230479 -0.049010783 -0.022462841 -0.102125935
-0.0045678625 -0.022378596 -0.006884291 -0.11788374 0.029093536 0.03970599 -0.05692739 -0.05856055
-0.04106044 -0.09385766 -0.10415028 -0.03347614 -0.013484496 -0.005429768 -0.03962778 -0.04769552
-0.007050388 -0.025904585 -0.0057226247 0.0009705538 -0.07022633 -0.17147194 -0.06993611 -0.002906757
-0.10630114 -0.054150525 -0.052418716 -0.08834829 -0.03739645 0.017618632 -0.03363666 -0.05845478
-0.05635543 -0.07115147 -0.08377117 -0.03353314 -0.13663867 -0.065546565 0.027646106 -0.041717526
-0.02267579 -0.057212688 -0.08863387 -0.03864764 -0.03401557 -0.12205769 -0.022262156 0.02587897

attentionblocks.0.fc_q_list.0.weight f4 [16, 64]
00000000: 1563 523d 159a b2bc 9419 bfbd 0a36 2b3e
00000010: 86fe 2a3c 629d b63d daae b03e fd03 9d3d
00000020: b413 433e 9438 853d f8b1 343c daaa e63d
00000030: c7ef d6bd 4bc7 533d 132f c2bd e407 b73d
00000040: fa17 4f3d 9b70 183b 834e 48be 9229 18be
00000050: d3db 8cbd ddde c93d 6166 15be ba4e aa3d
00000060: 38e2 7a3d fbb2 1ebc 9c92 85bd a51a 713d
00000070: 8284 303e fd2f 47be 8177 cb3d afb1 cf3b
00000080: 6de5 89bc ff5f c6bd 92c0 b5bd 3625 44be
00000090: a48b c73d 4c89 e53d c0c8 4ebd 994c f03b
000000a0: d25b 2fbb 56b1 853d b331 973d 9182 263d
000000b0: c7d4 89bd 2f56 2ebe 7f29 c4bd 83e6 96bd
000000c0: 6731 ccbd 780f a2bd 0f46 40bd 3353 9a3d
000000d0: ee5f a03c deaa 6cbd d6a7 2cbe 59b3 373e
000000e0: 981e 80be c446 0b3e b073 60be 1137 bbbc
000000f0: 01b9 0a3e 053d ee3d e762 d93d a7cf 3c3d
00000100: 0ea1 19be 28eb c9bc a028 56bd 5636 123e
00000110: 5e0e b73d d023 233e d6ac 133e d67c 423d
00000120: 72c6 8ebc b186 513d ff46 26bd 62e3 9f3c
00000130: 0c54 d3bd c3fc a2bd 9050 1cbd f97e e73d
00000140: 29f6 0b3e 9db6 03be 3f92 a93c 59c3 b0ba
00000150: 877e 753c ed22 173d 795e aa3c 3a40 1c3e
00000160: 25ec 9e3d f594 983d 1e6f e6bc a380 25be
00000170: b815 96bd e4f5 04be 1b40 bfbd e43c 2a3d
00000180: f3c0 a1bd ec30 db3c d8a7 cb3c bd57 13bd
00000190: 912f 1ebd 4276 403c e053 b33d c9e7 68bd
000001a0: f59e 47bc bce1 a93d 4c99 b73c 436b 6abd
000001b0: cb43 0c3c 04f3 9f3d 0e5f 2cbe 1955 26bd
000001c0: e6e3 913d c069 febd bdf5 c73c 5995 0f3d
000001d0: 96c4 06be 75a1 c2bd c096 c3bd 4780 35be
000001e0: 8c9d dcbd bcbc 63bc 7ce6 38bd 3cd0 b1bd
000001f0: 9835 aabc ea0d 183e f666 c7bc 40bd 92bd
00000200: 2919 81be 5751 bebd 3129 6cbe 5932 5a3e
00000210: 819d 063d 0ba9 9c3e 9c3f a6be da3f 2a3c
00000220: 2c38 1bbd c60e fdbd ac01 df3d f88f febd
00000230: dd80 1abd 0d1c e0bc b997 f83d 4e8c 163d
00000240: 25e3 3f3e f9d1 e5bc 27c0 523e 7084 883d
00000250: 8c59 253e 2a7b 4ebb c567 ce3d 921d f23c
00000260: 71fe 963d 9681 843e 4346 243d 17a5 3a3c
00000270: 92fd eebc 8b7a cb3c d034 fe3c 0670 f43c
00000280: 80b7 733e 1cf0 523d bdbd 0ebd bc1d acbc
00000290: a654 01be f4b2 493e 2619 933b ef4d 8abd
000002a0: a03b 1fbe d7c9 1fbe 3ef7 8fbe ef1b abbe
000002b0: ac62 493d 59ed 06be 6918 cc3c 08f4 e73d
000002c0: ad3a d93c cc20 06be 9f4d 41bc cb36 8fbd
000002d0: 0e08 273e 2780 61be 1b56 c33c f964 17be
000002e0: 3902 11be 7859 863e d594 05bc 4798 9dbc
000002f0: 3bb5 91bd 5bbf 403e 356c 853d 4e9f e23d
00000300: dca3 903c 66ba 843d 369e 0bbe 5c4d a1be
00000310: 8710 593d 932a 69be 1c81 56be 0a41 b93d
00000320: 182f 003e 831e 853c aff9 83be b838 2b3d
00000330: f465 0f3e 5178 133d fa5a 03be 0009 433e
00000340: 13c6 2f3d 517b 983d 1f11 1bba e940 233d
00000350: 5de6 76bd 7278 b6bc fe58 92bd fa7e fcbd
00000360: 4fae 733d fd28 443b f68b d93c c596 2f3d
00000370: 3b6f a8bd 4d24 503e efb5 433b 4bbe ecbc
00000380: 92c3 b4bd 032d 8c3e 54b3 2f3b d0ed a53c
00000390: 5315 643e 245c 49be 551d 463e 0f5b 9d3d
000003a0: 63ac 8abd c104 573d 89cb a43e 1680 35be
000003b0: c030 dabd 58a3 523d 5180 9a3d 1c06 2f3d
000003c0: 992a d1bd 0863 7a3e b0b4 febd 07d7 163e
000003d0: 6efc dfbd a728 ef3d a4a8 60bd 050f 113c
000003e0: e9de 893d 215d 42bd 1c14 dd3d 6168 053e
000003f0: 66e9 e23d d804 34bd fe5a eebd d193 b7bd
0.051364023 -0.021801988 -0.093310505 0.16719833 0.01043666 0.08916737 0.345084 0.07666776
0.19050485 0.06504932 0.011028759 0.11263056 -0.10494953 0.051703732 -0.09481635 0.08937052
0.050559975 0.0023260477 -0.195612 -0.14859608 -0.06877866 0.09856961 -0.14589836 0.08315797
0.061250895 -0.009686227 -0.06522104 0.0588633 0.17238048 -0.194519 0.09934903 0.00633832
-0.016833032 -0.096862786 -0.088746205 -0.1915482 0.09743431 0.11207828 -0.05048442 0.00733335
-0.002675761 0.06527965 0.07382526 0.04065186 -0.06730037 -0.17025064 -0.09578227 -0.07368185
-0.0997036 -0.07913107 -0.046941813 0.075354 0.019576993 -0.05778014 -0.168609 0.1793951
-0.2502334 0.13601214 -0.21919131 -0.022853406 0.13547136 0.11632732 0.10614567 0.04609647
-0.15002844 -0.024648264 -0.052284837 0.1427854 0.08938287 0.1593163 0.144214 0.047482334
-0.01742861 0.051153842 -0.04059505 0.019517604 -0.10318765 -0.07958367 -0.038162768 0.11303515
0.13668121 -0.1286263 0.020699618 -0.0013485953 0.01498378 0.036898542 0.020797001 0.15258875
0.07759885 0.07450286 -0.028129157 -0.16162352 -0.07328361 -0.12984425 -0.09338399 0.041561976
-0.0789813 0.026756726 0.024860308 -0.035972346 -0.03861958 0.011746945 0.08756232 -0.056861673
-0.012183894 0.082950085 0.022411965 -0.0572312 0.008561085 0.078100234 -0.16833135 -0.0406085
0.07123546 -0.12422514 0.02440917 0.03505454 -0.13160929 -0.09503452 -0.09550238 -0.17724715
-0.10772237 -0.013899978 -0.045141682 -0.08682296 -0.020777509 0.14849058 -0.024341088 -0.07165003
-0.25214508 -0.09292858 -0.23062588 0.21308269 0.03286505 0.3059772 -0.32470405 0.0103912
-0.037895367 -0.123563334 0.10888991 -0.124298036 -0.03772055 -0.027357126 0.12138314 0.0367549
0.18738993 -0.028054224 0.20581113 0.066658854 0.1614744 -0.0031506517 0.10078386 0.029555116
0.073727496 0.25880116 0.04010607 0.0113919 -0.029173646 0.024838706 0.031031042 0.029838573
0.23800468 0.051498517 -0.034848917 -0.021010272 -0.12629947 0.19697171 0.004489082 -0.06753146
-0.15550089 -0.1560434 -0.28118318 -0.3341975 0.049166366 -0.13176478 0.024913983 0.11325842
0.026517237 -0.13098449 -0.0117982915 -0.06992873 0.16311666 -0.22021542 0.02384477 -0.14784612
-0.14161004 0.26240134 -0.00815316 -0.01923765 -0.07114645 0.18822996 0.065147795 0.11065541
0.01765626 0.06480865 -0.13634571 -0.31504333 0.052994277 -0.22770147 -0.20947689 0.09045608
0.12517965 0.0162499 -0.2577643 0.041802138 0.14003736 0.036003415 -0.12827674 0.19046402
0.042913508 0.07445396 -0.0005915332 0.039856825 -0.060278285 -0.02227423 -0.0714588 -0.12328906
0.059492406 0.0029931657 0.026555996 0.042868394 -0.082243405 0.20326348 0.002986308 -0.028899333
-0.088263646 0.2737809 0.0026809769 0.020255 0.2227376 -0.19664055 0.19347127 0.07683384
-0.067711614 0.052494768 0.32186535 -0.17724642 -0.106538296 0.051425308 0.07544006 0.042730436
-0.10213203 0.2445184 -0.12436807 0.14730464 -0.10936819 0.11677676 -0.05484833 0.008853679
0.0673197 -0.047452096 0.10794851 0.13028099 0.110796735 -0.04394993 -0.11638449 -0.089637406

attentionblocks.0.fc_q_list.1.weight f4 [16, 64]
00000000: 33ac acbd f07e a83b 8c05 ddbd a991 9dbd
00000010: bcc1 70bd a066 1ebe 7f0d 5dbe 76e0 abbd
00000020: 5dd5 d63b 8a94 10bd d419 80bd d103 373d
00000030: 0006 8bbd 6c6f 3fbd f3bb a6bd 9780 ffbc
00000040: 0dbb a03d 023b 35be 7df6 7f3e f801 af3d
00000050: c5c1 103e e654 40be dd78 203d d867 11bd
00000060: b912 bd3d 7fc2 a53d 85b0 c13c 3fb7 65bd
00000070: 3ede d23c 3584 133e fafc 64bc ec27 f03d
00000080: 654c 133e c2ec ea3d 2db5 6fbd 2939 963d
00000090: cc3a 49bd df65 fc3c 7ec6 0bbe bf32 083c
000000a0: b5b9 5d3d b6ac 85bd 365b 7abe 9330 8f3d
000000b0: 329e 01bd 85d2 053d 4982 56bd e6e7 5fbd
000000c0: 9bd2 8dbc fb41 1d3e 615d 6c3c a836 a0bd
000000d0: 87b4 81bd 5ed2 023d 891b edbd 3efb a23d
000000e0: b6a6 6fbd b7e9 c63d 20a6 de3d e2b9 403e
000000f0: 340b 87bb f293 80bd 864f b43d 0a2d 45be
00000100: d2f2 f63c dd3f 3ebc 5f4b 98bc 3057 43be
00000110: cad3 893d 0b72 b0bd e970 373e 0776 b1bd
00000120: 7d8b 7abe 984d 473e 0db0 403d 07bd 0fbe
00000130: fb38 84bc dc59 90bd 6bbe 753d eca6 133e
00000140: ac5f 46bc eab2 d73d c728 b5bd 83e7 6d3d
00000150: 8c0e 24bd a7de 2a3e 604b 41bd 5b2c 033e
00000160: bce0 67bd c808 673d abb7 a6bd 08be f03b
00000170: 01a7 c93d fa1a 09be a199 6e3d 1193 083d
00000180: c390 813e 69c9 04be 482b 9abb 90b9 38bc
00000190: 0fb4 c0bd a0af f1bd eb70 2a3e 10a6 d4bd
000001a0: e193 abbe 8b47 073c a22b d43c 24a1 8cbd
000001b0: 106e b73c 3d7a ac3e de51 85bc b094 47be
000001c0: 0c3e 99bd 7e75 9cbb 620d b2bc f578 c3bd
000001d0: a1e8 963d 08eb 5b3e 85a5 c1bd 8bec 273e
000001e0: 3e88 4abe f8de 4abe ea8b d3bc f00f 2bbd
000001f0: 8da8 ef3d e1fc e03d 7f4a 503d cfaf b2bc
00000200: 7585 ebbd 7929 0a3d be56 0e3e 0743 d23c
00000210: 1ea1 ac3d 55fd 973d 1977 a4bd 95fb a9bd
00000220: f8cc d4bd 5e7e e9bd e682 97bb 1b42 3abe
00000230: 5289 ac3d f715 8a3d 539f 51bc d426 10be
00000240: 4532 ecb8 455c a8bd 6e92 873e 34cf ca3d
00000250: b285 88bd 9630 c93d 8a3b 3f3e 9d83 7e3d
00000260: 8153 383d b63b 773d a16c a23c a730 493e
00000270: 7cb4 88bd f98c febc 5cd0 eebc 7f63 59bd
00000280: 2107 56bc 568c a5bc ffbc a63a 6e8a 2cbe
00000290: 625b 133d 840e a13c e48c 1abe ed90 f2bc
000002a0: 091f 903d e928 a4bd 18df 6abe a8fb 193d
000002b0: 0a47 ddbc b43e 1ebd b5c4 ce3d 039b bcbd
000002c0: 0656 11be 15c7 43be d114 88bd 3594 27bd
000002d0: 00fe 6a3d 130b 70be de6b 4bbd efa0 f63d
000002e0: a101 ab3d 13b8 1abd c9ff a33e a16d 973d
000002f0: 645b 43bd 6c69 803c e5cb 0cbd 84ba 573d
00000300: fead 50bc 870d 513d 79a7 533c 2993 233e
00000310: a80f 773d 7344 89bd 46ae 2e3c 64d2 79bc
00000320: c3e6 273e d2fc c1bd 4d30 39bd faa5 a3bd
00000330: f9b4 983d de9a 0a3e d074 543d 0cc8 25bd
00000340: 90ec ae3d 69a5 763e 69a1 0ebe 0667 113e
00000350: b44c 31bc bac0 8f3c 2f61 b0bd 5010 72bd
00000360: acd9 513e e4ec 5bbd 7ab8 ef3d 66b2 2c3e
00000370: 77b7 d33c 8988 fb3d 418b 6c3d 894f 273e
00000380: f8f7 71be ff85 20bd 67b8 14be c3c5 323e
00000390: ce41 0d3e fac2 c7bd a571 47be c69f d13d
000003a0: e5a5 2cbd 7f88 50be 1f7d 57bd 72bf 24bd
000003b0: ff51 ee3c 160b 01be 8293 323d 2838 dc3c
000003c0: 96f1 023b 6e1b 12bc ed2a 53bd 8564 543d
000003d0: 2e88 2e3e a7b1 273d 2faa e73c 1c72 05be
000003e0: f5fd d13d a64b 9cba 6e1c 253e 4e1a 533e
000003f0: 7160 acbc 04f7 86bc 25a5 eb3c 8dfb 293d
-0.08431282 0.0051420853 -0.107920736 -0.07693798 -0.05877851 -0.15468836 -0.2158718 -0.08392422
0.0065561966 -0.035297908 -0.06254926 0.044681374 -0.06788254 -0.04673712 -0.08141317 -0.031189246
0.07848177 -0.17698291 0.24996372 0.085452974 0.14136417 -0.18782386 0.039177764 -0.035499424
0.09232087 0.08093738 0.023643741 -0.05608296 0.025740739 0.14405902 -0.01397633 0.117263645
0.14384611 0.11470939 -0.058522392 0.07335121 -0.04912834 0.030810295 -0.13649938 0.00831288
0.054132182 -0.065270826 -0.24448857 0.06991687 -0.031645007 0.03267147 -0.052370343 -0.054664515
-0.017312339 0.15357201 0.01442656 -0.07822925 -0.06333261 0.031938903 -0.115775175 0.07958077
-0.058508597 0.09712546 0.108715296 0.18820909 -0.0041212086 -0.06278218 0.088042304 -0.19255462
0.030145083 -0.011611906 -0.018590627 -0.19076228 0.06729849 -0.08615502 0.17914166 -0.0866509
-0.24467273 0.19463193 0.047042895 -0.14036952 -0.016140452 -0.07048389 0.05999605 0.14419144
-0.012107771 0.10532172 -0.08845668 0.058082115 -0.040052935 0.16686498 -0.047191024 0.12809889
-0.056610808 0.05640486 -0.08140501 0.0073468722 0.098463066 -0.13389197 0.05825198 0.03334338
0.25305757 -0.12967457 -0.0047048666 -0.01127471 -0.094093435 -0.11801076 0.16644637 -0.103832364
-0.3351126 0.008256803 0.025899712 -0.06866673 0.02239135 0.3368701 -0.016274389 -0.19490314
-0.074825376 -0.0047747483 -0.021734897 -0.09544555 0.07368589 0.21476376 -0.094553985 0.16398828
-0.19778535 -0.19811618 -0.025823552 -0.041763246 0.117020704 0.10985733 0.050852295 -0.021812348
-0.11500064 0.033730958 0.13900277 0.025666727 0.08429168 0.07421366 -0.080305286 -0.082999386
-0.10390657 -0.11401056 -0.0046237586 -0.1818928 0.08424629 0.06742471 -0.0127943335 -0.14077312
-0.0001126272 -0.08220724 0.26478904 0.09902802 -0.06666125 0.0982372 0.18675056 0.062137235
0.04500151 0.06035968 0.019827189 0.19647466 -0.0667505 -0.03107308 -0.029152088 -0.053073402
-0.013063223 -0.020208519 0.001272112 -0.16849682 0.03597582 0.019660242 -0.15092808 -0.029610122
0.070371695 -0.080156155 -0.22936666 0.037593514 -0.027011413 -0.038634017 0.10096113 -0.09209254
-0.14192972 -0.19118913 -0.066445954 -0.040912826 0.05737114 -0.23441724 -0.049663417 0.120424144
0.0834992 -0.037773203 0.32031086 0.07393957 -0.04769458 0.015675269 -0.034374136 0.05266811
-0.0127367955 0.05103829 0.012918347 0.15974106 0.060317665 -0.06702509 0.010661667 -0.015247915
0.16396622 -0.0947205 -0.04521208 -0.07990642 0.07456393 0.1353564 0.051869214 -0.040473983
0.085412145 0.24086536 -0.1392876 0.14199457 -0.01082151 0.017547954 -0.08612286 -0.059097588
0.20493191 -0.053692713 0.11705108 0.16864929 0.025844319 0.122819014 0.05774999 0.16338934
-0.23629749 -0.03919029 -0.14523469 0.17458253 0.13794634 -0.09753986 -0.19476946 0.102355525
-0.042150397 -0.20364569 -0.05260956 -0.04022164 0.029091833 -0.12601885 0.043597706 0.026882246
0.0019980422 -0.008917673 -0.05155461 0.051853675 0.17044136 0.040940907 0.028279392 -0.1303181
0.102535166 -0.00119244 0.16124126 0.20615503 -0.02104208 -0.016475208 0.02876527 0.041499663
