data/user_properties/trained_weights/CrabNet-ael_shear_modulus_vrh.pth (torch_old, 263425 bytes, 60 tensors)

prelu1.weight f4 [12]
0	0xbeae8dbf	-0.3409252
1	0x3e599bfa	0.21250907
2	0xbeb0715e	-0.34461492
3	0xbdef7e53	-0.11694016
4	0xbdf9c666	-0.121960446
5	0xbe0c5d8a	-0.13707557
6	0xbe133752	-0.14376572
7	0xbdddd6de	-0.10831998
8	0xbe079e48	-0.13243973
9	0xbdf49f81	-0.119444855
10	0xbe0c636f	-0.13709806
11	0xbe07336d	-0.13203211

fc1.weight f4 [64, 119]
0	0xbc1f7e3a	-0.009734685
1	0x3dd61367	0.104529195
2	0x3d8bbddd	0.06823323
3	0x3d681162	0.056657203
4	0xbcb67c70	-0.022276133
5	0x3dd5e1d5	0.10443465
6	0xbe423d7e	-0.1896877
7	0x3d377141	0.04478574
8	0x3be67d31	0.007033967
9	0x3ca02691	0.01954964
10	0x3de0f40e	0.1098405
11	0x3da93d5c	0.082636565
12	0x3cf4e80b	0.029895803
13	0x3d11c558	0.035588592
14	0x3c315b43	0.010824981
15	0xbc2069c4	-0.0097908415
16	0xbbcf2f93	-0.00632281
17	0x3e434881	0.19070627
18	0xbd442c0d	-0.047893573
19	0x3d97b8f6	0.074083254
20	0x3d2a5e51	0.041593853
21	0x3d1fefcb	0.039047044
22	0x3d4d09f4	0.05005832
23	0xbcb63123	-0.022240227
24	0xba7213a7	-0.0009234496
25	0xbaa02774	-0.0012218789
26	0xbcb0aed7	-0.021567745
27	0xbd099c60	-0.033596396
28	0xbc754a34	-0.014971305
29	0x3d83ef8c	0.06442174
30	0x3c8c926e	0.017159667
31	0xbd4986d8	-0.049200863
32	0xbc74c2e7	-0.014939046
33	0xbcd09d7f	-0.025465725
34	0xbbbfb0e9	-0.0058499468
35	0x3e44cc1e	0.1921849
36	0xbb90303b	-0.004400281
37	0x3d2f692b	0.042824905
38	0x3cb6efaf	0.022331087
39	0x3d5a863f	0.053350683
40	0x3e036afb	0.12833779
41	0xbd5cbd42	-0.053891428
42	0x3c358a8e	0.011080397
43	0x3d222157	0.039582577
44	0xbd851a93	-0.06499209
45	0xbd9557c0	-0.072921276
46	0x3d2240f1	0.039612714
47	0x3de1a22e	0.110172614
48	0x3ccccee1	0.025000991
49	0x3d2a592c	0.041588947
50	0x3e338288	0.17530262
51	0x3dbd4939	0.09242482
52	0xbb8a4fea	-0.0042209523
53	0x3d788556	0.060674034
54	0xbb9776d9	-0.004622322
55	0x3df7d82e	0.1210178
56	0x3d842a8b	0.06453427
57	0x3d7941c7	0.060853746
58	0x3c664688	0.014054902
59	0x3e189cf8	0.14903629
60	0xbb3477c2	-0.0027537202
61	0xbc8038f9	-0.015652167
62	0xbd167770	-0.036735
63	0x3db208ef	0.0869311
64	0x3dbe2f57	0.09286373
65	0x3d9381e8	0.07202512
66	0x3d105d1c	0.035245046
67	0x3d0b627b	0.034029465
68	0xbccc13cb	-0.024911782
69	0x3d24d112	0.040238447
70	0x3d852e16	0.06502931
71	0x3bcc26e7	0.0062302235
72	0x3d0ea818	0.034828275
73	0x3b848c19	0.0040450213
74	0xbd9ec038	-0.077515066
75	0xbcf40568	-0.029787734
76	0xbd799c88	-0.060940295
77	0xbdb9c7e6	-0.09071331
78	0xbd033722	-0.032035
79	0x3d5b650f	0.053563174
80	0x3e1007cf	0.14065479
81	0x3d1c959c	0.038228616
82	0x3d0a9f39	0.033843253
83	0x3c81bcb5	0.015837053
84	0xbd827ddf	-0.06371664
85	0x3d00def9	0.031462643
86	0xbd1b360a	-0.037893333
87	0xbddb80f9	-0.10717959
88	0x3cadaf44	0.021201737
89	0x3d4dece1	0.050274733
90	0x3e1c4bdc	0.15263313
91	0xbdad5768	-0.08463937
92	0xbc26e334	-0.010186005
93	0xbcebabad	-0.028768385
94	0x3e229e3e	0.15880677
95	0xbdef8c7e	-0.11696719
96	0x3cd5c822	0.026096407
97	0xbde8e37d	-0.11371515
98	0xbde475b7	-0.11155265
99	0xbc40010c	-0.011719
100	0xbc0d2fcb	-0.008617352
101	0x3d441c55	0.047878582
102	0xbd89d2c6	-0.06729655
103	0xbcefcc3f	-0.029272197
104	0xbdc119f5	-0.09428779
105	0xbc940606	-0.018069278
106	0xbcbcbe66	-0.023040008
107	0xbda30104	-0.07959178
108	0x3cf83ab2	0.030301426
109	0xbd32bd65	-0.043637652
110	0xbd67ece0	-0.056622386
111	0xbd8a9fa1	-0.06768728
112	0xbd64c224	-0.05584921
113	0xbd518a66	-0.051157378
114	0xbc758298	-0.014984749
115	0x3ce1c64d	0.027560377
116	0xbd1003b4	-0.03515978
117	0x3d2efd76	0.042722188
118	0x3e2da300	0.16956711
119	0x3d318446	0.043339036
120	0x3d21a892	0.0394674
121	0x3dac0ff3	0.084014796
122	0xbbc00b82	-0.005860747
123	0xbe1d560e	-0.15364859
124	0xbd4cb891	-0.049980704
125	0x3d2be93b	0.041970473
126	0x3cf54a37	0.029942615
127	0xbd3dbf4e	-0.04632502
128	0x3d008266	0.031374358
129	0xbcb9275c	-0.022601776
130	0x3d62df5e	0.0553888
131	0xbd5c5b3c	-0.053797945
132	0xbcb9cc1e	-0.022680338
133	0xbdb424e0	-0.08796096
134	0xbcd3ddf3	-0.02586267
135	0x3dc2e1ab	0.09515699
136	0x3cbd8517	0.023134751
137	0xbd62b98e	-0.05535274
138	0x3db028f3	0.086015604
139	0xbc4585c1	-0.012055815
140	0xbde0bac4	-0.10973123
141	0xbde72f26	-0.1128829
142	0xbd2c4c22	-0.042064793
143	0xbd0de072	-0.034637876
144	0x3d974bff	0.07387542
145	0xbd4a7500	-0.049427986
146	0xbcbb89d4	-0.02289287
147	0xbba13e1b	-0.0049207336
148	0xbcf13e25	-0.029448578
149	0xbcf49e30	-0.029860586
150	0x3c91438e	0.017732408
151	0xbd318fce	-0.043350033
152	0x3ddec89e	0.108781084
153	0x3e048aa0	0.12943506
154	0x3d94d7cc	0.072677225
155	0xbbfe37fe	-0.0077581396
156	0x3d0eef4b	0.034896176
157	0xbd5ffafa	-0.05468271
158	0xbe1270cd	-0.14300843
159	0xbe1e7efd	-0.1547813
160	0xbdb354be	-0.08756398
161	0xbdf4d90e	-0.119554624
162	0xbdc44393	-0.09583201
163	0xbd981360	-0.074255705
164	0xbd40bdbb	-0.04705594
165	0x3c356000	0.011070251
166	0x3d4896cd	0.04897194
167	0x3d9d1543	0.07670071
168	0x3d6bb407	0.057544734
169	0xb9095946	-0.00013098595
170	0x3d6a25a0	0.05716479
171	0x3dd66ab4	0.10469571
172	0x3d683de0	0.056699634
173	0x3d83f896	0.064438984
174	0x3d4d9da8	0.05019918
175	0x3cbe6625	0.023242066
176	0xbd6f77a2	-0.0584637
177	0xbd9a6adb	-0.07539912
178	0x3ddb24f4	0.107004076
179	0xbd1f14d9	-0.03883824
180	0xbd7e846d	-0.06213801
181	0xbda4383a	-0.08018537
182	0xbe28eb35	-0.16495974
183	0xbd86356c	-0.06553158
184	0xbdafa1ad	-0.08575759
185	0xbe021ced	-0.12706347
186	0xbdc526ee	-0.09626566
187	0xbe318328	-0.17335188
188	0x3d819ee4	0.06329134
189	0x3d1972e6	0.03746309
190	0xbd04a278	-0.032381505
191	0xbdc1bbaf	-0.09459626
192	0xbdbe5140	-0.09292841
193	0xbe2b6de5	-0.1674114
194	0xbd250382	-0.04028655
195	0xbd61eb12	-0.05515582
196	0xbd8595b8	-0.06522697
197	0x3a638af5	0.0008680069
198	0xbd0e687e	-0.03476762
199	0x3da5bdae	0.08092819
200	0x3c859b1e	0.016309317
201	0x3c3a5c50	0.011374548
202	0x3d8d3809	0.068954535
203	0x3ad04468	0.0015889527
204	0x3d789fbc	0.06069921
205	0x3d345582	0.04402686
206	0xb8a844ae	-8.023657e-05
207	0xbda96c3e	-0.08272599
208	0xbc6a19d0	-0.014288381
209	0xbddb43a7	-0.10706263
210	0x3e15fe81	0.14647867
211	0x3c441ea9	0.011970201
212	0xbaf348be	-0.0018561108
213	0xbe108b18	-0.1411556
214	0x3d73f7df	0.05956256
215	0x3c8681c0	0.016419291
216	0x3d8369b1	0.064166434
217	0x3d0d45e4	0.03449048
218	0xbc310124	-0.010803495
219	0x3da49b61	0.08037449
220	0xbcba393b	-0.022732368
221	0xbdaefec9	-0.0854469
222	0x3d0b22b9	0.03396866
223	0xbd582700	-0.05277157
224	0xbd33816b	-0.043824594
225	0xbdab012a	-0.083498314
226	0xbd925922	-0.07145907
227	0xbc12ec58	-0.008967482
228	0xbd4b0f41	-0.049575094
229	0x3d142409	0.03616718
230	0xbd5ed543	-0.0544026
231	0x3db06b4b	0.086142145
232	0x3db41f23	0.08795001
233	0xbbf8fb8d	-0.0075983466
234	0x3bb72fa9	0.0055903983
235	0x3cf60eed	0.030036414
236	0x38f4e89e	0.00011678155
237	0xbe08ff03	-0.13378529
238	0xbdb5fce8	-0.08886129
239	0xbbd42106	-0.0064736633
240	0x3dd1a0f7	0.1023578
241	0x3d9b51d7	0.07583969
242	0xbe82a6f0	-0.25517988
243	0xbc7096c5	-0.014684384
244	0x3d032238	0.032015055
245	0x3d74044c	0.05957441
246	0xbe13a6ad	-0.1441905
247	0x3cc2c5e9	0.023776012
248	0xbc9736c4	-0.018458731
249	0x3cfa41bc	0.030548923
250	0xbdd13321	-0.1021483
251	0x3c444e71	0.0119815925
252	0x3e036f14	0.12835342
253	0x3d87d0f5	0.06631652
254	0x3d19c2e5	0.03753938
255	0x3df549f5	0.11976997

fc1.bias f4 [64]
0	0xbd34e7e8	-0.044166476
1	0x3d83bb75	0.06432239
2	0x3cfecf7a	0.031104792
3	0x3c17b4c9	0.009259411
4	0xbe0b84a0	-0.13624811
5	0x3cfc5fd6	0.030807417
6	0x3cb680bc	0.022278182
7	0xbe1f9b69	-0.15586628
8	0xbcaeda0d	-0.02134421
9	0xbc255442	-0.010090889
10	0xbd11e500	-0.035618782
11	0xbb68d55a	-0.0035527558
12	0x3c8129a0	0.015766919
13	0x3c374332	0.011185454
14	0xbd314076	-0.043274365
15	0x3cd874ad	0.026422823
16	0x3b2ab0de	0.0026045362
17	0x3d5f03c7	0.05444696
18	0xbb259720	-0.002526708
19	0x3d85cc1f	0.06533074
20	0xbe070465	-0.1318527
21	0x3e0da01d	0.1383061
22	0xbd92b7af	-0.07163941
23	0x3b3f9608	0.0029233713
24	0x3cb7efcc	0.022453211
25	0xbca8a598	-0.020586774
26	0x3cb49a61	0.02204627
27	0xbc3959df	-0.011312931
28	0xbd946e48	-0.07247597
29	0x3bfaf736	0.0076588644
30	0xbd867eac	-0.065671295
31	0xbc1ddf4e	-0.0096357595
32	0x3d9d6d95	0.07686917
33	0xbc12019e	-0.008911518
34	0xbc9d33ce	-0.019189741
35	0xbc185299	-0.009297037
36	0xbd1fc34b	-0.039004605
37	0x3ccc6186	0.024948847
38	0x3cf5ac46	0.029989373
39	0x3b517780	0.0031962097
40	0x3cde0c83	0.027105575
41	0x3caa0ee6	0.020759057
42	0xbcc1c91f	-0.023655472
43	0xbd5d5ed7	-0.054045524
44	0x3a46d86d	0.00075853505
45	0x3bb83c04	0.005622389
46	0xbc081ca0	-0.008307606
47	0x3d929582	0.071574226
48	0xbd17aab1	-0.03702802
49	0xbbc36dfe	-0.00596404
50	0x3d33ddfd	0.043912876
51	0xbcf93a95	-0.030423442
52	0xbbe5408a	-0.006996219
53	0xbd80b7b4	-0.062850386
54	0x3e12e625	0.14345606
55	0x3d28f3aa	0.041248
56	0xbd9f7166	-0.07785301
57	0x3ce0a8af	0.027424185
58	0x3d176be2	0.03696812
59	0x3daeee23	0.08541515
60	0x3d0c8503	0.034306537
61	0x3c469deb	0.0121226115
62	0x3cefc66b	0.029269418
63	0xbce24d0b	-0.027624628

fc2.weight f4 [64, 64]
0	0xbd889bbb	-0.06670328
1	0x3dc4a215	0.09601227
2	0xbd86c72e	-0.06580959
3	0x3d3553d1	0.044269387
4	0x3c1bdcef	0.009513124
5	0x3d546041	0.051849607
6	0x3d97e887	0.07417398
7	0xbd8f5eb6	-0.070004866
8	0xbd2a7a88	-0.04162076
9	0xbcab7bf1	-0.020933123
10	0x3d8d9ad8	0.069143
11	0xbdd8fe80	-0.10595417
12	0x3d5807e5	0.052741904
13	0x3d1591bf	0.036515947
14	0xbe16995d	-0.14706941
15	0x3e014ee7	0.12627755
16	0xbc203a39	-0.009779506
17	0xbdda04f2	-0.106454745
18	0x3ca01985	0.019543419
19	0xbdfbbf48	-0.122923434
20	0xbe1bbe8f	-0.15209411
21	0xbdb05d74	-0.08611575
22	0x3e0e9b6d	0.13926478
23	0xbe1861cc	-0.14881057
24	0xbd8a866b	-0.067639194
25	0x3ddd2fd6	0.108001396
26	0x3c8efe5b	0.01745527
27	0x3cb19fcc	0.021682642
28	0x3cdd59aa	0.027020294
29	0x3c097c6b	0.00839148
30	0xbce52877	-0.027973397
31	0xbd9634c4	-0.07334283
32	0x3da1d23b	0.079014264
33	0x3cec89d1	0.02887431
34	0x3df963e2	0.12177254
35	0x3da85b72	0.08220567
36	0xbd244736	-0.040106975
37	0xbd072b2f	-0.033000167
38	0xbd763494	-0.060108736
39	0xbc1616bc	-0.009160694
40	0xbd95d2aa	-0.073155716
41	0x3df3e0fd	0.119081475
42	0x3c9aa55b	0.018877676
43	0x3de27083	0.11056616
44	0x3d830dec	0.0639914
45	0xbd39d781	-0.045371536
46	0x3c66f5d4	0.014096696
47	0x3c76cbdc	0.015063252
48	0xbda78113	-0.08178916
49	0x3d13d179	0.03608844
50	0xbd704d6b	-0.05866758
51	0x3de65c16	0.11248033
52	0x3cc3fd19	0.023924397
53	0x3e0d7b8f	0.13816665
54	0xbdc3c49a	-0.09558983
55	0xbc6adbb9	-0.0143346125
56	0x3dd8cb7a	0.10585685
57	0xbcea54f6	-0.028604966
58	0xbd718ef2	-0.058974214
59	0xbd945bb5	-0.07244054
60	0x3c209607	0.009801394
61	0x3bb89f67	0.0056342366
62	0x3b93edca	0.0045144306
63	0xbd11a669	-0.03555909
64	0xbd053545	-0.032521505
65	0xbc92907c	-0.017891161
66	0xbd59cf3e	-0.053176157
67	0x3ca5c8f7	0.020237429
68	0x3b8505db	0.004059536
69	0x3c9e9c05	0.019361505
70	0xbdf2c006	-0.11853032
71	0xbd6652db	-0.05623136
72	0xbd6f5916	-0.05843457
73	0x3dc77ad5	0.09740225
74	0xbda325f3	-0.079662226
75	0xbcc9dd47	-0.024641646
76	0x3dbc387e	0.091904625
77	0x3d09393c	0.03350185
78	0xbe2c8bec	-0.16850251
79	0x3e00d1f0	0.12580085
80	0xbcc80e5d	-0.024420911
81	0xbdbd8828	-0.09254485
82	0x3db4b341	0.088232525
83	0x3de9427b	0.11389633
84	0xbe323944	-0.17404658
85	0xbd9bd602	-0.07609178
86	0x3c925dd7	0.017867012
87	0xbdb85e01	-0.09002305
88	0xbd1599c9	-0.036523614
89	0x3d2267b3	0.039649677
90	0x3d5e7c14	0.05431755
91	0xbddd39f7	-0.108020715
92	0xba27be54	-0.00063989055
93	0xbc620515	-0.013795157
94	0xbddf7780	-0.10911465
95	0x3d8aa464	0.06769636
96	0xbd84de2a	-0.06487687
97	0x3db50f4e	0.0884081
98	0xbc82674d	-0.015918398
99	0x3df407d6	0.11915557
100	0xbc99836d	-0.018739427
101	0x3d43b3d8	0.047778934
102	0xbcea3271	-0.028588505
103	0xbdb9c574	-0.09070864
104	0x3d381bbb	0.04494832
105	0x3b842d38	0.004033711
106	0x3d11723c	0.035509333
107	0xbd850923	-0.06495883
108	0xbdc5e2e1	-0.09662414
109	0xbd340614	-0.04395111
110	0xbe4760a0	-0.19470453
111	0x3dcddd7f	0.10052013
112	0xbcccb91f	-0.024990616
113	0x3d5b2cab	0.053509396
114	0x3df45ea9	0.119321175
115	0xbc6217ef	-0.0137996515
116	0x3ab833fb	0.0014053577
117	0xbd75b928	-0.059991032
118	0x3c9c2c66	0.01906414
119	0xbd32da5b	-0.04366527
120	0x3e032cfb	0.12810127
121	0x3c5be5fc	0.013421532
122	0xbd9511b0	-0.07278764
123	0x3df20c83	0.11818793
124	0x3c912fa8	0.01772292
125	0x3b3f6a20	0.0029207543
126	0x3d9b301c	0.075775355
127	0xbde9b5b9	-0.11411614
128	0xbd4d6d6d	-0.050153185
129	0xbc81b04d	-0.015831137
130	0x3c54cda5	0.012988483
131	0x3d8e67e6	0.06953411
132	0x3cc87ce5	0.024473617
133	0xbe00d4e6	-0.12581214
134	0xbc008cb2	-0.007846044
135	0x3df2d341	0.118567
136	0xbdf0e3b2	-0.117621794
137	0x3d0cbbd8	0.03435883
138	0x3dceb504	0.1009312
139	0x3d993530	0.07480848
140	0x3d950626	0.07276563
141	0xbd078178	-0.033082455
142	0x3db72509	0.08942611
143	0xbde45ce5	-0.11150531
144	0x3de0c1d0	0.10974467
145	0xbc6bde4c	-0.014396261
146	0xbcdff8eb	-0.027340373
147	0x3db2dbd5	0.08733336
148	0x3ca81689	0.020518558
149	0x3df32f73	0.118742846
150	0xbe15c90a	-0.14627472
151	0x3e6ae473	0.22938709
152	0xbd139316	-0.036028944
153	0xbddfb24f	-0.109226815
154	0xbd81dd86	-0.0634108
155	0xbdbe6e79	-0.09298415
156	0xbcc139d6	-0.023587149
157	0xbc22dbb6	-0.0099400785
158	0xbdb3110e	-0.08743487
159	0x3dacd8ea	0.084398106
160	0xbd421a0b	-0.047388118
161	0xbdb87695	-0.09006993
162	0xbcd709d5	-0.026249805
163	0x3dd5b36b	0.10434612
164	0xbd5a76c6	-0.053335927
165	0xbdde3937	-0.108507566
166	0xbda07576	-0.07834904
167	0x3e03d82d	0.12875433
168	0xbd5e7f93	-0.054320883
169	0xbd4a06f0	-0.049323022
170	0xbe0deec3	-0.13860612
171	0x3ce9de85	0.028548488
172	0x3d8bdaf5	0.06828872
173	0x3c869659	0.016429113
174	0x3d8a43d6	0.0675122
175	0x3de6d5e3	0.112712644
176	0xbc6d9f50	-0.014503315
177	0x3e024fa4	0.12725693
178	0x3dbd3f2f	0.09240567
179	0x3d1e6b39	0.038676474
180	0x3c9fa24f	0.019486574
181	0x3cc9e11c	0.024643473
182	0x3c8e99d7	0.01740734
183	0xbdeb1783	-0.11479094
184	0xbdbc1052	-0.091828
185	0xbca2c203	-0.019867903
186	0xbda52cc6	-0.080651805
187	0x3d843a62	0.06456448
188	0xbdf407db	-0.11915561
189	0x3d748f27	0.059706833
190	0xbb837b20	-0.0040124804
191	0x3a33eee6	0.0006863907
192	0x3d0f8458	0.035038322
193	0xbd56fcbf	-0.05248713
194	0x3dea4f85	0.114409484
195	0x3d0250e3	0.03181542
196	0xbdd595b7	-0.104289465
197	0x3da4c34c	0.080450624
198	0xbd261559	-0.040547702
199	0x3cc69698	0.02424173
200	0x3d4ea6c2	0.050452
201	0x3dd73c7b	0.105095826
202	0xbde38095	-0.111085095
203	0xbd1fa308	-0.038973838
204	0xbdfd8cae	-0.12380348
205	0x3e11f346	0.14252958
206	0xbe0c0faa	-0.1367785
207	0x3bd71859	0.0065641818
208	0xbde313ed	-0.11087785
209	0xbca81c38	-0.020521268
210	0x3dca4682	0.098767295
211	0xbe01df15	-0.12682755
212	0xbdc31377	-0.09525197
213	0x3d65e213	0.056123804
214	0xbd4ff491	-0.050770346
215	0xbe4dd6c2	-0.20101455
216	0x3d587b10	0.052851737
217	0x3dbe7837	0.09300273
218	0x3d7de267	0.061983492
219	0xbdbd0816	-0.09230058
220	0x3e210f1f	0.15728424
221	0x3d0abc59	0.03387103
222	0x3d324b2a	0.043528713
223	0xbd79642b	-0.060886543
224	0x3df019da	0.11723681
225	0xbd15f899	-0.036614034
226	0xbdcad746	-0.099043414
227	0x3d7e47e5	0.062080283
228	0xbdba8f49	-0.09109361
229	0x3d566fad	0.052352596
230	0xbc134365	-0.008988236
231	0x3cbca048	0.023025647
232	0x3d84b6d5	0.06480185
233	0xbd197c85	-0.037472267
234	0x3d4f04ca	0.050541677
235	0x3dd7c33b	0.10535284
236	0x3c30e53c	0.010796841
237	0x3dee9fc7	0.11651569
238	0xbe355142	-0.17706779
239	0xbc8e99c4	-0.017407306
240	0xbd12778c	-0.03575854
241	0xbd862375	-0.06549732
242	0xbdc438ee	-0.09581171
243	0xb995496b	-0.00028474195
244	0xbdbe9632	-0.09305991
245	0xbdbf9d92	-0.09356226
246	0x3d5d83bd	0.054080714
247	0xbdc0f2d0	-0.09421313
248	0x3d80ab7a	0.062827066
249	0x3dc81a46	0.09770636
250	0x3d43cf99	0.047805402
251	0xbd1c1fe1	-0.03811634
252	0xbcdcecba	-0.026968349
253	0xbd02c47a	-0.031925656
254	0xbcaef178	-0.021355376
255	0xbabd0d37	-0.0014423494

fc2.bias f4 [64]
0	0x3ce2e6cc	0.027697943
1	0x3da905ba	0.082530454
2	0xbe0c1af3	-0.13682155
3	0xbd575741	-0.052573446
4	0xbe011ab8	-0.12607849
5	0x3d53e47f	0.051731583
6	0xbddf9cd4	-0.109185845
7	0xbd7e1c87	-0.062038925
8	0xbd098543	-0.033574354
9	0x3d274b3e	0.04084324
10	0xbd4ea210	-0.050447524
11	0x3da5b980	0.08092022
12	0x3da41d97	0.08013456
13	0x3c8612ff	0.01636648
14	0x3d5959f8	0.053064317
15	0x3d1e7c83	0.038692962
16	0xbd03e841	-0.032203916
17	0x3d7b94ae	0.06142109
18	0xbda8860a	-0.08228691
19	0x3cfb79f5	0.030697802
20	0x3d05c19a	0.032655336
21	0xbd85e40b	-0.06537636
22	0x3cd93d6f	0.026518552
23	0xbd35b1e0	-0.044359088
24	0xbdb16674	-0.086621195
25	0xbda412ff	-0.08011436
26	0x3cf02133	0.029312706
27	0x3b8a7c58	0.0042262487
28	0xbdbf9451	-0.09354461
29	0x39d71c3a	0.00041029026
30	0x3d979d61	0.074030645
31	0xbd18c7b1	-0.037299816
32	0x3c95a42a	0.018266756
33	0xbd81b075	-0.06332485
34	0xbe04a560	-0.1295371
35	0x3c699755	0.014257272
36	0xbc6d9747	-0.014501399
37	0x3a47e30a	0.0007625079
38	0xbc4d11f8	-0.012516491
39	0xbd7cc785	-0.061713714
40	0x3dd133d2	0.10214962
41	0xbd17a788	-0.037025005
42	0xbd4bc9a4	-0.049752846
43	0x3cb3e7fc	0.021961205
44	0xbda7a2d9	-0.081853576
45	0xbd9dcc33	-0.077049635
46	0xbcb41753	-0.021983778
47	0xbd5fce45	-0.054640073
48	0x3d6590b8	0.056046218
49	0x3c4d6c11	0.012537972
50	0x3d5a56df	0.053305503
51	0x3d5534c6	0.05205228
52	0x3e084480	0.1330738
53	0xbd23b071	-0.03996319
54	0xbe15d914	-0.1463359
55	0xbd6f8fc2	-0.058486708
56	0x3d8fad79	0.07015509
57	0x3ce979f9	0.028500544
58	0xbdea5cca	-0.11443479
59	0xbd22c997	-0.039743032
60	0xbb27ac63	-0.0025584928
61	0x3bb38883	0.00547892
62	0x3c256a4d	0.010096145
63	0x39e03b6c	0.00042768882

fc3.weight f4 [1, 64]
0	0x3d381bbd	0.04494833
1	0x3d5dbec0	0.05413699
2	0xbe026fb8	-0.1273793
3	0x3dab39a0	0.083606005
4	0xbcca34b9	-0.024683343
5	0x3d36cdf5	0.04463001
6	0xbdb12e5a	-0.08651419
7	0x39ff5045	0.00048697196
8	0xbd0abd7c	-0.033872113
9	0xbcafdf57	-0.021468801
10	0xbd1348db	-0.035958152
11	0xbcbff522	-0.023432318
12	0x3d5eb5f6	0.05437275
13	0x3d807598	0.06272429
14	0xbe12a4c1	-0.14320661
15	0xbdd6e7c7	-0.10493427
16	0xb71809d2	-9.0621925e-06
17	0x3e28b977	0.16476999
18	0x3ddde0c2	0.10833885
19	0xbd621af8	-0.0552015
20	0x3dc83408	0.09775549
21	0xbe0557cc	-0.13021773
22	0x3e170758	0.14748895
23	0xbe072855	-0.13198979
24	0x3c0512df	0.008122175
25	0xbd1a0f24	-0.037612095
26	0x3da76951	0.081743844
27	0xbcdb1793	-0.02674464
28	0xbd9f788c	-0.07786664
29	0xbe0e2d18	-0.1388439
30	0xbd9b2ed2	-0.0757729
31	0xbc8fcba1	-0.017553153
32	0x3db7eb3c	0.08980414
33	0xbe085b86	-0.13316163
34	0xbe134243	-0.14380746
35	0x3d979cdc	0.074029654
36	0xbbf386dc	-0.007431848
37	0xbd1ee807	-0.038795497
38	0xbdba24e0	-0.090890646
39	0xbb81d306	-0.0039619235
40	0xbc96f8d1	-0.018429192
41	0xb8b3e77e	-8.578504e-05
42	0xba3ade07	-0.00071284216
43	0x3df6eed0	0.120572686
44	0xbe002e3a	-0.12517634
45	0x3dc1fe6c	0.09472355
46	0x3dea7e3a	0.11449857
47	0x3db888c3	0.0901046
48	0xbcca3871	-0.024685116
49	0x3d521eb9	0.05129883
50	0xbe0214d9	-0.12703265
51	0xbe0e7351	-0.13911177
52	0x3d173086	0.03691151
53	0x3d772a96	0.060343347
54	0xbd66fff6	-0.056396447
55	0xbd5a0da8	-0.05323568
56	0xbe0b16fe	-0.1358299
57	0x3d23d3e9	0.039997015
58	0xbc046447	-0.008080549
59	0x3d2f8b42	0.042857416
60	0x3e0e5121	0.13898136
61	0x3c7f03c3	0.015564862
62	0x3caf9d75	0.021437386
63	0x3d3d7b8d	0.046260405

attentionblocks.0.layernorm0.weight f4 [64]
0	0x3f8105b4	1.0079865
1	0x3f75e26c	0.9604862
2	0x3f83d09c	1.0298038
3	0x3f8793c0	1.0591965
4	0x3f6b2174	0.9184792
5	0x3f8389bb	1.0276407
6	0x3f8873ad	1.0660301
7	0x3f720775	0.9454263
8	0x3f894ef7	1.0727223
9	0x3f81a627	1.0128831
10	0x3f85bdbb	1.0448526
11	0x3f8e1fe9	1.1103488
12	0x3f80baa5	1.0056959
13	0x3f86ba3a	1.0525582
14	0x3f80369d	1.0016667
15	0x3f83cc51	1.0296727
16	0x3f8e6e34	1.1127381
17	0x3f6f6ab1	0.93522173
18	0x3f87221d	1.0557286
19	0x3f795173	0.97389907
20	0x3f72bb29	0.94816834
21	0x3f6769ee	0.9039601
22	0x3f7384a6	0.9512428
23	0x3f8e7ddd	1.113216
24	0x3f8588b0	1.0432339
25	0x3f888bb9	1.066764
26	0x3f838379	1.0274497
27	0x3f7fa4d6	0.99860895
28	0x3f81cef9	1.0141288
29	0x3f77b8f8	0.96766615
30	0x3f7abd13	0.97944754
31	0x3f87d73f	1.0612563
32	0x3f6fe28d	0.93705064
33	0x3f85fdae	1.0468042
34	0x3f8cba19	1.0994292
35	0x3f8a9ac1	1.0828477
36	0x3f89fa13	1.0779442
37	0x3f80ddac	1.0067649
38	0x3f82880b	1.0197767
39	0x3f87012b	1.0547231
40	0x3f8935ed	1.0719582
41	0x3f89571a	1.0729706
42	0x3f74f64c	0.9568832
43	0x3f828fa7	1.0200089
44	0x3f895821	1.073002
45	0x3f89e180	1.0771942
46	0x3f8d111c	1.1020846
47	0x3f73ad40	0.95186234
48	0x3f89ea5e	1.0774648
49	0x3f8fa0b4	1.1220918
50	0x3f81c201	1.013733
51	0x3f83e558	1.0304365
52	0x3f8b3c1c	1.0877719
53	0x3f702484	0.9380572
54	0x3f6fdf39	0.93699986
55	0x3f818614	1.0119042
56	0x3f72e9ba	0.9488789
57	0x3f83ec14	1.030642
58	0x3f815733	1.0104736
59	0x3f72c83f	0.948368
60	0x3f7fa5c6	0.99862325
61	0x3f80f9c2	1.007622
62	0x3f818f0c	1.012178
63	0x3f7da079	0.99072987

attentionblocks.0.layernorm0.bias f4 [64]
0	0xbd8a886e	-0.06764303
1	0xbcf58d78	-0.029974684
2	0xbdb484e1	-0.08814407
3	0xbcd983ba	-0.02655207
4	0xbd5e20fd	-0.05423068
5	0xbd9a99fd	-0.07548902
6	0xbadde484	-0.0016929065
7	0xbd0f7c4c	-0.035030648
8	0x3a6416ec	0.00087009254
9	0x3c4eafdb	0.012615169
10	0xbb0cce02	-0.0021485095
11	0x3d147072	0.03624005
12	0xbbea2396	-0.0071453555
13	0x3d18ce2f	0.037306007
14	0x3d4c232d	0.049838234
15	0x3c8f50a8	0.017494515
16	0xbcb4e253	-0.022080576
17	0x3ca08a3b	0.019597163
18	0xbb782104	-0.0037861476
19	0x3c6bad49	0.014384576
20	0xbd28cea6	-0.0412127
21	0x3daa80be	0.08325337
22	0x3b3cb72b	0.00287957
23	0xbd231e78	-0.03982398
24	0x3d24ae46	0.040205263
25	0x3c9fe50f	0.019518403
26	0x3c05b075	0.008159746
27	0x3cda1409	0.026620882
28	0xbca877b6	-0.020564895
29	0xbc6c3831	-0.014417694
30	0xbc95777d	-0.018245453
31	0xbdcddfbb	-0.10052439
32	0xbd65364f	-0.055959996
33	0xbc719eb4	-0.01474731
34	0xbc377670	-0.011197671
35	0xbd3704af	-0.0446822
36	0x3cb5d5be	0.022196647
37	0xbb5be162	-0.0033551087
38	0x3cc396db	0.023875644
39	0xbd3d3d3a	-0.04620097
40	0x3bf13d7f	0.0073620672
41	0x3c46c729	0.012132444
42	0xbd3c6db9	-0.046003077
43	0xbbf78e77	-0.007554825
44	0x3d421c05	0.047390003
45	0xbcc23a5c	-0.023709469
46	0xbc3b234e	-0.0114219915
47	0x3d979c24	0.07402828
48	0x3d37604b	0.044769567
49	0x3c52b027	0.012859381
50	0x3d27705c	0.04087864
51	0xbc7b0766	-0.015321588
52	0xbcc7343e	-0.024316903
53	0xbd218cff	-0.039441105
54	0x3c71c4d4	0.0147564
55	0x3a94bd63	0.0011347946
56	0xbca36e03	-0.019949919
57	0x3cd1ddf5	0.025618533
58	0x3b30ee83	0.0026997633
59	0x3cf85868	0.030315593
60	0x3d2a3105	0.041550655
61	0xb9867b3c	-0.00025650288
62	0xbcbd3870	-0.0230982
63	0xbcdacc89	-0.026708858

attentionblocks.0.layernorm1a.weight f4 [64]
0	0x3f73a45f	0.95172685
1	0x3f83445c	1.0255237
2	0x3f8241c0	1.0176315
3	0x3f830d3d	1.0238415
4	0x3f7442cf	0.9541444
5	0x3f7c3789	0.9852224
6	0x3f846ede	1.0346334
7	0x3f6ce897	0.92542404
8	0x3f84e821	1.038334
9	0x3f81ad7c	1.0131068
10	0x3f82b08f	1.0210131
11	0x3f893454	1.0719094
12	0x3f8265e1	1.0187341
13	0x3f8a2547	1.0792626
14	0x3f87b31c	1.0601535
15	0x3f7d4f98	0.98949575
16	0x3f948cab	1.1605428
17	0x3f779f31	0.9672728
18	0x3f8387d6	1.0275829
19	0x3f75bc5c	0.9599054
20	0x3f6c03d6	0.92193353
21	0x3f73bc64	0.95209336
22	0x3f71e644	0.9449198
23	0x3f846238	1.0342474
24	0x3f7aa391	0.9790583
25	0x3f74a273	0.9556038
26	0x3f877bb7	1.058463
27	0x3f838383	1.0274509
28	0x3f7817c1	0.96911246
29	0x3f7e6749	0.9937635
30	0x3f70aa66	0.9401001
31	0x3f897493	1.0738701
32	0x3f642564	0.89119554
33	0x3f81fd41	1.0155412
34	0x3f896449	1.073373
35	0x3f895f90	1.0732288
36	0x3f846295	1.0342585
37	0x3f849e9f	1.0360907
38	0x3f82d8f8	1.0222464
39	0x3f8080f8	1.0039358
40	0x3f87ce28	1.0609789
41	0x3f8bb47b	1.0914453
42	0x3f775460	0.9661312
43	0x3f6b5069	0.9191957
44	0x3f81f7f0	1.015379
45	0x3f8505ab	1.0392355
46	0x3f87e52e	1.0616815
47	0x3f833409	1.0250255
48	0x3f76ac6e	0.96356857
49	0x3f923a5e	1.1424062
50	0x3f810360	1.0079155
51	0x3f84fecf	1.0390261
52	0x3f833950	1.0251865
53	0x3f79edc8	0.9762845
54	0x3f75cd3a	0.96016276
55	0x3f829745	1.0202414
56	0x3f6dec31	0.92938524
57	0x3f81bc8f	1.0135669
58	0x3f85b96c	1.0447211
59	0x3f77d824	0.9681418
60	0x3f80f1ad	1.0073754
61	0x3f7dc76a	0.99132407
62	0x3f844c81	1.0335847
63	0x3f79377c	0.9735029

attentionblocks.0.layernorm1a.bias f4 [64]
0	0x3d3e668b	0.04648451
1	0xbcbd29bb	-0.023091188
2	0xbbc57c62	-0.0060267905
3	0xbd1d5758	-0.038413376
4	0x3d1e23ec	0.038608477
5	0xbbe78804	-0.007065775
6	0xbcfed512	-0.03110746
7	0x3d71b9f0	0.059015214
8	0x3cf6f8ab	0.030147871
9	0xbce34837	-0.027744396
10	0x3d6c4fbb	0.057693224
11	0x3c4ab50d	0.012372267
12	0xbc89b266	-0.0168087
13	0x3c026796	0.007959267
14	0x3d1d5feb	0.038421553
15	0xbc94d5dc	-0.018168382
16	0xbcdd7e49	-0.027037757
17	0x3aeb40a9	0.0017948347
18	0xba461c52	-0.00075573206
19	0xbc853e43	-0.01626504
20	0x3d281eb2	0.0410449
21	0xbb40f7a3	-0.0029444478
22	0x3d785d0c	0.06063561
23	0xbc7dea4d	-0.015497756
24	0xbcb2c53d	-0.021822566
25	0x3c8903e5	0.01672549
26	0x3c2c49e2	0.010515662
27	0x3ba99d62	0.005176232
28	0x3b93e42b	0.0045132837
29	0xbcd52321	-0.026017727
30	0x3d1be2d4	0.038058117
31	0xbc3a8cb5	-0.011386086
32	0xbc69504b	-0.014240335
33	0x3c617b7b	0.01376235
34	0xba3c992d	-0.0007194456
35	0x3cab17e5	0.020885417
36	0xbcb290aa	-0.021797497
37	0x3c26af3a	0.010173613
38	0xbc9057f7	-0.01762007
39	0x3bac5725	0.005259412
40	0xbb707bb5	-0.003669483
41	0x3c264a40	0.0101495385
42	0x3c8adf7a	0.016952265
43	0x3c95ef44	0.018302567
44	0x3cf755b3	0.030192232
45	0xbb6e80ca	-0.0036392682
46	0x3d801d51	0.06255592
47	0xbc9baa75	-0.019002179
48	0x3cba0d25	0.022711346
49	0x3d0b48c9	0.03400496
50	0xbbd69903	-0.006549002
51	0xbaf5be6d	-0.0018748768
52	0x3c87c8f4	0.016575314
53	0x3c029d63	0.007972094
54	0xbcd63781	-0.026149513
55	0xbc8b8f0a	-0.01703598
56	0x3d27e127	0.040986206
57	0xbca17042	-0.019706849
58	0xbc8fa1c6	-0.017533194
59	0xbd325e89	-0.043547187
60	0xbd049952	-0.03237278
61	0xbaccabfe	-0.0015615223
62	0xbcdd877c	-0.027042143
63	0x3ce0712c	0.027397715

attentionblocks.0.layernorm1b.weight f4 [64]
0	0x3f757dfc	0.9589536
1	0x3f86152c	1.0475211
2	0x3f86520a	1.0493786
3	0x3f7fa228	0.99856806
4	0x3f80facd	1.0076538
5	0x3f86700e	1.0502946
6	0x3f8bbbdd	1.0916706
7	0x3f7fa4f2	0.9986106
8	0x3f86af6a	1.0522282
9	0x3f811f29	1.0087634
10	0x3f71886f	0.94348806
11	0x3f8f2bde	1.1185262
12	0x3f827dd7	1.0194653
13	0x3f89d5d9	1.0768386
14	0x3f7f0fef	0.9963369
15	0x3f77294a	0.9654738
16	0x3f8c3f6e	1.0956857
17	0x3f8aa76b	1.0832342
18	0x3f8d736b	1.1050848
19	0x3f88a97d	1.0676724
20	0x3f80f6cc	1.0075316
21	0x3f92676e	1.1437814
22	0x3f83927a	1.0279076
23	0x3f718721	0.94346815
24	0x3f83f80b	1.0310072
25	0x3f8186b2	1.0119231
26	0x3f7ddace	0.99161994
27	0x3f92e5f1	1.1476423
28	0x3f8817be	1.0632246
29	0x3f883ba5	1.0643202
30	0x3f75444c	0.9580734
31	0x3f874c44	1.057015
32	0x3f85b916	1.0447109
33	0x3f81c483	1.0138096
34	0x3f7daf16	0.99095285
35	0x3f7c632c	0.98588824
36	0x3f807427	1.0035447
37	0x3f85ad5e	1.0443532
38	0x3f8cd9d1	1.1003972
39	0x3f7fefd5	0.9997533
40	0x3f840d17	1.0316495
41	0x3f8184f5	1.01187
42	0x3f872f79	1.0561363
43	0x3f85ff7b	1.0468591
44	0x3f8961c9	1.0732967
45	0x3f7f9fd7	0.9985327
46	0x3f812879	1.0090476
47	0x3f8eb7ad	1.1149803
48	0x3f817666	1.0114257
49	0x3f8322f9	1.0245048
50	0x3f853214	1.0405908
51	0x3f8777ca	1.0583432
52	0x3f8ce638	1.1007757
53	0x3f808117	1.0039395
54	0x3f865c7d	1.0496975
55	0x3f8ad627	1.0846604
56	0x3f815225	1.0103194
57	0x3f821224	1.0161786
58	0x3f81a0d5	1.0127207
59	0x3f88aa94	1.0677056
60	0x3f8243e8	1.0176973
61	0x3f863846	1.0485923
62	0x3f7e3cdd	0.9931162
63	0x3f7f8ece	0.9982728

attentionblocks.0.layernorm1b.bias f4 [64]
0	0x3b21f956	0.0024715266
1	0xbbb36b9d	-0.005475475
2	0xbd02a968	-0.03189984
3	0xbb9ff568	-0.0048815496
4	0x3c5603e7	0.013062454
5	0x3b9d4ab5	0.0048001655
6	0x3ad2c53f	0.0016080512
7	0x3bdd9c58	0.0067630224
8	0xbc270371	-0.010193692
9	0xbc286c91	-0.0102797905
10	0x3d30245d	0.04300343
11	0x3bc7705e	0.0060863933
12	0x3b322554	0.0027182894
13	0x3d01562d	0.031576324
14	0x3c831cd0	0.01600495
15	0xbcb4735f	-0.02202767
16	0xbc1456e7	-0.009053922
17	0x3c7d75a8	0.015469946
18	0xbc5d33e2	-0.013501139
19	0xbbb46ee6	-0.005506384
20	0xbc7783f8	-0.015107147
21	0x3bb60bd9	0.0055556116
22	0xbc93ecfe	-0.018057343
23	0x3cb4db2a	0.022077162
24	0xbc38c182	-0.011276605
25	0x3cc9944a	0.024606843
26	0xbca956f3	-0.020671343
27	0x3cfddf55	0.030990282
28	0x3af7dd24	0.001891051
29	0xbcd63d64	-0.02615232
30	0x3b924aee	0.0044644987
31	0xbd761ac5	-0.060084123
32	0x3b975220	0.0046179444
33	0xbca988b6	-0.020695072
34	0xbc10c3fa	-0.008835787
35	0xbc4b1c69	-0.01239691
36	0x3c5f44e9	0.013627269
37	0x3c862410	0.016374618
38	0x3d04d80a	0.032432593
39	0xbc4f0335	-0.012635042
40	0xbb4c3dfb	-0.0031164873
41	0xbc6718af	-0.014105006
42	0xbc99b5aa	-0.018763382
43	0xb940a187	-0.0001837072
44	0x3ba87083	0.0051403656
45	0x3ba44b0d	0.0050138296
46	0x3d022b6c	0.03177969
47	0xbcd9a150	-0.026566178
48	0xbac5aa3e	-0.0015080643
49	0x3c4b0f03	0.012393716
50	0xbc7a076d	-0.0152605595
51	0x3d40e350	0.047091782
52	0xbcee0f8e	-0.029060151
53	0x3cfee4c9	0.031114953
54	0xb629c4a9	-2.5297434e-06
55	0x3d4e3401	0.050342564
56	0x3a27934b	0.0006392493
57	0xb9684d5d	-0.00022154064
58	0xbcaefe80	-0.02136159
59	0xbb180561	-0.0023196565
60	0xbcb81c50	-0.022474438
61	0xbadadab8	-0.0016697263
62	0xbc7b5eb3	-0.015342402
63	0x3c897b11	0.016782315

attentionblocks.0.layernorm2a.weight f4 [64]
0	0x3f7b155b	0.9807946
1	0x3f83375f	1.0251273
2	0x3f80682b	1.003179
3	0x3f7cbe9d	0.9872835
4	0x3f7fc9e5	0.9991744
5	0x3f81985b	1.012462
6	0x3f870798	1.0549192
7	0x3f77b9d8	0.9676795
8	0x3f8163e3	1.0108608
9	0x3f7995f5	0.9749444
10	0x3f77f9db	0.96865624
11	0x3f8de448	1.1085291
12	0x3f835d90	1.0262928
13	0x3f7f580c	0.99743724
14	0x3f789333	0.9709961
15	0x3f7b0a3c	0.9806249
16	0x3f815e23	1.0106853
17	0x3f847529	1.0348254
18	0x3f84bcf6	1.0370166
19	0x3f815cd4	1.0106454
20	0x3f7950c1	0.97388846
21	0x3f7b8cc4	0.98261666
22	0x3f79653e	0.9742011
23	0x3f86d57e	1.0533903
24	0x3f85ae90	1.0443897
25	0x3f848c0e	1.0355241
26	0x3f7a31e0	0.97732353
27	0x3f84ff9c	1.0390506
28	0x3f8190e5	1.0122343
29	0x3f7a3753	0.9774067
30	0x3f76a7fe	0.96350086
31	0x3f87ff4c	1.0624785
32	0x3f8101f6	1.0078723
33	0x3f8691ea	1.051328
34	0x3f80ce8d	1.0063034
35	0x3f80942f	1.0045222
36	0x3f814988	1.0100565
37	0x3f834b84	1.025742
38	0x3f878d16	1.0589931
39	0x3f863f7c	1.0488124
40	0x3f81aed9	1.0131484
41	0x3f80eb80	1.0071869
42	0x3f746458	0.9546561
43	0x3f84d547	1.0377587
44	0x3f83feac	1.0312095
45	0x3f809262	1.0044672
46	0x3f829225	1.020085
47	0x3f7b3e1f	0.98141664
48	0x3f7ca96d	0.98696023
49	0x3f71081b	0.9415299
50	0x3f7e2686	0.9927753
51	0x3f7e3638	0.9930148
52	0x3f843e6d	1.0331551
53	0x3f841713	1.0319542
54	0x3f6827bf	0.9068565
55	0x3f8674e5	1.0504423
56	0x3f79221a	0.9731766
57	0x3f7f2ad5	0.9967473
58	0x3f708265	0.93948966
59	0x3f801bd4	1.0008492
60	0x3f7b43d8	0.98150396
61	0x3f86c378	1.0528402
62	0x3f816dcc	1.0111632
63	0x3f8028de	1.0012472

attentionblocks.0.layernorm2a.bias f4 [64]
0	0x3c1ff6ee	0.0097634625
1	0xbc49a8f9	-0.012308353
2	0xbcf88c48	-0.030340329
3	0xbb3ebd40	-0.00291045
4	0x3ca9b5fb	0.020716658
5	0x3c2cda6c	0.010550123
6	0xbb967ca5	-0.0045924955
7	0x3c89db20	0.01682812
8	0xbc0b6cbc	-0.008509811
9	0xbc0a1833	-0.008428621
10	0x3d5162a8	0.051119477
11	0x3c0a3760	0.008436054
12	0xba97ea07	-0.0011590131
13	0x3c96f9db	0.018429687
14	0x3c41aafb	0.01182055
15	0xbcdbd5ad	-0.026835287
16	0xbbae783a	-0.0053243907
17	0x3c6e0f2a	0.014529983
18	0xbc7209ca	-0.014772842
19	0xbbf935c8	-0.007605288
20	0xbc5d1aa5	-0.013495122
21	0x3b27c4e9	0.0025599545
22	0xbc2339c3	-0.009962502
23	0x3c56430b	0.013077508
24	0xbc4694e9	-0.012120464
25	0x3cbcd339	0.023049938
26	0xbcafdbb1	-0.021467062
27	0x3cfe9413	0.031076467
28	0x3c609ea0	0.013709694
29	0xbc94ebd3	-0.018178856
30	0x3c6ec598	0.014573477
31	0xbd62ccf1	-0.05537123
32	0xbb6a40cf	-0.0035744195
33	0xbc87bcd4	-0.016569532
34	0xbaf62a95	-0.0018781001
35	0xbbd7ff0a	-0.0065916823
36	0x3c84bee1	0.0162043
37	0x3c719fb2	0.014747547
38	0x3d0f8e73	0.03504796
39	0xbc718016	-0.014740011
40	0xbb910047	-0.004425082
41	0xbc4814bb	-0.012211974
42	0xbcf50076	-0.029907446
43	0x3cd67f89	0.02618386
44	0x3be05e87	0.006847206
45	0x3bf4667f	0.0074585075
46	0x3cea8123	0.02862603
47	0xbcf020a0	-0.029312432
48	0xba4fa7c1	-0.00079214206
49	0x3c622351	0.013802365
50	0xbcc03b2c	-0.023465715
51	0x3d357ee5	0.04431047
52	0xbcf82147	-0.030289305
53	0x3cfc521e	0.030800875
54	0x3a0f7cc2	0.00054736075
55	0x3d80dd4f	0.06292211
56	0x3a91e625	0.001113121
57	0x3a6b2736	0.00089703815
58	0xbc9545f5	-0.018221835
59	0xbac5f79c	-0.00151037
60	0xbccc483f	-0.024936793
61	0x3ba9ec2f	0.005185626
62	0xbcbe9f86	-0.023269426
63	0x3c78cdf1	0.015185819

attentionblocks.0.layernorm2b.weight f4 [64]
0	0x3f7fcaa8	0.99918604
1	0x3f80e21a	1.0069001
2	0x3f8ae1f1	1.0850202
3	0x3f7710f5	0.9651025
4	0x3f7d1dcd	0.988736
5	0x3f881681	1.0631868
6	0x3f81df86	1.0146339
7	0x3f77c113	0.9677898
8	0x3f8343f6	1.0255115
9	0x3f784698	0.9698272
10	0x3f7883d9	0.97076184
11	0x3f832892	1.0246756
12	0x3f752de4	0.9577315
13	0x3f79e4cf	0.9761476
14	0x3f7bbdc6	0.98336446
15	0x3f8051a1	1.0024911
16	0x3f89f43d	1.0777661
17	0x3f809402	1.0045168
18	0x3f83b537	1.0289677
19	0x3f99e1f8	1.2022085
20	0x3f7eec02	0.9957887
21	0x3f656167	0.8960175
22	0x3f7a3d29	0.97749573
23	0x3f76ca6f	0.9640264
24	0x3f7c6c15	0.9860242
25	0x3f6a053c	0.9141424
26	0x3f7a9f68	0.97899485
27	0x3f797e22	0.9745809
28	0x3f8d5286	1.1040809
29	0x3f7d8a65	0.990393
30	0x3f8247aa	1.017812
31	0x3f828342	1.0196307
32	0x3f7ec0a0	0.9951267
33	0x3f74367f	0.95395654
34	0x3f8d30d4	1.1030526
35	0x3f924085	1.142594
36	0x3f7fb4ea	0.9988543
37	0x3f6e76bc	0.93149924
38	0x3f862bab	1.0482076
39	0x3f61deac	0.88230395
40	0x3f7d7431	0.9900542
41	0x3f795af1	0.9740439
42	0x3f81a830	1.0129452
43	0x3f810ea3	1.0082592
44	0x3f84c968	1.0373964
45	0x3f7852c3	0.97001284
46	0x3f8acca5	1.0843703
47	0x3f8aece4	1.0853543
48	0x3f71fbda	0.9452492
49	0x3f72fec5	0.9492
50	0x3f81b936	1.0134647
51	0x3f86b698	1.0524473
52	0x3f80ae36	1.0053165
53	0x3f7f6354	0.9976094
54	0x3f898762	1.074444
55	0x3f8f2d14	1.1185632
56	0x3f85c68d	1.0451218
57	0x3f80cdcb	1.0062803
58	0x3f7f11b7	0.99636406
59	0x3f8a4baf	1.0804347
60	0x3f857ddc	1.0429034
61	0x3f7e4a29	0.9933191
62	0x3f85b194	1.0444818
63	0x3f722dd0	0.94601154

attentionblocks.0.layernorm2b.bias f4 [64]
0	0xbcbe6a40	-0.023244023
1	0xbd0a6b0a	-0.033793487
2	0xbe06738c	-0.13130015
3	0xbc84e1fe	-0.016221043
4	0x3c342612	0.010995405
5	0xbcfbc716	-0.03073458
6	0xbce26396	-0.027635377
7	0x3cc5b809	0.024135606
8	0xbc7bb43b	-0.0153627945
9	0xbd850bb0	-0.0649637
10	0xbcc78cb2	-0.024359081
11	0xbd2cd62c	-0.042196438
12	0x3c486dcc	0.012233209
13	0xbd5d6830	-0.05405444
14	0xbd7d3a62	-0.061823256
15	0xbcb7205b	-0.022354295
16	0xbd71c8ed	-0.05902951
17	0xbd618e95	-0.055067617
18	0xbd6616ad	-0.05617397
19	0xbe2f05cd	-0.17092057
20	0xbda8fa13	-0.08250823
21	0xbd28324a	-0.041063584
22	0xbd1ae727	-0.0378181
23	0xbcd24b74	-0.025670744
24	0xbc47d836	-0.012197545
25	0xbd897227	-0.06711226
26	0x3d057230	0.0325796
27	0xbcc36086	-0.023849737
28	0xbe896b72	-0.26839787
29	0xbe125af6	-0.14292511
30	0xbc50e703	-0.01275039
31	0x3be7da21	0.0070755635
32	0xbd2cbd4e	-0.042172723
33	0xbd956503	-0.07294657
34	0xbe296dd0	-0.16545796
35	0xbe0efe7c	-0.13964266
36	0xbd28eb7e	-0.041240208
37	0xbd773cad	-0.0603606
38	0xbce05857	-0.027385874
39	0xbd35da22	-0.04439748
40	0xbc80bfb7	-0.015716417
41	0xbd8d7326	-0.069067284
42	0xbd9a1911	-0.07524312
43	0xbd545c67	-0.051845934
44	0xbd805559	-0.06266279
45	0x3be311be	0.0069296053
46	0xbd977a60	-0.07396388
47	0xbd924b4c	-0.07143268
48	0xbdd3a69f	-0.10334515
49	0xbc9a78bb	-0.018856397
50	0xbd5c15e3	-0.05373181
51	0xbe1193cf	-0.14216541
52	0xbc6801fc	-0.014160629
53	0xbd6b6809	-0.057472263
54	0xbd8c5574	-0.068522364
55	0xbe280173	-0.16406803
56	0xbe0a86c5	-0.13527973
57	0xbd2f79bd	-0.042840708
58	0xbd881d90	-0.066462636
59	0xbe081b15	-0.13291581
60	0xbd51ef9a	-0.051253892
61	0xbb304bd1	-0.002690066
62	0xbc474619	-0.012162709
63	0xbd58b87e	-0.05291032

attentionblocks.0.fc_q_list.0.weight f4 [16, 64]
0	0xbdb645b5	-0.08900014
1	0xbe0ba5e2	-0.13637498
2	0xbe0b1e80	-0.13585854
3	0x3e17140b	0.1475374
4	0xbdac42ae	-0.08411156
5	0x3e348d2f	0.17631982
6	0x3d43e935	0.047829825
7	0xbe397bfb	-0.18113701
8	0x3dbda5f4	0.09260169
9	0x3d95d97d	0.07316873
10	0x3c46a108	0.012123354
11	0x3e72b7ce	0.23702928
12	0xbcae1c2f	-0.021253673
13	0xbdbe3b7d	-0.0928869
14	0x3d8d7af9	0.06908221
15	0x3d202fda	0.039108135
16	0x3e056616	0.13027224
17	0x3dd5a1d3	0.10431256
18	0xbdefc73d	-0.117079236
19	0xbe0de1ca	-0.13855663
20	0xbc8d6c01	-0.017263414
21	0x3d8bffc7	0.06835895
22	0x3de21c29	0.110405274
23	0xbc9dc814	-0.019260444
24	0x3c9bab3b	0.019002547
25	0x3a8363ee	0.0010024288
26	0xbba18f4e	-0.0049304133
27	0xbd4c8347	-0.049929883
28	0xbd8651aa	-0.06558545
29	0xbd42725c	-0.047472343
30	0x3df08170	0.11743438
31	0x3e254636	0.16140065
32	0x3dbe9558	0.09305829
33	0x3db747a8	0.08949214
34	0x3d187832	0.037224002
35	0xbe1242bb	-0.14283268
36	0x3e17eb85	0.14835937
37	0xbcf4e827	-0.029895855
38	0x3d5b2508	0.053502113
39	0xbd879063	-0.066193365
40	0xbd9a8325	-0.07544545
41	0x3c4d0b7f	0.012514948
42	0xbe2160fb	-0.15759651
43	0xbd3fc10e	-0.04681497
44	0x3e978ba7	0.29598734
45	0xbc9e30f0	-0.019310445
46	0xbd364514	-0.04449947
47	0x3e29d6d0	0.1658585
48	0x3df60d19	0.12014217
49	0xbe8b81da	-0.27247506
50	0x3de14181	0.10998822
51	0x3cf3689f	0.029712973
52	0x3dd4b06d	0.10385213
53	0xbc11ff2c	-0.008910935
54	0xbdd2d8e4	-0.10295275
55	0x3cb914f3	0.022592997
56	0x3df98360	0.12183261
57	0x3ea06aad	0.31331387
58	0xbdd9035a	-0.105963424
59	0x3e1b26b0	0.15151477
60	0x3d0ed775	0.034873445
61	0x3d007667	0.031362917
62	0xbd98df1f	-0.07464432
63	0xba37cf45	-0.00070117816
64	0xbc14d8af	-0.0090848645
65	0xbdcebd82	-0.100947395
66	0xbcae958a	-0.02131154
67	0xbc38eac8	-0.011286445
68	0xbe6a1463	-0.2285934
69	0xbd4de87d	-0.050270546
70	0x3d4c9e5c	0.04995571
71	0xbde21947	-0.110399775
72	0x3de6c5e0	0.112682104
73	0x3cefb96b	0.029263219
74	0x3aa8c7bd	0.001287691
75	0x3e225b11	0.15855052
76	0xbe2fa943	-0.17154412
77	0x3d6b96db	0.057516914
78	0xbd768c06	-0.06019213
79	0xbde414fc	-0.11136815
80	0xbe0491c2	-0.12946227
81	0x3e4e00df	0.2011752
82	0xbdbf7f0e	-0.09350406
83	0xbd3126f2	-0.04325003
84	0xbe1dc42d	-0.15406866
85	0x3dfbab08	0.12288481
86	0x3d15b2ab	0.036547344
87	0xbe207f04	-0.15673453
88	0xbe15aa71	-0.146158
89	0xbe0566af	-0.13027452
90	0xbd9253d2	-0.07144894
91	0x3e3ce49a	0.1844658
92	0xbe04ac9d	-0.12956472
93	0xbd9e0d97	-0.07717436
94	0xbc36d3b7	-0.011158875
95	0x3d508bc3	0.050914537
96	0xbdbfd13e	-0.09366082
97	0xbe0aeb38	-0.13566291
98	0xbd1b9fe7	-0.03799429
99	0xbce4a23a	-0.027909387
100	0x3dbc332a	0.09189446
101	0xbdb55974	-0.088549525
102	0x3c058b12	0.008150833
103	0xbd9aa4b4	-0.07550946
104	0x3ceb1acd	0.028699303
105	0xbbe3c7b0	-0.006951295
106	0xbe044287	-0.12916003
107	0x3d24738f	0.040149268
108	0x3d8eaf76	0.0696706
109	0xbe51f882	-0.20504954
110	0xbe87a61d	-0.26493922
111	0x3c889462	0.016672317
112	0x3e5db006	0.21649179
113	0x3e074a30	0.13211894
114	0x3e34e48f	0.17665313
115	0xbda71415	-0.08158127
116	0x3dc1eb10	0.09468663
117	0xbdfc3d96	-0.12316434
118	0x3ca3e49f	0.020006476
119	0xbd824ae6	-0.06361942
120	0x3d32abaf	0.04362076
121	0x3df74187	0.12073045
122	0x3df98a91	0.121846326
123	0x3e06c840	0.13162327
124	0xbd01ef9f	-0.03172266
125	0xbcd283fc	-0.0256977
126	0x3dfc186b	0.12309345
127	0xbe3369fc	-0.17520899
128	0x3db9ae4c	0.090664476
129	0x3da7107e	0.081574425
130	0xbdd34aac	-0.10316977
131	0x3d7e95cb	0.062154572
132	0x3db494dc	0.08817455
133	0x3d561e83	0.052275192
134	0x3b57485f	0.0032849533
135	0xbd8496bc	-0.06474063
136	0xbe199e79	-0.15001859
137	0xbdc75ff3	-0.09735098
138	0xbed33510	-0.4125142
139	0x3d65f44b	0.05614118
140	0x3e3705ec	0.17873353
141	0x3e973ea0	0.29539967
142	0x3d9d32d7	0.076757126
143	0x3e285542	0.16438773
144	0x3d35904d	0.04432707
145	0xbe2fe857	-0.17178474
146	0x3c5fe3d3	0.013665157
147	0x3e2f9bb5	0.17149241
148	0x3c721e6e	0.014777763
149	0xbd2171ea	-0.039415278
150	0x3e439734	0.19100648
151	0x3e59881d	0.2124333
152	0xbd602d11	-0.05473048
153	0xbbd30fd8	-0.0064410977
154	0xbe04efbf	-0.12982081
155	0xbe8f3ef1	-0.27977708
156	0xbc85edcc	-0.016348742
157	0xbc101389	-0.00879372
158	0xbdc28869	-0.094986744
159	0xbd084c9c	-0.033276185
160	0x3c8b1e39	0.016982185
161	0xbe0ac564	-0.13551861
162	0x3e5f89ce	0.21829912
163	0xbe2620e1	-0.1622348
164	0x3e7ac762	0.24490121
165	0x3e3fe39a	0.18739167
166	0xbe11531f	-0.14191864
167	0xbce594e2	-0.028025094
168	0x3e442afb	0.19157021
169	0xbe7fadad	-0.24968596
170	0x3d63065a	0.05542598
171	0xbe087873	-0.13327198
172	0xbe880405	-0.26565567
173	0x3da3d7df	0.080001585
174	0x3d62a202	0.055330284
175	0xbcc2d7f4	-0.023784615
176	0x3cd21c3f	0.025648234
177	0xbd60624c	-0.054781243
178	0x3cf7804f	0.03021255
179	0xbc07884d	-0.008272243
180	0x3dd17155	0.102266945
181	0x3d2efcfd	0.042721737
182	0x3e18c1ca	0.14917675
183	0x3eaf6b1d	0.34261408
184	0x3ced8da3	0.028998202
185	0xbcc16ee4	-0.023612447
186	0xbeb5b64d	-0.35490647
187	0xbd45be19	-0.048276994
188	0xbc4ebfaa	-0.012618938
189	0x3e6340ef	0.22192739
190	0xbcf3a2e5	-0.02974076
191	0xbd6ed005	-0.05830385
192	0xbe140fbe	-0.1445913
193	0x3dae6904	0.08516124
194	0x3c6a865f	0.014314263
195	0x3e11e200	0.14246368
196	0xbd87741e	-0.066139445
197	0x3dcbf159	0.09958143
198	0x3c12467a	0.008927936
199	0xbe6433ab	-0.22285335
200	0xbe7daa1a	-0.2477192
201	0x3e531286	0.20612535
202	0xbc6c4ede	-0.0144231
203	0xbd9d0e80	-0.07668781
204	0x3cd8e27e	0.026475187
205	0x3c5a843e	0.013337193
206	0xbac8047c	-0.0015260126
207	0x3d573dd5	0.052549202
208	0xbdefe882	-0.11714269
209	0x3d9247d6	0.07142608
210	0xbc17c795	-0.009263893
211	0x3d7510d7	0.059830513
212	0xbe023c82	-0.12718394
213	0x3c5015b1	0.012700484
214	0xbd190a3e	-0.037363283
215	0xbd1ce7d5	-0.03830703
216	0x3e0a2e45	0.13494213
217	0xbd509b66	-0.05092945
218	0x3e3678c0	0.178195
219	0xbd04b898	-0.032402605
220	0xbd6a8097	-0.05725154
221	0x3e0ab41e	0.13545272
222	0xbdabb38b	-0.083838545
223	0xbe0049b6	-0.12528118
224	0xbdbac2b9	-0.09119172
225	0xbdf2c75f	-0.11854433
226	0x3e1a9ccd	0.15098877
227	0xbde50fd8	-0.111846626
228	0xbd486677	-0.048925843
229	0xbd390e6a	-0.045179762
230	0x3e05d995	0.13071282
231	0x3d01a675	0.031652886
232	0x3b8400f2	0.004028433
233	0x3de8e4ca	0.11371763
234	0xbc6ea985	-0.014566784
235	0x3d99be44	0.075069934
236	0x3e334206	0.17505655
237	0x3d71ebd8	0.05906281
238	0x3c8bd2d1	0.017068299
239	0x3c0533d9	0.008130037
240	0xbe4f4acf	-0.20243381
241	0xbdbe615c	-0.092959136
242	0x3de3f181	0.111300476
243	0x3da44117	0.080202274
244	0xbd393ce1	-0.045224074
245	0x398c93e9	0.00026813083
246	0x3d56159b	0.0522667
247	0x3e0b2046	0.1358653
248	0xbcbd5a04	-0.023114212
249	0x3de62704	0.112379104
250	0x3e3cb708	0.18429196
251	0xbca89bef	-0.020582167
252	0x3da3b8b4	0.07994214
253	0xbd8039d5	-0.062610306
254	0x3d43d489	0.04781011
255	0xbd1f7d69	-0.03893796

attentionblocks.0.fc_q_list.1.weight f4 [16, 64]
0	0xbcf94f96	-0.030433457
1	0x3dd8c6cd	0.10584793
2	0xbbf0c12f	-0.007347248
3	0xbc903ea0	-0.017607987
4	0x3c294a2c	0.010332625
5	0xbd3cb3cc	-0.046069905
6	0xbd78dd6e	-0.060758047
7	0xbe27678b	-0.16348092
8	0xbdef6025	-0.1168826
9	0xbdd0a444	-0.10187581
10	0xbe027fe8	-0.12744105
11	0xbe1404b3	-0.14454918
12	0x3dfbbe5c	0.122921675
13	0x3c05b1d4	0.008160073
14	0xbdb1abcf	-0.08675348
15	0x3ebb8596	0.36625355
16	0x3c0a9f94	0.008460898
17	0x3e3a6a6f	0.18204664
18	0x3c05f74f	0.008176639
19	0x3b3be75f	0.0028671843
20	0x3e32ab2b	0.17448108
21	0x3e039401	0.12849428
22	0x3e0f9aa2	0.14023831
23	0x3da771cd	0.08176003
24	0xbe0d488b	-0.13797204
25	0x3e124f0e	0.1428797
26	0xbd9d4b76	-0.07680409
27	0xbe0fda0e	-0.14048025
28	0xba6d95d2	-0.00090631575
29	0x3e2467ed	0.1605527
30	0x3be1d78b	0.00689215
31	0x3dae6a8e	0.085164174
32	0x3e88bd55	0.2670695
33	0xbd44ab72	-0.048015065
34	0x3c965842	0.018352631
35	0xbe19d768	-0.15023577
36	0x3cd9cef2	0.026587937
37	0xbdabd5a2	-0.083903566
38	0x3df634b9	0.12021775
39	0xbe745afb	-0.23862831
40	0x3d6fbcc7	0.05852964
41	0x3e26bf5b	0.16283934
42	0xbcd110a5	-0.025520632
43	0xbe521ec4	-0.20519549
44	0x3d51530b	0.051104587
45	0xbe8e29d6	-0.27766293
46	0x3cb323b5	0.021867612
47	0x3e2316c4	0.15926653
48	0x3d182eda	0.037154056
49	0x3e83bb0a	0.25728637
50	0x3d9286cd	0.071546175
51	0xbc893328	-0.016748026
52	0x3e49434b	0.19654576
53	0x3d823da1	0.06359411
54	0xbcc93774	-0.024562575
55	0xbd4bb9eb	-0.049737852
56	0xbde3b946	-0.111193225
57	0xbda46867	-0.08027726
58	0x3dd63425	0.104591645
59	0x3d92cc84	0.071679145
60	0x3d395566	0.045247458
61	0x3d4bb523	0.049733292
62	0x3d3b4fe4	0.045730487
63	0x3e0868b0	0.13321185
64	0x3db5d5d1	0.08878673
65	0x3dec29dd	0.11531422
66	0x3e010c28	0.12602293
67	0xbc7fdb3f	-0.015616237
68	0x3c7c85f9	0.015412801
69	0x3e546e2c	0.20745152
70	0x3e35a8ab	0.17740123
71	0xbe37785d	-0.17917009
72	0xbe562ae4	-0.20914799
73	0x3ea6829a	0.32521516
74	0xbe466838	-0.19375694
75	0xbd2427f0	-0.04007715
76	0xbd85d542	-0.06534816
77	0xbd6ae2d8	-0.05734524
78	0xbe284e77	-0.16436182
79	0x3e29b703	0.1657372
80	0x3dfb7996	0.1227905
81	0x3e18cfe1	0.1492305
82	0x3e060e0e	0.13091299
83	0xbd4d6f27	-0.05015483
84	0x3df76fdc	0.12081882
85	0x3d5ca5a7	0.053868916
86	0x3d3b20ee	0.0456857
87	0x3c0f3b3c	0.00874215
88	0x3dd6f6c9	0.10496289
89	0xbe21c295	-0.15796883
90	0x3d959256	0.07303302
91	0x3c95466b	0.018222054
92	0xbdf20781	-0.118178375
93	0xbe0deab6	-0.13859066
94	0xbda14873	-0.07875147
95	0x3d00ee84	0.031477466
96	0xbd94cad9	-0.072652526
97	0x3d71375f	0.058890697
98	0xbc26b31a	-0.010174537
99	0x3ddef6d5	0.10886923
100	0x3d7fdd55	0.062466938
101	0x3b525510	0.0032094158
102	0x3d3e556d	0.046468187
103	0xbceb783f	-0.028743861
104	0x3da9b58f	0.08286583
105	0xbe0d2f0e	-0.13787481
106	0x3da3a166	0.07989769
107	0xbcf1d0eb	-0.029518565
108	0xbcb71f05	-0.022353658
109	0x3e17deb4	0.14831048
110	0xbe8f2d4c	-0.27964246
111	0xbd5226f0	-0.051306665
112	0xbd8a15d5	-0.067424454
113	0xbe1d045f	-0.15333699
114	0xbd94944d	-0.07254849
115	0x3dec526f	0.115391605
116	0xbd9dce58	-0.077053726
117	0x3d9882d9	0.07446832
118	0x3d3e6017	0.046478357
119	0x3dd97065	0.10617141
120	0xbd78b98f	-0.060723837
121	0xbd92eb3c	-0.07173774
122	0xbd56205b	-0.05227695
123	0x3ca84c2d	0.020544136
124	0x3d970ca3	0.07375457
125	0xbd5a48db	-0.053292137
126	0x3e107baf	0.14109682
127	0x3cdf0802	0.027225498
128	0x3e08fec4	0.13378435
129	0xbdfa1a88	-0.12212092
130	0x3c4eb5e9	0.012616613
131	0x3cd6951e	0.026194151
132	0x3d52282c	0.051307842
133	0x3d909a1a	0.070606425
134	0xbe396cca	-0.18107906
135	0x3e20ed45	0.15715511
136	0x3e782cd7	0.24235855
137	0xbe4ab2c7	-0.1979476
138	0x3e14f655	0.14547093
139	0x3d1231c8	0.035692006
140	0x3c6fb61b	0.01463082
141	0xbe27b89b	-0.16379015
142	0x3cd99108	0.026558414
143	0xbeaaab1a	-0.33333665
144	0x3c494580	0.0122846365
145	0xbe09fded	-0.13475771
146	0xbce0f048	-0.027458325
147	0xbe100eaf	-0.14068101
148	0x3b1c66ab	0.0023864906
149	0x3d1871bc	0.03721784
150	0xbde546c0	-0.11195135
151	0x3b982bf9	0.004643914
152	0x3dc2880c	0.09498605
153	0xbe05ef43	-0.13079552
154	0xbd27761a	-0.040884115
155	0xbc94165c	-0.018077068
156	0x3d7c189d	0.06154691
157	0x3d937d5f	0.07201647
158	0x3daf4901	0.08558846
159	0xbc6d3498	-0.014477871
160	0xbd199ff8	-0.037506074
161	0xbe474f42	-0.19463828
162	0x3e0910c4	0.13385302
163	0xbd24972f	-0.040183242
164	0x3bf7a457	0.0075574326
165	0xbd620c54	-0.05518754
166	0xbd9fe717	-0.07807749
167	0x3cd5f506	0.026117813
168	0xbe616cfa	-0.22014228
169	0xbdc074b3	-0.093972586
170	0xbde46c79	-0.11153502
171	0xbda294b2	-0.07938518
172	0x3e5c73b2	0.2152851
173	0x3b675275	0.003529695
174	0xbe0d9452	-0.13826111
175	0xbd0c3f54	-0.034240082
176	0x3e5699cd	0.20957108
177	0xbcf503a1	-0.029908957
178	0xbd83287a	-0.06404205
179	0x3c0196f2	0.007909523
180	0xbe2bb7a4	-0.16769272
181	0x3cb3c6e2	0.02194542
182	0xbc91ca9e	-0.01779681
183	0xbdfab7aa	-0.122420624
184	0x3dd4fcda	0.1039979
185	0x3ce8dfe6	0.028427076
186	0xbd659aa1	-0.05605567
187	0x3d58ca45	0.052927274
188	0xbd8d5472	-0.06900872
189	0x3d977abc	0.073964566
190	0x3c283e68	0.010268785
191	0x3e67fec1	0.22655775
192	0x3dd7ea9a	0.105427936
193	0x3d7bcf5b	0.061477046
194	0x3d77479b	0.060371023
195	0xbd07c0ff	-0.03314304
196	0xbd6f9c0e	-0.058498435
197	0xbe4812d7	-0.19538437
198	0xbbabc744	-0.00524226
199	0xbe8051e2	-0.25062472
200	0xbe1cfc30	-0.15330577
201	0x3dc01ace	0.093801126
202	0xbdff5532	-0.124674216
203	0x3c90424f	0.017609743
204	0x3d86449b	0.06556054
205	0xbe12b875	-0.14328177
206	0xbe40f9d7	-0.18845306
207	0x3e8763d2	0.26443344
208	0xbdf71a05	-0.1206551
209	0xbc7746a7	-0.015092528
210	0xbdd80eb2	-0.10549678
211	0xbdb07250	-0.086155534
212	0xbdaf8e03	-0.085720085
213	0x3dd12040	0.10211229
214	0xbc9cbf05	-0.019134054
215	0x3db94cf5	0.090478815
216	0x3cfed6f0	0.03110835
217	0x3d879526	0.06620245
218	0xbd2dab0e	-0.04239946
219	0xbd293c17	-0.04131707
220	0xbcfc5ad6	-0.030805033
221	0x3b5341e2	0.0032235314
222	0xbd96cc26	-0.07363157
223	0xbe1bf334	-0.15229493
224	0x3e88d682	0.26726156
225	0xbc4a04ab	-0.0123302145
226	0xbe831fee	-0.25610298
227	0x3dd550e0	0.10415816
228	0xbe536ce7	-0.20647012
229	0xbde35986	-0.111010596
230	0x3d86e6c6	0.06586985
231	0x3dc97bc4	0.098380595
232	0x3d61015c	0.054932937
233	0x3e0062fa	0.12537757
234	0x3d3b617a	0.045747258
235	0xbd747a73	-0.05968709
236	0xbd95110c	-0.07278642
237	0xbe8e3cc1	-0.27780727
238	0x3b84e4f4	0.0040556137
239	0x3e060043	0.13086037
240	0xbe704500	-0.23463821
241	0xbb231a01	-0.0024887326
242	0xbdad537c	-0.08463189
243	0x3cabe3f2	0.020982716
244	0x3e4d5daf	0.20055269
245	0xbc447b4b	-0.011992286
246	0x3e11e3a6	0.14246997
247	0xbdddce9b	-0.108304225
248	0xbe163a4b	-0.14670675
249	0x3da9fe06	0.08300404
250	0x3df9ae9c	0.12191507
251	0xbd323cd7	-0.043515053
252	0x3d652447	0.0559428
253	0x3de2148c	0.11039075
254	0xbb36bb51	-0.0027882645
255	0xbc868b0c	-0.016423725
