data/user_properties/trained_weights/CrabNet-ael_bulk_modulus_vrh.pth (torch_old, 263425 bytes, 60 tensors)

prelu1.weight f4 [12]
0.010367608 -0.37388036 -0.112538114 0.12566307 0.13274573 0.12832445 0.11131399 0.12506486
0.11305034 0.11741382 0.120236985 0.12399279
00000000: e6dc 293c 3f6d bfbe 627a e6bd d2ad 003e
00000010: 7fee 073e 7c67 033e 97f8 e33d 0111 003e
00000020: f086 e73d a876 f03d cf3e f63d efef fd3d

fc1.weight f4 [64, 119]
0.124489956 -0.13755438 0.118227124 0.09174481 -0.120808944 -0.00069914665 -0.0021936905 -0.008489064
-0.048879474 -0.00066435174 0.0322396 0.061961036 0.05184109 -0.045376655 -0.18468273 -0.025673153
-0.016735855 -0.029866915 0.1222651 0.11472694 0.3209178 0.006155542 -0.02942177 0.01923466
-0.19096456 0.052326784 -0.07004154 -0.007158262 -0.018976927 0.04532166 0.027411647 -0.014096753
-0.015615203 0.04290078 0.010545738 0.05759535 0.08371322 0.07904208 0.09764853 0.014556867
-0.103988945 0.009847329 0.010568788 -0.046986826 0.011368167 -0.0052789217 -0.076504976 0.066767246
0.06786268 0.005649072 0.0036263426 0.05049272 -0.0007859468 0.11328751 0.091362946 0.0953324
0.15292388 0.043320548 0.033836957 0.02332777 0.035563402 0.11192171 0.012201444 0.01424694
0.009793183 0.040376734 0.04370427 0.048266754 -0.00801353 -0.036213998 0.16487098 0.07186874
0.003178603 -0.053371668 0.0500214 0.02142984 0.072443075 0.01597755 0.0051177745 0.088456996
0.034983795 0.14795403 -0.0153589845 0.0852943 0.11172126 0.033568263 -0.01429958 0.10597788
0.07366983 0.07891816 0.0030663023 -0.0335378 -0.012591008 0.048107333 0.16002971 -0.003288433
0.05769777 0.092217125 0.10183236 0.04726241 0.08214805 -0.028365392 -0.0018368171 0.03980676
0.13010387 0.09261384 0.059327718 0.13394497 -0.007671884 0.06656735 0.020407427 0.12663765
0.02862085 0.039086364 0.005650657 0.070295304 0.021249456 0.120022595 0.10682232 -0.08465707
0.041021217 0.060858037 -0.076696515 0.14178081 -0.03395907 0.04390633 0.008740286 0.022585157
0.047685225 0.026529258 0.033723895 0.061900355 0.036174096 0.042864803 -0.13842754 0.049380276
-0.006891673 -0.078559056 0.0841609 -0.045967348 0.13087758 -0.005148223 -0.008126815 -0.00966214
0.054360628 0.03871877 0.036533296 -0.0050012865 -0.23020573 -0.0991413 -0.02593014 -0.05322771
-0.24559774 0.0047141616 0.023823725 -0.01233171 0.043242738 -0.009805577 0.17342758 0.1130231
0.032631814 -0.20952941 0.017590111 0.09207499 -0.0022320063 -0.11902475 -0.068525165 -0.07920618
-0.0016760038 -0.02105716 -0.07981955 -0.019040115 0.06022118 -0.036344573 0.068734236 0.047048304
0.18416575 0.06190243 0.083718315 0.012428561 -0.09433219 -0.019418437 -0.033305805 0.058295943
0.060223572 0.14533749 0.08761505 0.15252271 -0.034076706 0.0873439 -0.012743972 0.036041807
0.0020993042 -0.05370835 -0.06391644 0.032214534 -0.037893675 0.008243457 0.047892172 0.07018782
-0.10259903 0.027941149 0.0073814783 0.037771475 -0.018267866 -0.06987378 -0.0779033 0.023813602
-0.10412207 0.19720745 -0.10159317 0.29457098 -0.07994248 -0.08837872 -0.100289255 -0.061554465
-0.11709124 -0.0932108 -0.053703655 -0.011290378 -0.0768456 -0.08428908 0.04606783 -0.06803819
0.027042888 0.015690008 -0.07649952 -0.011499956 -0.051720332 0.004129126 0.013294858 0.045333724
-0.09549348 0.02383576 0.021204975 -0.10497054 -0.06376186 -0.020024072 0.057143584 -0.02211128
-0.091198534 -0.060456518 0.0023671791 -0.011831445 -0.0835667 0.043055415 -0.035350334 -0.032030474
-0.010133235 -0.03007191 -0.018064816 0.009484636 -0.06143344 0.14527726 -0.021107309 -0.055286393
00000000: 97f4 fe3d 0edb 0cbe 1021 f23d b4e4 bb3d
00000010: ae6a f7bd f046 37ba 05c4 0fbb b715 0bbc
00000020: d835 48bd e427 2eba ac0d 043d dbca 7d3d
00000030: 5357 543d dfdc 39bd 781d 3dbe 8150 d2bc
00000040: a219 89bc 76ab f4bc 2066 fa3d f5f5 ea3d
00000050: 564f a43e 6eb4 c93b ec05 f1bc 0192 9d3c
00000060: 378c 43be 9c54 563d f071 8fbd db8f eabb
00000070: 8075 9bbc 34a3 393d 648e e03c 11f6 66bc
00000080: e9d6 7fbc bab8 2f3d 08c8 2c3c 1ae9 6b3d
00000090: d671 ab3d d0e0 a13d f4fb c73d ed7f 6e3c
000000a0: 28f8 d4bd b156 213c b628 2d3c 4275 40bd
000000b0: 8c41 3a3c cefa acbb a4ae 9cbd 44bd 883d
000000c0: 97fb 8a3d da1b b93b efa7 6d3b 74d1 4e3d
000000d0: ff07 4eba 4803 e83d 7f1c bb3d a23d c33d
000000e0: 1498 1c3e e370 313d 9f98 0a3d e119 bf3c
000000f0: eeaa 113d 3637 e53d 91e8 473c ff6b 693c
00000100: 9673 203c 1362 253d 4003 333d 5cb3 453d
00000110: 2e4b 03bc 2155 14bd f0d3 283e eb2f 933d
00000120: 1c50 503b 409c 5abd 3de3 4c3d a28d af3c
00000130: 095d 943d 5ae3 823c 01b3 a73b f128 b53d
00000140: 2b4b 0f3d 4381 173e 40a4 7bbc c7ae ae3d
00000150: 1ece e43d e07e 093d c948 6abc ee0a d93d
00000160: 35e0 963d d89f a13d 04f4 483b ef5e 09bd
00000170: 844a 4ebc 320c 453d d4de 233e c082 57bb
00000180: 7f54 6c3d 55dc bc3d 7c8d d03d 3b96 413d
00000190: 3d3d a83d 8a5e e8bc 5bc1 f0ba 6a0c 233d
000001a0: f339 053e 53ac bd3d 9f01 733d df28 093e
000001b0: 6d64 fbbb 7654 883d 7a2d a73c 4dad 013e
000001c0: 4676 ea3c 0619 203d 2629 b93b fcf6 8f3d
000001d0: 5713 ae3c 68ce f53d a9c5 da3d b060 adbd
000001e0: dd05 283d 4746 793d 1013 9dbd fd2e 113e
000001f0: aa18 0bbd 20d7 333d 6b33 0f3c 8204 b93c
00000200: 9551 433d e353 d93c 1122 0a3d 3a8b 7d3d
00000210: 4a2b 143d 0193 2f3d f3bf 0dbe f942 4a3d
00000220: 8bd3 e1bb 92e3 a0bd 8d5c ac3d 4248 3cbd
00000230: c604 063e 6db2 a8bb 5526 05bc f44d 1ebc
00000240: 40a9 5e3d 9397 1e3d f0a3 153d d5e1 a3bb
00000250: 0dbb 6bbe 980a cbbd 726b d4bc 4d05 5abd
00000260: f97d 7bbe 4179 9a3b f929 c33c f10a 4abc
00000270: 4c1f 313d 92a7 20bc 0097 313e a878 e73d
00000280: f0a8 053d e18e 56be 2319 903c d091 bc3d
00000290: da46 12bb 40c3 f3bd ec56 8cbd da36 a2bd
000002a0: 5bad dbba 1180 acbc 6f78 a3bd 04fa 9bbc
000002b0: 7caa 763d 0cde 14bd 89c4 8c3d b9b5 403d
000002c0: f295 3c3e 678d 7d3d 8274 ab3d 2aa1 4b3c
000002d0: 3c31 c1bd 6a13 9fbc ab6b 08bd bac7 6e3d
000002e0: feac 763d 5ad3 143e 856f b33d ea2e 1c3e
000002f0: 0494 0bbd 5ce1 b23d 18cc 50bc 93a0 133d
00000300: 7b94 093b 49fd 5bbd 9fe6 82bd 63f3 033d
00000310: 6636 1bbd 910f 073c 952a 443d a2be 8f3d
00000320: 711f d2bd d6e4 e43c 54e0 f13b 43b6 1a3d
00000330: 7ea6 95bc fc19 8fbd c48b 9fbd be14 c33c
00000340: f43d d5bd c0f0 493e 1410 d0bd 02d2 963e
00000350: e2b8 a3bd e7ff b4bd 7464 cdbd 8920 7cbd
00000360: 88cd efbd 4ee5 bebd 5df8 5bbd 47fb 38bc
00000370: 3a61 9dbd c19f acbd 9fb1 3c3d 9b57 8bbd
00000380: 0c89 dd3c 5588 803c c8ab 9cbd 506a 3cbc
00000390: b3d8 53bd 9f4d 873b add2 593c dbaf 393d
000003a0: 1692 c3bd 3643 c33c 0eb6 ad3c cbfa d6bd
000003b0: 9495 82bd 8609 a4bc 640f 6a3d b722 b5bc
000003c0: 4cc6 babd 41a1 77bd ad22 1b3b add8 41bc
000003d0: 0525 abbd e05a 303d 83cb 10bd 6332 03bd
000003e0: de05 26bc 5e59 f6bc aafc 93bc 7265 1b3c
000003f0: a1a1 7bbd 90c3 143e 3ce9 acbc fc73 62bd

fc1.bias f4 [64]
0.0044457484 -0.005478057 0.062793866 -0.024547618 -0.058892194 0.0830183 -0.008908811 0.045216415
-0.13600059 -0.026621621 -0.029924577 0.042500895 -0.008666688 0.012433279 -0.10321277 -0.027487995
0.02226135 0.015119773 0.10492897 -0.0024610646 -0.02250525 0.06131379 0.0011279399 0.0168328
-0.054270197 -0.0050783944 0.04368798 0.04502752 0.01981908 0.031758916 -0.04342747 -0.002801517
0.008862454 -0.027948337 -0.043131597 -0.10579986 -0.013320806 0.006766946 0.0076248175 -0.0030146418
-0.05622829 0.008701229 0.011832833 -0.05038865 0.00085893326 0.042695552 -0.004081932 0.056122262
0.017063087 0.015837168 -0.036128003 -0.0031199013 0.0076869815 -0.023703549 0.0034526554 -0.06505753
0.008003951 0.020329975 -0.012442877 -0.00034841403 0.008365834 0.0020528324 -0.1086098 -0.01945337
00000000: a4ad 913b 4681 b3bb 129a 803d 1618 c9bc
00000010: f138 71bd 8005 aa3d 43f6 11bc d934 393d
00000020: bd43 0bbe 9615 dabc 6324 f5bc 6b15 2e3d
00000030: b9fe 0dbc f4b4 4b3c 3761 d3bd 812e e1bc
00000040: 6f5d b63c edb8 773c 00e5 d63d d049 21bb
00000050: ee5c b8bc 2b24 7b3d 62d7 933a f1e4 893c
00000060: 6d4a 5ebd a968 a6bb 2bf2 323d c76e 383d
00000070: a05b a23c a315 023d 01e1 31bd a899 37bb
00000080: d433 113c e9f3 e4bc c2aa 30bd 99ad d8bd
00000090: 833f 5abc 42bd dd3b 9bd9 f93b 4c91 45bb
000000a0: a34f 66bd 998f 0e3c 80de 413c 5464 4ebd
000000b0: 092a 613a 88e1 2e3d bac1 85bb 75e0 653d
000000c0: e3c7 8b3c f3bc 813c f5fa 13bd 4277 4cbb
000000d0: 13e3 fb3b f22d c2bc f245 623b e23c 85bd
000000e0: 0123 033c 0c8b a63c 35dd 4bbc 57ab b6b9
000000f0: da10 093c d088 063b d16e debd ac5c 9fbc

fc2.weight f4 [64, 64]
0.014298535 0.03445481 -0.076050945 0.040412683 0.07833702 0.034980696 -0.01992219 0.02409337
-0.061105043 0.039820734 -0.05323011 0.05492382 0.07160712 -0.002402846 0.09741783 -0.09394086
0.05849096 -0.12203632 -0.10617497 0.023179282 -0.07973557 -0.0004049052 0.08782845 -0.07864323
-0.049787186 0.10499742 0.06388356 -0.08652381 0.00066690764 0.05096273 -0.078465305 0.11286826
-0.10339292 -0.019428775 0.033653967 -0.13004926 0.025815615 -0.036712322 0.08391786 -0.08901027
0.07780914 -0.06952213 -0.025094181 -0.08734054 0.10268944 0.1017157 -0.0033420157 0.06927442
0.030911684 -0.044493485 0.12166387 0.064807594 0.02181143 -0.0772201 0.065577365 0.018862698
0.15753967 0.055107128 -0.1000201 -0.004411199 0.09741021 0.08916367 -0.07943252 -0.088118024
-0.09680924 0.08308966 -0.08001163 0.1337689 0.038054615 -0.08135213 0.07422422 0.11993034
-0.086772725 -0.049769353 0.051108476 0.029529586 0.024652416 0.07762671 -0.1258046 0.068509266
-0.04399096 -0.117834255 -0.09307402 0.022725355 0.07426434 0.04592267 -0.061755553 -0.09849933
0.05533504 -0.028133685 0.10961153 0.103299305 0.10975932 -0.09486748 -0.010485743 0.03318183
0.031882536 0.06926488 0.09827259 -0.10933068 -0.0871089 -0.015366931 -0.016185915 -0.1458813
0.0012861498 -0.021729443 0.08916632 -0.059753925 0.09560696 0.04291281 0.11615935 -0.087112285
-0.021100683 0.1263126 0.04195949 -0.05810666 -0.085525945 -0.019072015 -0.044470776 -0.07187273
-0.007973946 -0.02520084 0.07968457 -0.11771059 -0.06063794 -0.053348493 0.11128516 -0.02591429
0.029793054 0.0064403387 0.016798533 0.0928642 0.09942511 0.089478835 -0.08293846 0.029095002
0.119879834 -0.013068398 -0.12744391 0.09381658 -0.13907652 -0.054183856 -0.0053235586 -0.07900841
-0.06376406 -0.0389157 0.047068827 0.0773105 0.014296949 -0.081477284 -0.0028177933 -0.054163564
-0.050682697 -0.057713635 -0.09736746 0.08348693 0.069647975 0.067589484 0.021857336 -0.1072449
0.07696052 -0.041669484 0.018908821 0.013583854 -0.11295451 -0.06994186 -0.03272996 -0.0066256044
0.054166917 -0.010641588 -0.096353546 -0.119056605 0.063437276 0.07187194 0.0282684 0.06745889
-0.09138861 0.094131514 -0.063682325 0.11346272 0.0556983 0.09894435 -0.124934494 -0.041650217
-0.044478215 -0.060661018 -0.10065378 -0.10525025 -0.057697497 0.13276693 0.10844613 0.07203442
0.08807924 0.13768896 0.07148099 0.13060172 0.0521083 -0.0990203 0.070353 0.0036723115
0.089757815 0.111506924 0.11476114 0.06728586 -0.041088134 0.054712515 -0.05731835 0.04486928
0.11578415 0.06666532 0.098496914 0.025237322 0.042805362 -0.10043274 -0.07620349 -0.03237708
-0.019206496 -0.045799296 0.033676315 0.11195237 -0.097238496 0.06611171 -0.073545456 0.049067374
-0.0955652 0.052680638 -0.07485457 0.10434196 0.055186603 0.090798005 0.060955677 0.010332512
-0.1295346 0.082817554 0.08586834 0.08080313 0.008293145 0.030857213 0.12223859 -0.060475804
-0.07933654 0.036580272 -0.09812718 0.022028646 -0.008946732 0.040188406 -0.11166653 -0.101783
0.11276497 0.092970505 0.073890574 0.062091183 -0.079214066 0.09910864 -0.12345057 -0.097087756
00000000: 6744 6a3c 7d20 0d3d 99c0 9bbd c587 253d
00000010: 296f a03d eb47 0f3d dc33 a3bc 765f c53c
00000020: 4849 7abd 111b 233d d107 5abd cdf7 603d
00000030: c1a6 923d 1179 1dbb 0083 c73d 1164 c0bd
00000040: 3894 6f3d 2eee f9bd 4372 d9bd 7ae2 bd3c
00000050: 674c a3bd 7549 d4b9 67df b33d b40f a1bd
00000060: a6ed 4bbd e308 d73d 62d5 823d 6533 b1bd
00000070: 6ad3 2e3a 4cbe 503d 6bb2 a0bd 7927 e73d
00000080: abbf d3bd 1829 9fbc bed8 093d a22b 05be
00000090: 457b d33c a95f 16bd 21dd ab3d 044b b6bd
000000a0: 665a 9f3d 9e61 8ebd 5092 cdbc 99df b2bd
000000b0: d74e d23d 5250 d03d b805 5bbb bfdf 8d3d
000000c0: 803a fd3c cd3e 36bd e82a f93d d8b9 843d
000000d0: e2ad b23c 9225 9ebd 6d4d 863d f285 9a3c
000000e0: 1452 213e 03b8 613d 57d7 ccbd d28b 90bb
000000f0: 017f c73d 719b b63d 84ad a2bd 3977 b4bd
00000100: ec43 c6bd e92a aa3d 23dd a3bd b7fa 083e
00000110: 28df 1b3d f29b a6bd de02 983d 0a9e f53d
00000120: e6b5 b1bd f3da 4bbd 1f57 513d 08e8 f13c
00000130: ddf3 c93c c1fa 9e3d ecd2 00be 964e 8c3d
00000140: dd2f 34bd 1653 f1bd 989d bebd 862a ba3c
00000150: e717 983d 6919 3c3d 64f3 7cbd 04ba c9bd
00000160: ffa6 623d 9d78 e6bc 037c e03d 968e d33d
00000170: 7fc9 e03d e249 c2bd 65cc 2bbc ace9 073d
00000180: 4397 023d bfda 8d3d 2443 c93d c3e8 dfbd
00000190: 2766 b2bd 95c5 7bbc 5398 84bc e861 15be
000001a0: 0794 a83a f201 b2bc d59c b63d 88c0 74bd
000001b0: 95cd c33d 58c5 2f3d f4e4 ed3d ed67 b2bd
000001c0: 57db acbc 1758 013e b7dd 2b3d 4001 6ebd
000001d0: 3a28 afbd ea3c 9cbc fd26 36bd 0332 93bd
000001e0: 27a5 02bc fe71 cebc aa31 a33d 4012 f1bd
000001f0: 7d5f 78bd f383 5abd 79e9 e33d 354a d4bc
00000200: 9010 f43c 7a09 d33b 149d 893c 962f be3d
00000210: 649f cb3d ae40 b73d a4db a9bd a458 ee3c
00000220: 8f83 f53d d61c 56bc a880 02be e822 c03d
00000230: 136a 0ebe e4ef 5dbd 3f71 aebb 29cf a1bd
00000240: bb96 82bd 1266 1fbd 3ecb 403d f854 9e3d
00000250: c03d 6a3c 90dd a6bd baaa 38bb 9dda 5dbd
00000260: a998 4fbd 2265 6cbd 9768 c7bd 32fb aa3d
00000270: 99a3 8e3d 5b6c 8a3d 280e b33c 37a3 dbbd
00000280: 7a9d 9d3d 9fad 2abd ace6 9a3c d08e 5e3c
00000290: b254 e7bd ae3d 8fbd da0f 06bd 991b d9bb
000002a0: 21de 5d3d 0e5a 2ebc 0255 c5bd f3d3 f3bd
000002b0: 67eb 813d 9831 933d 2293 e73c e327 8a3d
000002c0: f429 bbbd 06c8 c03d e16b 82bd 245f e83d
000002d0: e723 643d 56a3 ca3d a8dd ffbd 6b99 2abd
000002e0: ca2e 36bd b077 78bd 9223 cebd 718d d7bd
000002f0: 3654 6cbd 0ef4 073e 0119 de3d c886 933d
00000300: e362 b43d 56fe 0c3e a064 923d 75bc 053e
00000310: 836f 553d 28cb cabd 3c15 903d 2aab 703b
00000320: f2d2 b73d be5d e43d e307 eb3d 2bcd 893d
00000330: 084c 28bd 3b1a 603d a5c6 6abd dac8 373d
00000340: 3e20 ed3d d487 883d c0b8 c93d 80be ce3c
00000350: ad54 2f3d aeaf cdbd 9310 9cbd d49d 04bd
00000360: f156 9dbc 0b98 3bbd 2df0 093d 4947 e53d
00000370: fa24 c7bd 9465 873d 009f 96bd dffa 483d
00000380: b0b7 c3bd a7c7 573d 5a4d 99bd 3db1 d53d
00000390: 590b 623d 4ef4 b93d a9ac 793d b249 293c
000003a0: b8a4 04be 409c a93d bedb af3d 1d7c a53d
000003b0: f9df 073c 44c8 fc3c 3a58 fa3d 7ab5 77bd
000003c0: 327b a2bd 32d5 153d e7f6 c8bd 6b75 b43c
000003d0: 5095 12bc 999c 243d 6cb1 e4bd 9b73 d0bd
000003e0: 52f1 e63d 5267 be3d f153 973d 5353 7e3d
000003f0: fc3a a2bd 78f9 ca3d a7d3 fcbd f2d5 c6bd

fc2.bias f4 [64]
-0.08805533 -0.05690138 0.105430074 0.09666396 0.07944244 0.10455182 -0.119052134 -0.031889964
0.08717503 -0.02382543 0.06771166 0.12969975 -0.115307465 -0.061258942 0.051612444 0.06781735
0.083516344 -0.11129392 -0.12979919 0.027691973 -0.014924112 0.004892674 -0.044075027 0.014154741
-0.08171037 -0.11349706 -0.0027624308 -0.053240407 -0.08865682 0.08699464 -0.09605545 -0.027757756
-0.08951619 -0.12241716 0.10111706 -0.013997338 0.10465493 -0.03047523 -0.09796586 -0.09323406
0.028892007 0.0452141 0.120906845 0.043715782 -0.12663937 0.07103265 -0.10763754 0.079067744
0.026474517 0.120863065 -0.07641343 0.027723245 0.04086339 -0.075275175 0.12055477 -0.10055331
0.042455424 -0.031948265 0.04137463 0.111715354 0.06509586 0.06629147 -0.12385871 -0.0771068
00000000: 5a56 b4bd 6c11 69bd b9eb d73d c1f7 c53d
00000010: b8b2 a23d 441f d63d 9bd1 f3bd 0d9f 02bd
00000020: d288 b23d 8c2d c3bc 69ac 8a3d 03d0 043e
00000030: 5226 ecbd a8ea 7abd 9267 533d d3e3 8a3d
00000040: 9e0a ab3d 11ee e3bd 14ea 04be 47da e23c
00000050: 4384 74bc b952 a03b 0488 34bd 49e9 673c
00000060: c457 a7bd 2671 e8bd e609 35bb 9d12 5abd
00000070: b591 b5bd 3f2a b23d b8b8 c4bd 3c64 e3bc
00000080: 4454 b7bd d9b5 fabd 7616 cf3d 1755 65bc
00000090: 5355 d63d 31a7 f9bc 53a2 c8bd 80f1 bebd
000000a0: eeae ec3c 6c32 393d 029e f73d 520f 333d
000000b0: c0ad 01be 9179 913d 1271 dcbd 45ee a13d
000000c0: 16e1 d83c 0e87 f73d a57e 9cbd dc1b e33c
000000d0: 5f60 273d df29 9abd 6be5 f63d e5ee cdbd
000000e0: bde5 2d3d 2fdc 02bd 7278 293d 05cb e43d
000000f0: fa50 853d d2c3 873d a3a9 fdbd 2cea 9dbd

fc3.weight f4 [1, 64]
-0.05006879 -0.076355875 0.08212595 -0.062014464 -0.071531504 0.12847063 -0.013397982 -0.067752965
0.036377978 -0.10232265 0.014025465 0.0039049764 -0.11442366 0.0753169 -0.044165753 0.07069762
0.047615245 -0.020665847 -0.01060485 0.013659146 -0.080989115 -0.08591277 -0.05388798 0.0127423825
0.091958605 0.0020833467 -0.026871732 0.12070207 0.10743173 -0.01441832 0.09899226 -0.09869211
0.047371775 -0.010586736 -0.020526838 -0.08647783 -0.0031441918 0.077285156 -0.013229547 -0.011160092
0.05164359 -8.083233e-05 0.13670391 0.0034143792 -0.08450622 0.12041972 0.028225426 -0.08037541
0.07793704 0.01986164 0.0069576795 -0.0740722 -0.07985038 0.07073154 0.11723247 0.0050930046
-0.00013841788 -0.050316874 -0.08727344 0.022383435 0.06235238 0.06463016 -0.084922805 -0.0021203307
00000000: ee14 4dbd 7860 9cbd a631 a83d e102 7ebd
00000010: 1c7f 92bd ce8d 033e 3683 5bbc 11c2 8abd
00000020: 1301 153d 8a8e d1bd 10cb 653c a2ea 7f3b
00000030: f456 eabd bf3f 9a3d 26e7 34bd eac9 903d
00000040: 3408 433d 6c4b a9bc f7bf 2dbc 9cca 5f3c
00000050: 9fdd a5bd 09f3 afbd a4b9 5cbd 6dc5 503c
00000060: cb54 bc3d c288 083b 1b22 dcbc a632 f73d
00000070: 2b05 dc3d d13a 6cbc 74bc ca3d 171f cabd
00000080: e808 423d fd73 2dbc e627 a8bc 4a1b b1bd
00000090: c90e 4ebb ae47 9e3d bec0 58bc d2d8 36bc
000000a0: 3b88 533d 8784 a9b8 1cfc 0b3e c7c3 5f3b
000000b0: 9911 adbd 9d9e f63d 0239 e73c dd9b a4bd
000000c0: 749d 9f3d e1b4 a23c 3ffd e33b 2ab3 97bd
000000d0: 9988 a3bd b3db 903d 9417 f03d 38e3 a63b
000000e0: 4424 11b9 1119 4ebd 6bbc b2bd 775d b73c
000000f0: 3665 7f3d d15c 843d 02ec adbd 3ff5 0abb

attentionblocks.0.layernorm0.weight f4 [64]
1.1131244 1.08811 0.99049264 1.1152409 0.96500874 0.9904482 1.0080173 0.995425
0.90701896 0.9976043 1.0039884 0.97109854 0.98450583 0.9883137 0.95469207 0.9745395
1.0447315 1.0240804 0.99827766 0.9988855 1.0979189 0.961343 1.0839872 1.0613165
0.99220103 1.0569763 1.0009836 0.9580568 1.0312299 0.9882395 1.0126939 1.0662376
1.0114512 0.99348766 0.9669855 0.9300605 1.066178 1.0308009 1.044175 1.097926
0.9726826 1.0159788 1.0276203 1.00899 1.0997581 1.0098584 1.0247644 0.95800364
1.0685744 1.0359626 1.0104457 1.0422878 1.0512726 0.9996451 1.0157572 0.98594636
1.0031127 0.96388096 0.98694265 1.0217935 1.0260248 1.0286677 0.90499514 1.0038556
00000000: dc7a 8e3f 3047 8b3f ed90 7d3f 37c0 8e3f
00000010: d00a 773f 038e 7d3f b606 813f 2cd4 7e3f
00000020: 6532 683f ff62 7f3f b182 803f ea99 783f
00000030: 9308 7c3f 2002 7d3f b366 743f 6c7b 793f
00000040: c3b9 853f 1115 833f 208f 7f3f f6b6 7f3f
00000050: 9b88 8c3f 931a 763f 18c0 8a3f 38d9 873f
00000060: e300 7e3f 004b 873f 3b20 803f 3643 753f
00000070: 57ff 833f 44fd 7c3f f49f 813f 797a 883f
00000080: 3c77 813f 3555 7e3f 5d8c 773f 7218 6e3f
00000090: 8578 883f 49f1 833f 87a7 853f d788 8c3f
000000a0: ba01 793f 980b 823f 1089 833f 9626 813f
000000b0: e0c4 8c3f 0a43 813f 7b2b 833f ba3f 753f
000000c0: 0cc7 883f 6c9a 843f 4956 813f b069 853f
000000d0: 1a90 863f bee8 7f3f 5504 823f fb66 7c3f
000000e0: ff65 803f e7c0 763f 46a8 7c3f 21ca 823f
000000f0: c854 833f 62ab 833f c3ad 673f 577e 803f

attentionblocks.0.layernorm0.bias f4 [64]
0.00651437 0.05781373 0.023756376 -0.03712534 -0.00723892 0.012533342 -0.009603439 -0.0065888604
-0.015041186 -0.015963346 0.0022938896 0.026145574 0.0038815083 0.05161788 0.015888218 -0.032418698
-0.018123833 0.021440662 0.027992861 0.010780799 0.040908962 -0.041207816 -0.03953919 0.009411035
0.0695602 0.02170169 0.024053548 -0.021715304 0.008048668 -0.015737649 0.010158344 -0.00068946363
0.0032303398 -0.022592152 -0.019494344 -0.004388152 0.019739578 -0.0030748225 0.0031792014 0.025746591
0.009064282 -0.0194532 0.0023592918 -0.014185607 0.012204195 -0.004218467 -0.0203522 0.011734456
0.054453317 0.018106965 -0.011653628 0.005453235 -0.008399965 -0.01598705 0.0047741868 0.047980096
0.01823154 -0.005506512 -0.03144579 0.0020682712 0.008636096 -0.017034618 -0.050370373 0.0019778502
00000000: 7f76 d53b 17ce 6c3d bb9c c23c be10 18bd
00000010: 7634 edbb a558 4d3c be57 1dbc 5ee7 d7bb
00000020: 4e6f 76bc 90c5 82bc 1555 163b 3e2f d63c
00000030: e760 7e3b 456d 533d 0228 823c 78c9 04bd
00000040: 6f78 94bc 54a4 af3c 4951 e53c f3a1 303c
00000050: 2890 273d 87c9 28bd d8f3 21bd be30 1a3c
00000060: 9475 8e3d bec7 b13c f20b c53c 4be4 b1bc
00000070: 8fde 033c 3eec 80bc 2f6f 263c 1fbd 34ba
00000080: 1cb4 533b 2d13 b9bc 9ab2 9fbc 7dca 8fbb
00000090: e5b4 a13c f682 49bb 265a 503b 84ea d23c
000000a0: 5b82 143c 515c 9fbc 599e 1a3b c06a 68bc
000000b0: 1bf4 473c 113b 8abb a8b9 a6bc e041 403c
000000c0: 710a 5f3d 0f55 943c dcee 3ebc 0db1 b23b
000000d0: 02a0 09bc 46f7 82bc c870 9c3b c786 443d
000000e0: 505a 953c f86f b4bb 4dcd 00bd d58b 073b
000000f0: 697e 0d3c 2f8c 8bbc 2a51 4ebd d29e 013b

attentionblocks.0.layernorm1a.weight f4 [64]
0.98616123 1.0211995 1.0079386 1.0641853 0.9696565 0.93128794 1.0574507 0.96892536
0.8641096 1.0050793 1.0242659 0.99575233 1.0286062 1.0289195 0.96992314 0.98323786
1.0080578 1.0075696 0.91534364 1.0752614 0.99344796 1.0046049 1.0381906 1.0279732
0.94897664 1.0725424 1.0021919 0.9469609 0.94733757 0.99154264 0.98584783 1.0589117
1.0351925 1.0177997 0.9110211 0.94901544 1.0678067 1.0473287 1.0516973 1.0594095
0.9669078 0.96838546 1.0245595 0.9700099 1.0447854 1.0068378 1.0407158 0.96692675
1.0161182 1.0311483 1.0498165 1.0660034 1.032828 1.009368 1.0283417 0.9884299
1.0622047 1.016226 0.98301816 1.0179354 1.0045933 1.0340155 0.9510167 1.0188612
00000000: 1075 7c3f aab6 823f 2204 813f 3937 883f
00000010: 693b 783f e368 6e3f 8b5a 873f 7e0b 783f
00000020: 4936 5d3f 70a6 803f 251b 833f a0e9 7e3f
00000030: 5ea9 833f a2b3 833f e24c 783f 7ab5 7b3f
00000040: 0a08 813f 0af8 803f f653 6a3f 2aa2 893f
00000050: 9b52 7e3f e596 803f 6ee3 843f a094 833f
00000060: 22f0 723f 1249 893f d347 803f 086c 723f
00000070: b784 723f bdd5 7d3f 8660 7c3f 6b8a 873f
00000080: 3081 843f 4347 823f ae38 693f adf2 723f
00000090: e4ad 883f de0e 863f 049e 863f bb9a 873f
000000a0: 4587 773f 1ce8 773f c424 833f 9252 783f
000000b0: 87bb 853f 10e0 803f 2d36 853f 8388 773f
000000c0: 2910 823f abfc 833f 6360 863f cd72 883f
000000d0: b533 843f f832 813f b3a0 833f be09 7d3f
000000e0: 53f6 873f b213 823f 14a7 7b3f b54b 823f
000000f0: 8396 803f 9f5a 843f d575 733f 0b6a 823f

attentionblocks.0.layernorm1a.bias f4 [64]
-0.0010947057 -0.015050336 -0.0050465567 -0.0074839806 0.01775373 -0.024150958 -0.010777223 -0.025600435
0.022177598 0.022307778 0.016526846 0.004856663 -0.006825669 -0.013598556 0.012336514 -0.020408329
-0.006113731 -0.011486184 -0.041482177 0.014112954 0.015547592 -0.040548548 -0.03341896 -0.010416504
0.009271764 0.007345883 -0.011724443 -0.029657511 -0.042203054 -0.035599113 0.011193158 -0.015218623
0.00801599 0.023195487 0.008662468 0.065733746 -0.005082791 -0.0031311691 0.013036683 0.04178993
0.013241961 -0.031573147 -0.014430548 -0.0027739422 0.007436784 -0.008705421 -0.0078119976 -0.033311732
-0.031257298 0.008369204 -0.0017127829 0.005341574 0.0049384185 0.0078310305 -0.0037695516 0.015621258
-0.027303679 -0.021618795 -0.008496044 -0.017379032 -0.01567045 0.0057168864 0.050557848 0.023534892
00000000: 3a7c 8fba af95 76bc 965d a5bb 2e3c f5bb
00000010: 4570 913c 3bd8 c5bc f392 30bc 01b8 d1bc
00000020: cbad b53c cdbe b63c 4f63 873c a424 9f3b
00000030: dda9 dfbb 7acc 5ebc 171f 4a3c 5e2f a7bc
00000040: b155 c8bb 8c30 3cbc 37e9 29bd 053a 673c
00000050: 54bb 7e3c 3c16 26bd 52e2 08bd fca9 2abc
00000060: 99e8 173c bcb5 f03b e117 40bc 4ff4 f2bc
00000070: 1cdd 2cbd 60d0 11bd 8263 373c 8857 79bc
00000080: 8055 033c 7604 be3c 06ed 0d3c 6a9f 863d
00000090: 8b8d a6bb 4d34 4dbb d097 553c eb2b 2b3d
000000a0: cff4 583c d852 01bd 1b6e 6cbc 07cb 35bb
000000b0: 44b0 f33b 2fa1 0ebc c9fb ffbb e271 08bd
000000c0: a707 00bd fc1e 093c 757f e0ba 5f08 af3b
000000d0: 75d2 a13b b94d 003c 950a 77bb 4ef0 7f3c
000000e0: f7ab dfbc e619 b1bc fe32 0bbc 795e 8ebc
000000f0: 515f 80bc b854 bb3b bf15 4f3d 3fcc c03c

attentionblocks.0.layernorm1b.weight f4 [64]
1.0087205 0.97010314 1.0738671 1.0102837 1.0087736 0.9634874 0.9929443 1.029023
1.007087 1.0395303 1.023424 1.0813892 1.0718584 1.0269605 0.9537478 1.0558506
1.0856941 1.013221 0.98286676 1.0353135 1.1211009 1.0465587 1.0793407 1.0175451
1.0512869 0.965053 1.0052699 1.0025897 0.9690354 1.1124407 0.9951693 1.0451317
1.0318953 1.1114285 1.1164654 1.0243045 1.0133785 1.0953169 1.0255096 1.0458943
1.0058662 1.0443004 1.0561738 0.98359495 1.005658 0.9973397 1.0620389 0.97605586
0.9785081 0.9858678 1.0186414 1.0215943 0.98112714 1.0587962 0.9853758 1.023272
1.0708569 1.0259476 1.031303 1.0026345 1.0530525 1.0560764 1.0126138 1.0346531
00000000: c11d 813f ae58 783f 7a74 893f fa50 813f
00000010: 7e1f 813f 1ca7 763f 9931 7e3f 07b7 833f
00000020: 3ae8 803f 540f 853f 8fff 823f f66a 8a3f
00000030: a832 893f 7173 833f d128 743f 1d26 873f
00000040: 06f8 8a3f 3ab1 813f 289d 7b3f 2785 843f
00000050: 3c80 8f3f a3f5 853f d627 8a3f eb3e 823f
00000060: 9290 863f b70d 773f afac 803f dc54 803f
00000070: b412 783f 7564 8e3f 6ac3 7e3f e0c6 853f
00000080: 2515 843f 4a43 8e3f 57e8 8e3f 691c 833f
00000090: 63b6 813f 5833 8c3f e643 833f dddf 853f
000000a0: 39c0 803f a3ab 853f b430 873f e1cc 7b3f
000000b0: 67b9 803f a851 7f3f e4f0 873f ccde 793f
000000c0: 827f 7a3f d561 7c3f d762 823f 9ac3 823f
000000d0: 262b 7b3f a286 873f 9741 7c3f 94fa 823f
000000e0: d711 893f 4052 833f bd01 843f 5456 803f
000000f0: 6dca 863f 832d 873f 549d 813f 836f 843f

attentionblocks.0.layernorm1b.bias f4 [64]
-0.00511627 0.002997965 -0.004202147 0.006740121 0.019916395 0.011356955 0.015042837 0.0006425223
0.012990831 -0.0030049072 0.0028210105 -0.012306731 0.023133276 -0.012128308 0.018079178 0.0025123863
-0.02978076 0.005603569 0.0059969197 -0.014872299 0.006348025 -0.03471931 -0.014870629 0.0018422832
0.02608586 0.021600736 0.0014345814 -0.030777821 -0.014070345 0.0008807198 0.0048488327 -0.0033260947
0.0013738981 0.0015852808 0.024018472 -0.0013804765 0.010265684 -0.018955171 -0.025890514 0.0010665775
-0.015190549 -0.023117922 0.0010184719 -0.00025303467 -0.0030726925 0.01893509 -0.036026973 0.016990427
0.025173387 0.015742574 -0.0011339653 0.04839102 -0.03308664 0.021652976 -0.009551795 0.0025597303
0.0013572946 -0.01424799 -0.01385986 0.025298864 0.014828058 0.011556407 0.0007757494 -0.0040848427
00000000: 62a6 a7bb 8279 443b 2ab2 89bb 3cdc dc3b
00000010: b527 a33c 8612 3a3c 3b76 763c f16e 283a
00000020: 7fd7 543c faed 44bb b4e0 383b 2ca2 49bc
00000030: ff81 bd3c d0b5 46bc c91a 943c d9a6 243b
00000040: c8f6 f3bc 259e b73b cf81 c43b f1aa 73bc
00000050: 1803 d03b d635 0ebd f0a3 73bc c478 f13a
00000060: 03b2 d53c 07f4 b03c 9008 bc3a c521 fcbc
00000070: 4e87 66bc 1be0 663a f5e2 9e3b 9cfa 59bb
00000080: 5f14 b43a 32c9 cf3a 63c2 c43c 1bf1 b4ba
00000090: 6631 283c e047 9bbc 5818 d4bc 67cc 8b3a
000000a0: c8e1 78bc cc61 bdbc 3f7e 853a bda9 84b9
000000b0: 3a5f 49bb c31d 9b3c 0591 13bd 822f 8b3c
000000c0: 6b38 ce3c 92f6 803c 90a1 94ba aa35 463d
000000d0: db85 07bd 9561 b13c 227f 1cbc 26c1 273b
000000e0: 40e7 b13a 6770 69bc 7714 63bc 903f cf3c
000000f0: 62f1 723c 1657 3d3c a95b 4b3a 25da 85bb

attentionblocks.0.layernorm2a.weight f4 [64]
1.0575975 0.92564917 1.014783 1.0191145 1.0127664 1.0482202 0.9445376 1.0090649
0.95705026 0.9850172 0.99479556 1.0125884 1.0823454 1.0151045 0.97660106 0.9927623
1.0962961 0.9329444 1.0069109 1.0208565 1.0177474 0.989939 1.0666965 1.0698057
0.96182436 0.95879954 1.0057294 0.99462295 0.9888982 0.9988405 0.99994314 1.0528007
1.0175695 1.0010442 1.0283527 0.9459519 1.0984398 0.99786526 0.9997634 1.0234759
0.9486909 1.042696 1.0138754 1.0142814 1.025879 0.9870374 0.9809679 0.9612872
1.0178866 0.9967355 1.0006319 0.9422493 0.9692942 0.97900885 0.9671666 0.9994252
1.0385872 0.9613624 0.99658245 0.99510324 1.0153297 0.9861277 0.96603644 1.006111
00000000: 5b5f 873f 58f7 6c3f 69e4 813f 5872 823f
00000010: 54a2 813f 142c 863f 37cd 713f 0a29 813f
00000020: 3f01 753f 162a 7c3f ecaa 7e3f 7f9c 813f
00000030: 4b8a 8a3f f2ee 813f 8702 7a3f ac25 7e3f
00000040: 6e53 8c3f 72d5 6e3f 75e2 803f 6dab 823f
00000050: 8c45 823f a46c 7d3f 8389 883f 65ef 883f
00000060: 1f3a 763f e373 753f bebb 803f 9c9f 7e3f
00000070: 6f28 7d3f 03b4 7f3f 46fc 7f3f 2cc2 863f
00000080: b83f 823f 3722 803f 10a1 833f e729 723f
00000090: ad99 8c3f 1974 7f3f 7ff0 7f3f 4201 833f
000000a0: 68dd 723f 1077 853f abc6 813f f9d3 813f
000000b0: 0150 833f 7cae 7c3f b620 7b3f eb16 763f
000000c0: 1c4a 823f 0f2a 7f3f b514 803f 4037 713f
000000d0: aa23 783f 53a0 7a3f 3b98 773f 54da 7f3f
000000e0: 6df0 843f d91b 763f 0720 7f3f 16bf 7e3f
000000f0: 53f6 813f dd72 7c3f 2a4e 773f 3fc8 803f

attentionblocks.0.layernorm2a.bias f4 [64]
-0.0025016032 0.0094950935 -0.0031416311 0.006921359 0.01701549 0.01379082 0.015168901 0.00048635653
0.015335534 -0.0124531165 0.00059834745 -0.0075063207 0.019792402 -0.013840191 0.01594049 -0.00676386
-0.02864109 0.008669321 0.0040071835 -0.020253135 0.009414304 -0.03740071 -0.023313936 0.00055446586
0.026853673 0.016488798 0.0043221447 -0.03494003 -0.014793817 0.006902932 0.0021615527 0.004199598
0.0019833865 0.0049510677 0.027644422 0.0015040471 0.019497702 -0.01984147 -0.01897044 0.0052285227
-0.025749201 -0.023890013 0.0015818547 0.00490424 -0.002046258 0.020159774 -0.03781951 0.018155847
0.02170425 0.01981334 0.0059131933 0.05947549 -0.027649734 0.010929792 -0.008792042 0.00022352493
0.0039051236 -0.009563249 -0.009960342 0.03160177 0.015630148 0.01112551 0.0016719727 -0.00018515647
00000000: f0f1 23bb 4f91 1b3c d3e3 4dbb 91cc e23b
00000010: 1264 8b3c e4f2 613c fb86 783c abfd fe39
00000020: e441 7b3c 2808 4cbc 6bda 1c3a 95f7 f5bb
00000030: ad23 a23c f8c1 62bc a195 823c 5fa3 ddbb
00000040: b8a0 eabc c509 0e3c b14e 833b e7e9 a5bc
00000050: 743e 1a3c 7d31 19bd defc bebc 9359 113a
00000060: 3cfc db3c 8413 873c c7a0 8d3b 471d 0fbd
00000070: c461 72bc fe31 e23b d6a8 0d3b c89c 893b
00000080: b4fb 013b 913c a23b 8e76 e23c 7223 c53a
00000090: a5b9 9f3c 948a a2bc e567 9bbc 0754 ab3b
000000a0: fdef d2bc fdb4 c3bc 3c56 cf3a bfb3 a03b
000000b0: 831a 06bb 1c26 a53c a1e8 1abd 92bb 943c
000000c0: 1ccd b13c 964f a23c 76c3 c13b 929c 733d
000000d0: b281 e2bc df12 333c 7f0c 10bc 0462 6a39
000000e0: 1aed 7f3b 2caf 1cbc b430 23bc dc70 013d
000000f0: cc0a 803c c547 363c 1826 db3a 9026 42b9

attentionblocks.0.layernorm2b.weight f4 [64]
1.0064512 1.0159193 0.99545515 1.037972 1.0465106 0.9678681 0.91061944 1.0667107
1.0264474 1.0326015 0.94574934 0.9625132 0.9968052 1.1399469 0.9849679 1.0692118
0.96850467 0.9975152 1.0386145 0.99008256 1.0126299 1.0640019 1.0009346 0.9515357
1.0161021 1.0058328 1.0204339 0.9912908 1.1492076 1.0610322 0.9445487 1.0041697
0.9985084 0.8943241 0.92995304 1.0340936 0.95869017 0.98451316 1.0647833 0.9781851
0.9644759 0.99940056 0.9810467 1.0609735 1.0348799 1.0808116 0.99687856 0.97365385
1.0197649 0.9575194 0.9977947 0.90134734 0.93485576 1.0073407 1.0002413 0.9968118
1.0141523 0.9613168 0.97317004 0.9906449 0.9828031 1.0203629 1.0107539 1.0240864
00000000: 65d3 803f a509 823f 26d6 7e3f 44dc 843f
00000010: 0ff4 853f 34c6 773f 5b1e 693f fa89 883f
00000020: a162 833f 492c 843f a11c 723f 4467 763f
00000030: a02e 7f3f c8e9 913f db26 7c3f efdb 883f
00000040: ecef 773f 285d 7f3f 52f1 843f 0d76 7d3f
00000050: db9d 813f 3731 883f a01e 803f d897 733f
00000060: a20f 823f 21bf 803f 949d 823f 3cc5 7d3f
00000070: 3c19 933f e7cf 873f f2cd 713f a288 803f
00000080: 3f9e 7f3f 6df2 643f 6711 6e3f 2e5d 843f
00000090: b86c 753f 0e09 7c3f d24a 883f 576a 7a3f
000000a0: e5e7 763f b7d8 7f3f e025 7b3f fbcd 873f
000000b0: f276 843f 0958 8a3f 6f33 7f3f 6141 793f
000000c0: a887 823f fe1f 753f 796f 7f3f b3be 663f
000000d0: b552 6f3f 8af0 803f e807 803f 0f2f 7f3f
000000e0: becf 813f dc18 763f ac21 793f e79a 7d3f
000000f0: fc98 7b3f 409b 823f 6260 813f 4315 833f

attentionblocks.0.layernorm2b.bias f4 [64]
-0.012707691 0.0031749613 -0.004620291 0.01833662 -0.044340845 -0.06342689 -0.06538482 -0.07515435
-0.025960892 -0.026223768 -0.011481951 -0.00096326135 -0.033346195 -0.09557403 -0.0916304 -0.05208216
-0.012597532 -0.020178417 -0.01630196 -0.04060664 -0.012355479 -0.03791783 -0.067739636 -0.05416414
-0.08750928 0.003772462 -0.009550489 -0.0051900996 -0.123284504 -0.022736002 -0.0648654 -0.06962845
-0.026735147 -0.083657555 -0.06687074 -0.057934277 -0.10378409 -0.00047994053 -0.040961295 -0.06878808
-0.030392064 0.009303355 0.0014750174 -0.020902447 -0.021548092 -0.022452246 -0.030457923 -0.014180203
-0.020503102 -0.00028298615 0.013053635 -0.050079767 -0.02837776 -0.025982132 -0.026369264 -0.017803948
-0.03852548 -0.08604905 -0.049866576 -0.017243316 -0.048229553 -0.049367063 -0.034611374 -0.038928706
00000000: eb33 50bc 0313 503b cf65 97bb ae36 963c
00000010: bf9e 35bd f5e5 81bd 7ae8 85bd 86ea 99bd
00000020: f0ab d4bc 3ad3 d6bc cb1e 3cbc 6083 7cba
00000030: 0596 08bd 51bc c3bd b8a8 bbbd 1a54 55bd
00000040: e165 4ebc 354d a5bc b08b 85bc 2653 26bd
00000050: a36e 4abc ba4f 1bbd 14bb 8abd 38db 5dbd
00000060: 1138 b3bd 693b 773b a779 1cbc b611 aabb
00000070: 967c fcbd da40 babc 27d8 84bd 5c99 8ebd
00000080: ab03 dbbc a754 abbd 87f3 88bd 7e4c 6dbd
00000090: c18c d4bd 87a0 fbb9 08c7 27bd c4e0 8cbd
000000a0: c7f8 f8bc 196d 183c 5f55 c13a 9c3b abbc
000000b0: a085 b0bc c6ed b7bc e582 f9bc 1554 68bc
000000c0: 1ff6 a7bc c25d 94b9 eade 553c 7120 4dbd
000000d0: 7a78 e8bc 7bd8 d4bc 5b04 d8bc 96d9 91bc
000000e0: e5cc 1dbd 7c3a b0bd e540 4cbd db41 8dbc
000000f0: 5a8c 45bd 1e35 4abd a8c4 0dbd b573 1fbd

attentionblocks.0.fc_q_list.0.weight f4 [16, 64]
0.022831505 0.24872613 0.0055163708 0.03040028 0.058610152 -0.11818579 -0.21389689 -0.12544207
-0.007068893 -0.0888718 -0.17151405 0.024138145 -0.009715823 -0.10971604 -0.10524616 -0.08246915
-0.29724404 -0.13626793 0.028951807 0.08050845 -0.027468052 0.019372143 0.111409485 0.09370564
-0.027180627 0.22232886 0.10653208 0.056861512 0.1697149 0.009351334 -0.036937583 0.19630924
0.0710742 0.21356453 -0.0358115 0.01842716 0.018882154 -0.016635863 -0.018859258 0.041123524
0.12048492 -0.04374238 0.015245145 0.044052064 0.005510381 0.010133653 0.0055369367 0.03925438
0.063466296 -0.036613166 0.051518615 -0.21688594 0.040337246 -0.18022789 -0.09526667 -0.009456192
0.07514725 -0.046465863 0.08436063 0.1963035 -0.15869308 0.1120977 -0.1132832 0.15612292
0.035133597 0.057281755 0.03665246 0.06447058 0.025601694 -0.100283235 -0.18010554 -0.0006057537
0.12743431 -0.09916363 -0.004945927 -0.06866203 -0.010427124 0.11258841 0.05053714 -0.06517522
0.029744904 0.003613196 -0.017800799 0.022806358 -0.09878503 -0.11772311 0.054027498 -0.21185131
-0.06924337 -0.19755226 0.03749176 -0.1022167 -0.0137974555 -0.0665277 0.0534737 -0.03241636
-0.21114671 -0.04141803 0.0633222 0.09682996 0.09672653 0.15456674 0.10086876 0.0052845
0.007447105 -0.05955585 -0.14375356 -0.0134638455 -0.032801673 -0.0188687 -0.04175126 -0.11213516
0.18725827 0.1122485 -0.059963576 0.20804761 0.07775336 0.12216156 0.07137409 0.07944294
0.12666924 -0.16656631 0.08616342 0.002356329 -0.004018281 -0.121000074 0.0365128 0.058535475
0.15318844 -0.037045587 -0.07568205 0.09357467 -0.0538034 0.05679115 -0.0361584 -0.02563151
0.15840912 0.16859423 0.065161295 -0.043687336 0.13637805 -0.11103519 -0.06699277 0.04396595
0.015018289 0.0028716042 -0.043917403 0.048051465 0.086568646 0.101819575 0.044138294 -0.22719514
0.051789183 -0.02510863 -0.0009052112 -0.13864999 0.06866902 -0.15567589 0.0534497 -0.04642764
0.019647134 0.09445623 0.11168824 0.11408259 0.07622702 0.029436411 0.054133944 -0.034248855
0.033950824 -0.1628665 0.024097355 -0.007632416 0.13086925 0.052322034 -0.0012470244 -0.09773715
-0.06700121 0.016595848 0.0008488584 0.084311165 0.07292341 -0.038032502 -0.02669714 0.10633705
-0.023071874 0.04757894 0.10956034 0.021182196 0.0431111 -0.048083197 0.035724405 0.03159133
0.051536374 -0.084067136 0.051945936 0.052612096 0.05976445 -0.022265136 0.013754199 -0.07450654
-0.032313228 -0.1191828 -0.1004833 0.062425096 0.0770314 -0.07210692 0.045389622 -0.013471468
-0.07365763 -0.030218633 0.12949528 0.13564102 -0.04381308 0.015542172 0.0745927 -0.048166983
0.06972463 0.12048559 0.0026013388 0.035331327 -0.080364734 -0.073779896 -0.1374546 -0.12925072
0.00029005276 0.12942702 0.038762625 0.10192742 0.07884636 0.0044876877 0.18679565 -0.020128543
-0.029587986 0.057133 0.09877805 -0.039276183 -0.13580878 -0.054951586 -0.06930844 -0.0651743
-0.031587347 -0.04648593 -0.056233265 -0.015843034 0.03238109 -0.08786577 0.10849534 -0.019306656
-0.025296299 -0.16845036 -0.06940138 0.0764443 -0.012755536 -0.024142615 0.124171436 -0.060167782
00000000: 2309 bb3c 10b2 7e3e acc2 b43b 020a f93c
00000010: 3311 703d 640b f2bd c907 5bbe e373 00be
00000020: 2ca2 e7bb 6b02 b6bd 61a1 2fbe 5cbd c53c
00000030: 1e2f 1fbc ceb2 e0bd 4c8b d7bd 96e5 a8bd
00000040: 5f30 98be d289 0bbe 572c ed3c 9de1 a43d
00000050: ae04 e1bc 54b2 9e3c a82a e43d bee8 bf3d
00000060: e8a9 debc 2daa 633e 7e2d da3d 9ee7 683d
00000070: bec9 2d3e 5636 193c dd4b 17bd 4a05 493e
00000080: 5a8f 913d a9b0 5a3e 14af 12bd 8ef4 963c
00000090: bfae 9a3c ef47 88bc bb7e 9abc 2471 283d
000000a0: ccc0 f63d 362b 33bd c6c6 793c f06f 343d
000000b0: 6d90 b43b 9f07 263c 316f b53b 33c9 203d
000000c0: 9efa 813d b0f7 15bd 2f05 533d 5917 5ebe
000000d0: ab38 253d a98d 38be 2c1b c3bd 25ee 1abc
000000e0: cde6 993d fd52 3ebd 44c5 ac3d c903 493e
000000f0: 7080 22be 7b93 e53d 0601 e8bd b0de 1f3e
00000100: 3fe8 0f3d 46a0 6a3d e420 163d 2709 843d
00000110: a5ba d13c 4c61 cdbd 966d 38be 71cb 1eba
00000120: 247e 023e 4d16 cbbd 7111 a2bb ae9e 8cbd
00000130: 87d6 2abc c194 e63d 0800 4f3d 967a 85bd
00000140: 96ab f33c 5fcb 6c3b fbd2 91bc 66d4 ba3c
00000150: ce4f cabd d018 f1bd f04b 5d3d 8def 58be
00000160: 78cf 8dbd 244b 4abe f690 193d fd56 d1bd
00000170: b90e 62bc ad3f 88bd 3d07 5b3d 04c7 04bd
00000180: d836 58be f4a5 29bd 12af 813d c94e c63d
00000190: 8f18 c63d be46 1e3e 4894 ce3d 9929 ad3b
000001a0: d806 f43b d6f0 73bd 2234 13be 7697 5cbc
000001b0: 0c5b 06bd 8892 9abc 5f03 2bbd 1ea7 e5bd
000001c0: a2c0 3f3e 8be2 e53d 5e9c 75bd 6f0a 553e
000001d0: 273d 9f3d d72f fa3d 942c 923d fbb2 a23d
000001e0: 95b5 013e 5c90 2abe 7276 b03d a46c 1a3b
000001f0: c9ab 83bb e3ce f7bd 728e 153d e5c2 6f3d
00000200: 6edd 1c3e 1dbd 17bd 31ff 9abd 14a4 bf3d
00000210: f460 5cbd d69d 683d d51a 14bd 2cf9 d1bc
00000220: 0036 223e f7a3 2c3e 4973 853d 7ef1 32bd
00000230: b0a6 0b3e 6b66 e3bd 8133 89bd a415 343d
00000240: 450f 763c 8631 3c3b bce2 33bd 9dd1 443d
00000250: e74a b13d c886 d03d 5bca 343d d8a5 68be
00000260: e520 543d 9db0 cdbc b24b 6dba 43fa 0dbe
00000270: 58a2 8c3d 8069 1fbe 13ee 5a3d e92a 3ebd
00000280: 07f3 a03c 4572 c13d cebc e43d 22a4 e93d
00000290: e91c 9c3d a124 f13c 8ebb 5d3d 8748 0cbd
000002a0: 0510 0b3d 7ac6 26be d167 c53c 5919 fabb
000002b0: 9702 063e a14f 563d 3273 a3ba 6a2a c8bd
000002c0: ee37 89bd 04f4 873c ec85 5e3a 55ab ac3d
000002d0: de58 953d f8c7 1bbd f6b3 dabc 3dc7 d93d
000002e0: 3a01 bdbc 22e2 423d 2c61 e03d 4986 ad3c
000002f0: 4495 303d e3f2 44bd c153 123d e965 013d
00000300: ce17 533d 642b acbd 43c5 543d c87f 573d
00000310: 91cb 743d 6065 b6bc 4b59 613c e396 98bd
00000320: e05a 04bd 1d16 f4bd 30ca cdbd 75b1 7f3d
00000330: a3c2 9d3d cbac 93bd 78ea 393d 6fb7 5cbc
00000340: d0d9 96bd 118d f7bc 699a 043e 7be5 0a3e
00000350: 5875 33bd 98a4 7e3c 0fc4 983d be4a 45bd
00000360: c9cb 8e3d 26c1 f63d 397b 2a3b 95b7 103d
00000370: 4496 a4bd ea19 97bd e6c0 0cbe 4d5a 04be
00000380: 3912 9839 8488 043e 8fc5 1e3d 53bf d03d
00000390: 337a a13d 740d 933b 5c47 3f3e 9de4 a4bc
000003a0: 8162 f2bc 4b04 6a3d 254c ca3d 10e0 20bd
000003b0: 7511 0bbe ea14 61bd 95f1 8dbd 1a7a 85bd
000003c0: bc61 01bd 0868 3ebd da54 66bd 40c9 81bc
000003d0: 09a2 043d f8f2 b3bd ce32 de3d fe28 9ebc
000003e0: 2f3a cfbc 407e 2cbe 5022 8ebd d48e 9c3d
000003f0: 98fc 50bc bcc6 c5bc 984d fe3d 7e72 76bd

attentionblocks.0.fc_q_list.1.weight f4 [16, 64]
-0.084758416 -0.27794325 -0.17082325 0.12086183 0.020592717 -0.076588936 0.13719434 -0.29848647
-0.05384895 0.17640072 0.21864527 0.06518374 -0.01611288 -0.15093449 0.048481893 0.013574138
0.05707548 -0.21949247 -0.058225464 0.022659203 -0.02095814 -0.03446738 -0.13536388 0.06636636
0.023141474 -0.061446376 0.05041395 0.036560923 0.09511445 -0.17701654 0.18623422 -0.030022064
0.0060915365 -0.19333883 -0.029117635 0.15168357 -0.00022911708 -0.31368938 0.07517138 0.13029322
-0.1363841 -0.01419509 0.007937403 0.058436036 0.17152351 -0.04945224 0.09427222 -0.059499573
0.0039105755 -0.20208089 0.17839018 0.011559502 0.08224424 -0.11636918 0.05653155 0.07437919
-0.17629467 0.02130897 -0.024460703 0.13054606 -0.05669704 -0.21822305 -0.12123179 0.23908189
0.03858901 0.010072269 0.12973519 -0.08157934 0.05926515 -0.033821166 0.005405035 -0.022636425
-0.103594735 -0.056430507 0.0525855 0.10322699 -0.03327521 0.15675303 0.058546316 -0.13017891
0.022831593 0.06610792 0.05604913 -0.23534133 0.10113073 0.00551737 -0.053532347 0.13854964
-0.09829266 0.089565024 0.016741397 0.070571385 0.27025193 0.019482538 0.13830414 -0.045787413
-0.06405044 -0.13129145 -0.25054315 -0.085149854 -0.17618205 0.123846725 -0.06115016 0.007064643
0.09098374 -0.04973974 -0.08638066 -0.15641671 0.069757015 0.07311031 -0.16121961 0.05317471
-0.04644069 0.17509897 -0.14417452 0.19065718 0.13457707 -0.01801955 -0.1983802 -0.16539896
0.19898467 0.057760764 0.108978905 -0.07747673 0.15252137 0.122564495 0.021698177 0.024137981
-0.15910655 -0.12828512 0.14356413 0.14990246 -0.068150885 0.12978 -0.11011523 0.070334226
-0.16516882 0.12763542 0.09025251 -0.01804911 -0.25643077 -0.17155612 -0.14055449 0.03476574
-0.20329344 -0.22689487 0.08838429 -0.006536721 0.034807015 -0.06944044 -0.29342982 0.19243018
0.08977883 0.06940151 0.0724653 0.21726833 0.102192 0.033907846 0.15857516 0.020923384
-0.11185077 -0.1516392 -0.074988574 0.14924066 -0.0050495225 -0.124536246 0.23341392 0.22596735
0.16064474 -0.20406099 0.02651235 -0.0580771 -0.025469897 0.074791744 -0.25792667 0.19099794
0.06856161 0.052180998 -0.2251778 0.109937586 0.006014844 -0.088195495 0.10832781 0.25439712
-0.002748571 -0.056923646 0.03552516 0.30604452 -0.08257131 0.031435624 -0.13568273 -0.15257783
-0.049969688 -0.024132134 0.22211406 -0.023685133 0.005147965 0.090349406 -0.06669645 0.11062701
0.023833577 -0.019844376 0.006569805 0.11459923 -0.059406288 0.016245402 0.10394103 -0.017128427
0.05398849 -0.15062426 0.04675152 -0.15688777 0.053115766 0.13875856 -0.03895959 -0.044514325
0.10241709 -0.09057705 -0.07126279 -0.08959648 -0.0547536 0.09304257 0.004514713 -0.10413553
0.048674088 0.05140713 -0.09071866 -0.08019022 -0.008489037 -0.06731085 0.11752479 0.102094755
0.054896392 -0.046385072 -0.053721547 0.011604479 0.037746593 0.054861113 -0.059944898 0.013989692
0.06315653 0.057767816 0.03369031 0.08986034 -0.007285316 -0.032647435 0.037529025 0.08082104
-0.048120968 0.11110757 0.10898795 0.16018368 0.21048151 0.28125036 -0.12877771 -0.08859849
00000000: d295 adbd 944e 8ebe 4aec 2ebe 6886 f73d
00000010: 0fb2 a83c a9da 9cbd ac7c 0c3e 38d3 98be
00000020: b790 5cbd 64a2 343e 8ce4 5f3e 0d7f 853d
00000030: 29ff 83bc 928e 1abe f394 463d 1066 5e3c
00000040: fbc7 693d a2c2 60be d37d 6ebd cb9f b93c
00000050: 68b0 abbc ab2d 0dbd d49c 0abe 16eb 873d
00000060: 3093 bd3c 32af 7bbd dc7e 4e3d e8c0 153d
00000070: 5dcb c23d d343 35be 2fb4 3e3e d5f0 f5bc
00000080: 839b c73b 9dfa 45be 1b88 eebc f052 1b3e
00000090: 263f 70b9 e59b a0be 74f3 993d 966b 053e
000000a0: 46a8 0bbe 8692 68bc e20b 023c a05a 6f3d
000000b0: dca3 2f3e 6f8e 4abd cb11 c13d d3b5 73bd
000000c0: 4924 803b 4bee 4ebe eaab 363e 1164 3d3c
000000d0: ab6f a83d f752 eebd a08d 673d 1e54 983d
000000e0: 9786 34be 2690 ae3c d061 c8bc dead 053e
000000f0: 283b 68bd dd75 5fbe 5f48 f8bd e2d1 743e
00000100: 820f 1e3d 2806 253c 4dd9 043e 1213 a7bd
00000110: 04c0 723d 1088 0abd b81c b13b 0670 b9bc
00000120: 7a29 d4bd ad23 67bd e563 573d ac68 d33d
00000130: 964b 08bd de83 203e 43ce 6f3d 9f4d 05be
00000140: 5209 bb3c 9763 873d c693 653d 51fd 70be
00000150: a11d cf3d 0ecb b43b bc44 5bbd f5df 0d3e
00000160: aa4d c9bd de6d b73d 4125 893c bb87 903d
00000170: 765e 8a3e d899 9f3c 9a9f 0d3e 958b 3bbd
00000180: e12c 83bd 4471 06be 3147 80be 0c63 aebd
00000190: 1169 34be 5aa3 fd3d 9778 7abd 857e e73b
000001a0: af55 ba3d e6bb 4bbd 58e8 b0bd b42b 20be
000001b0: c4dc 8e3d dcba 953d c116 25be bacd 593d
000001c0: 9838 3ebd 254d 333e 7ca2 13be a33b 433e
000001d0: 92ce 093e bc9d 93bc 2e24 4bbe 585e 29be
000001e0: a3c2 4b3e 8d96 6c3d 5530 df3d 1fac 9ebd
000001f0: 902e 1c3e 1803 fb3d 60c0 b13c 04bd c53c
00000200: d4ec 22be 2d5d 03be 7a02 133e 0880 193e
00000210: b192 8bbd 0ce5 043e 1884 e1bd 640b 903d
00000220: 0422 29be dcb2 023e 4fd6 b83d badb 93bc
00000230: e54a 83be 68ac 2fbe 84ed 0fbe 8566 0e3d
00000240: 282c 50be 2157 68be d302 b53d fd31 d6bb
00000250: cd91 0e3d ca36 8ebd 6f3c 96be 6b0c 453e
00000260: f7dd b73d 6122 8e3d b068 943d 977b 5e3e
00000270: 0a4a d13d f4e2 0a3d 8761 223e 8467 ab3c
00000280: 0412 e5bd 4e47 1bbe 9c93 99bd 8bd2 183e
00000290: 7776 a5bb dc0c ffbd 0f04 6f3e fc63 673e
000002a0: 0e80 243e 5df5 50be 6e30 d93c 41e2 6dbd
000002b0: 3fa6 d0bc 6a2c 993d f70e 84be f794 433e
000002c0: 086a 8c3d bebb 553d 0295 66be f526 e13d
000002d0: 2b18 c53b d79f b4bd f9da dd3d 5740 823e
000002e0: 5f21 34bb c528 69bd d582 113d deb1 9c3e
000002f0: 261b a9bd a4c2 003d 6af0 0abe 5d3d 1cbe
00000300: 04ad 4cbd c1b0 c5bc de71 633e 5307 c2bc
00000310: 43b0 a83b 1c09 b93d 2698 88bd 6a90 e23d
00000320: a23e c33c ac90 a2bc 8547 d73b 00b3 ea3d
00000330: 0254 73bd 1415 853c 09df d43d ea50 8cbc
00000340: 0923 5d3d 3f3d 1abe 867e 3f3d 30a7 20be
00000350: eb8f 593d b916 0e3e 1794 1fbd a754 36bd
00000360: 0dc0 d13d 7680 b9bd 3af2 91bd 5c7e b7bd
00000370: 5045 60bd 1a8d be3d 28f0 933b 0245 d5bd
00000380: 7b5e 473d 4890 523d b4ca b9bd c53a a4bd
00000390: 9a15 0bbc 45da 89bd d6b0 f03d 0e17 d13d
000003a0: 0adb 603d 46fe 3dbd 200b 5cbd b620 3e3c
000003b0: 2c9c 1a3d 0cb6 603d c888 75bd 0535 653c
000003c0: 3658 813d f29d 6c3d dafe 093d b308 b83d
000003d0: a9b9 eebb 51b9 05bd 09b8 193d 8085 a53d
000003e0: 7e1a 45bd 5e8c e33d 1335 df3d 3107 243e
000003f0: 7788 573e 0c00 903e 4ede 03be 2073 b5bd
