data/user_properties/trained_weights/CrabNet-agl_log10_thermal_expansion_300K.pth (torch_old, 263425 bytes, 60 tensors)

prelu1.weight f4 [12]
0.11848804 -0.2716292 -0.10723523 -0.06832966 -0.062230233 -0.066167675 -0.07001034 -0.06542515
-0.07687429 -0.061469026 -0.05481782 -0.065715775
00000000: dca9 f23d fc12 8bbe 259e dbbd 6cf0 8bbd
00000010: 21e5 7ebd eb82 87bd 9561 8fbd 9ffd 85bd
00000020: 4570 9dbd f2c6 7bbd a788 60bd fe95 86bd

fc1.weight f4 [64, 119]
-0.14880715 -0.018069252 -0.059124343 -0.045529097 -0.052002862 -0.05643794 -0.031936083 -0.21132158
-0.046318702 0.033633884 -0.07181282 -0.061611462 0.02207784 0.16332138 -0.05408681 0.061912794
-0.022439556 -0.010709283 -0.21315108 -0.051404327 0.08173399 0.014709897 -0.111692 -0.010440012
-0.071761616 -0.0048314147 0.015930396 -0.11686569 0.03103834 0.07928553 0.0013944185 -0.02596953
0.086638935 0.040010493 0.099580996 -0.016705222 -0.1874901 -0.088188276 0.09432732 0.012016908
-0.047621887 -0.054840118 -0.054287575 -0.07276461 -0.05503713 -0.041443557 0.017991573 -0.028297791
-0.0017156852 -0.01613217 0.33101442 0.0059083337 0.14271256 -0.07545683 -0.12073447 -0.067889936
0.11121752 0.011965753 0.0525149 0.019503769 -0.028753377 -0.17760152 -0.04122057 0.109681
0.08696532 -0.042175215 -0.036001958 -0.03272613 -0.026657112 -0.17060643 0.12889531 -0.023301076
-0.045586225 -0.072822064 -0.069263205 -0.08223898 -0.06514306 -0.059511337 -0.021861495 0.18535854
-0.03455119 -0.040365003 0.019975359 0.100382715 -0.06522247 -0.17818947 -0.17146084 -0.15752587
-0.21330181 -0.134668 -0.053052872 -0.045840744 0.02051058 -0.036615957 -0.012844738 -0.09546448
-0.06366883 -0.19410305 -0.19514808 -0.2162115 -0.1838946 -0.05924019 -0.15439141 -0.14023197
-0.08712016 -0.16336322 -0.15338822 -0.14075565 -0.2118709 -0.16456501 -0.1935507 -0.20295836
-0.16879587 -0.0548513 -0.047836814 -0.092460796 -0.10473417 -0.12303374 -0.06649599 -0.053448286
0.020616168 -0.20379911 0.07619676 0.107805446 -0.09018564 -0.022772372 -0.010126862 0.04378841
0.12969801 -0.11719263 0.11175905 0.06706146 -0.02425773 0.04779695 0.004723315 0.0415754
0.06795819 -0.11573175 0.13144815 0.010003679 0.081145115 0.061793894 -0.003594858 -0.015075585
0.0655709 -0.27571097 -0.035570472 0.15078454 -0.002976111 0.04001225 0.05156471 -0.0378195
-0.1843464 0.08536532 0.17165446 -0.07734542 0.17009537 0.036509294 0.063699014 0.17747584
0.023485731 0.073606156 0.042133324 0.12641558 0.040133193 -0.05059946 0.08027879 -0.0015210673
-0.059621282 0.05566177 -0.10655091 -0.010984373 0.05024498 0.02696319 0.12104392 0.07990018
0.02875964 0.21955064 0.029989034 -0.08438472 -0.15946874 -0.16127236 0.0074577183 0.08887376
0.050623175 0.03999198 0.077327535 0.086347856 -0.031700198 0.027786093 0.044005957 0.14765537
0.11808896 0.014361294 0.060159016 0.06442049 0.051476996 0.056902934 0.018979348 0.06931673
0.023406604 0.018078655 -0.08855296 -0.08075057 -0.07726474 -0.13785324 -0.06140814 -0.19417828
-0.113957405 0.23088002 0.0996747 0.1200564 -0.07992915 0.13986968 -0.08119221 -0.13386424
-0.09313737 -0.03919299 -0.06615445 -0.08629949 -0.18943945 -0.033289507 -0.17287968 -0.20104642
-0.05561275 -0.1315656 -0.033394836 -0.15185252 -0.037301574 -0.07266883 -0.17464048 -0.0943629
-0.061426327 -0.21064743 -0.044243675 -0.08272601 -0.12660058 -0.018329106 -0.1068127 0.034302853
-0.08794094 0.039364714 -0.054542568 -0.101335 -0.44146207 -0.19244465 -0.021808822 0.13089328
-0.11203542 0.014858298 0.13689373 -0.047165144 0.023674618 -0.0341383 0.024329701 0.077455096
00000000: e760 18be f805 94bc 5e2c 72bd b87c 3abd
00000010: f400 55bd 782b 67bd 69cf 02bd af64 58be
00000020: aeb8 3dbd afc3 093d 9a12 93bd 4d5c 7cbd
00000030: 96dc b43c b83d 273e 228a 5dbd 4598 7d3d
00000040: 29d3 b7bc fd75 2fbc 4744 5abe 588d 52bd
00000050: 2664 a73d c801 713c c6be e4bd 960c 2bbc
00000060: c1f7 92bd d850 9ebb 7680 823c 4757 efbd
00000070: 1e44 fe3c 7460 a23d ecc4 b63a 0dbe d4bc
00000080: c16f b13d 0be2 233d 1ff1 cb3d 64d9 88bc
00000090: 68fd 3fbe 0e9c b4bd af2e c13d 91e2 443c
000000a0: 2b0f 43bd 08a0 60bd a65c 5ebd 9d05 95bd
000000b0: 9d6e 61bd b8c0 29bd 1063 933c c5d0 e7bc
000000c0: d8e0 e0ba 9d27 84bc b97a a93e b29a c13b
000000d0: 3e23 123e 1c89 9abd a243 f7bd e109 8bbd
000000e0: 03c6 e33d 010c 443c dd19 573d 5ec6 9f3c
000000f0: 348c ebbc 2cdd 35be e7d6 28bd 6fa0 e03d
00000100: e01a b23d ebbf 2cbd ca76 13bd d60b 06bd
00000110: 0460 dabc 74b3 2ebe 22fd 033e e6e1 bebc
00000120: 9fb8 3abd bc23 95bd ded9 8dbd e96c a8bd
00000130: ba69 85bd 29c2 73bd e116 b3bc a1ce 3d3e
00000140: 8c85 0dbd c655 25bd 5da3 a33c 7495 cd3d
00000150: 5c93 85bd 4d77 36be 6e93 2fbe 764e 21be
00000160: ca6b 5abe 68e6 09be f84d 59bd 81c3 3bbd
00000170: ce05 a83c 9dfa 15bd bc72 52bc e282 c3bd
00000180: ce64 82bd f3c2 46be e6d4 47be 8c66 5dbe
00000190: de4e 3cbe d7a5 72bd c818 1ebe f898 0fbe
000001a0: 0e6c b2bd b048 27be cd11 1dbe 4022 10be
000001b0: aff4 58be bb83 28be 2832 46be 51d4 4fbe
000001c0: d3d8 2cbe c2ab 60bd 89f0 43bd 165c bdbd
000001d0: de7e d6bd 1df9 fbbd 0d2f 88bd 97ec 5abd
000001e0: 3de3 a83c b7b0 50be 0c0d 9c3d 1ac9 dc3d
000001f0: 40b3 b8bd 208d babc 23eb 25bc 7a5b 333d
00000200: 8ecf 043e b102 f0bd eee1 e43d 8557 893d
00000210: 26b8 c6bc bcc6 433d 0ac6 9a3b f74a 2a3d
00000220: aa2d 8b3d c504 edbd 589a 063e 79e6 233c
00000230: 692f a63d 981b 7d3d b697 6bbb 96ff 76bc
00000240: 094a 863d fd29 8dbe 58b2 11bd 4367 1a3e
00000250: db0a 43bb e3e3 233d 8435 533d 9fe8 1abd
00000260: 4dc5 3cbe 03d4 ae3d 30c6 2f3e 4767 9ebd
00000270: 7b2d 2e3e c58a 153d a174 823d 3abc 353e
00000280: 2665 c03c d3be 963d fe93 2c3d 1673 013e
00000290: b462 243d 6141 4fbd 3569 a43d 8d5e c7ba
000002a0: 7235 74bd 99fd 633d 5d37 dabd cdf7 33bc
000002b0: aecd 4d3d e8e1 dc3c e0e5 f73d b5a2 a33d
000002c0: 5699 eb3c e2d1 603e 90ab f53c e5d1 acbd
000002d0: c64b 23be 9524 25be e05f f43b 7203 b63d
000002e0: 3f5a 4f3d a1ce 233d e65d 9e3d 25d7 b03d
000002f0: 11d8 01bd a99f e33c 973f 343d f832 173e
00000300: a0d8 f13d a24b 6b3c 4d69 763d e4ee 833d
00000310: 8bd9 523d 0d13 693d 947a 9b3c eef5 8d3d
00000320: 35bf bf3c b019 943c 415b b5bd 8e60 a5bd
00000330: fa3c 9ebd 6629 0dbe 1a87 7bbd acd6 46be
00000340: 8062 e9bd d06b 6c3e 4022 cc3d 21e0 f53d
00000350: e5b1 a3bd ff39 0f3e 1a48 a6bd b513 09be
00000360: cebe bebd d488 20bd fc7b 87bd c9bd b0bd
00000370: 6afc 41be 945a 08bd 5f07 31be 1ddf 4dbe
00000380: 32ca 63bd 22b9 06be 06c9 08bd 3a7f 1bbe
00000390: 89c9 18bd 65d3 94bd f4d4 32be 5641 c1bd
000003a0: 2c9a 7bbd f6b3 57be db38 35bd 416c a9bd
000003b0: 95a3 01be ec26 96bc 9ec0 dabd 2681 0c3d
000003c0: 611a b4bd e53c 213d 0768 5fbd b988 cfbd
000003d0: 5107 e2be 3610 45be 6aa8 b2bc e308 063e
000003e0: d472 e5bd 3870 733c df2d 0c3e 3d30 41bd
000003f0: 46f1 c13c 9ad4 0bbd 154f c73c c7a0 9e3d

fc1.bias f4 [64]
-0.008466549 -0.059960186 -0.0038685128 -0.010443583 -0.011873051 -0.06510568 0.05063798 -0.07246315
0.10207672 0.016518854 -0.0025961378 -0.09965413 -0.0046930923 0.002105924 0.0039983275 -0.0009827772
0.0288372 0.021363165 -0.10167912 -0.020048011 -0.018864589 0.00031908895 0.0032352689 0.08556553
-0.063582756 0.0027820943 0.003695 0.016207457 0.0140529955 -0.07679521 -0.027590312 0.0028588655
-0.01808431 0.03251125 -0.0007227409 0.07648011 -0.0033398233 0.015816502 0.0048679006 -0.0032532099
0.07727973 0.03575942 0.0010580395 0.0048866877 -0.0010310442 -0.005956731 -0.011805134 0.0017043258
0.0059611876 0.0058852187 -0.11048174 -0.0061801025 -0.007395118 0.13837409 -0.046134923 0.09310828
-0.0024554029 -0.022772199 -0.0062001985 0.010764889 -0.0013718536 -0.0008359989 0.004454155 -0.0044638272
00000000: 48b7 0abc d098 75bd e086 7dbb 901b 2bbc
00000010: 2f87 42bc 2056 85bd c569 4f3d 8f67 94bd
00000020: 990d d13d 8c52 873c f723 2abb 7717 ccbd
00000030: 83c8 99bb 8b03 0a3b 6704 833b 88d0 80ba
00000040: fe3b ec3c ce01 af3c 243d d0bd ba3b a4bc
00000050: e989 9abc 654b a739 ce06 543b fb3c af3d
00000060: ad37 82bd cc53 363b d027 723b 80c5 843c
00000070: 893e 663c cf46 9dbd 1405 e2bc ce5b 3b3b
00000080: 8c25 94bc 842a 053d 5276 3dba 9ba1 9c3d
00000090: f0e0 5abb 9c91 813c e982 9f3b ce33 55bb
000000a0: d644 9e3d 7878 123d eaad 8a3a 8220 a03b
000000b0: 1a24 87ba ae30 c3bb 526a 41bc af63 df3a
000000c0: 1156 c33b cbd8 c03b 4044 e2bd 7582 cabb
000000d0: bf52 f2bb f0b1 0d3e f9f7 3cbd 8eaf be3d
000000e0: d3ea 20bb c38c babc 092b cbbb 385f 303c
000000f0: c5cf b3ba f026 5bba 29f4 913b 4c45 92bb

fc2.weight f4 [64, 64]
-0.08861979 -0.0076660225 0.08289717 -0.11817035 0.050526235 0.08593693 0.015423228 -0.05798203
0.03415582 0.08939971 0.13110556 0.037365858 -0.07623233 -0.03345119 0.049322978 -0.058050852
0.06005875 0.015502127 -0.053807814 0.08355436 0.11847967 -0.032933228 -0.14126082 0.06266627
0.11212287 0.12032528 -0.11947937 0.07027938 0.07354143 0.0384278 -0.10789318 -0.019956028
0.086660914 0.10574898 -0.09896634 -0.10925279 -0.12202211 0.0797427 -0.086493365 0.08628974
0.019873163 0.07909134 -0.03083445 0.048886884 0.02958953 0.10795858 0.063769996 -0.018192064
0.0553174 0.028865865 0.051167108 -0.1449393 0.04164761 -0.112271026 -0.117457375 -0.11291907
-0.055004634 -0.12268733 0.011177485 0.10248868 0.0023591497 -0.107119426 0.013004945 -0.073835574
0.07645536 0.08134403 0.00050909 -0.062234584 0.007840375 0.035352696 0.09569559 -0.10666303
0.009907866 0.041171826 -0.010649912 0.050887894 -0.055746045 -0.0705943 0.016156457 -0.033632226
-0.09378555 0.0060532335 -0.091339365 -0.09578288 0.04956211 -0.012295071 -0.06943301 -0.10359543
0.11975124 0.121727265 -0.063671105 0.09504512 -0.057238676 -0.10363393 0.04601193 -0.050963536
0.018745465 -0.082580715 -0.09780344 -0.025578836 0.023750773 -0.043932468 0.020815758 -0.019935586
0.15301573 -0.044451326 0.04931624 -0.0943459 0.06892251 0.026707778 -0.09701407 0.076680005
-0.0023895216 0.0506592 0.026889058 -0.14966036 0.09139031 0.07200955 -0.05172486 -0.051455546
-0.09881751 0.072909504 0.10084634 0.1500505 -0.06961827 -0.036483437 0.0738308 0.019496113
0.0255113 -0.013677981 0.10265533 -0.03612422 -0.06922904 0.10489364 0.08426824 0.056034014
-0.09955929 0.12023795 -0.090694316 0.09510283 0.009140432 -0.01978343 0.0344139 -0.07676847
-0.03310385 -0.008370061 -0.0927779 -0.037556324 0.06982298 0.062328957 0.08725438 0.0433504
-0.07736534 0.032091897 -0.059639644 -0.05096654 -0.017840575 0.01460923 -0.12417545 0.11795488
0.021603564 -0.03591861 0.0078104204 0.005780315 0.01877346 0.12720759 0.022653304 -0.08452472
0.11734608 0.11784173 -0.008459041 0.11777457 0.10725437 -0.020031415 0.027385391 0.04434987
-0.049633287 -0.012490293 0.087013386 -0.09769178 -0.023993788 -0.07279725 0.04301416 -0.07682774
-0.027703969 0.08228027 0.08369033 0.08272044 0.07938736 -0.12424025 0.037733912 0.02646281
0.036781356 0.049783405 -0.046188913 0.09824505 -0.0023510286 0.06479779 0.116955146 -0.15565574
0.0041881306 -0.05879467 0.03006845 0.06825744 -0.09114854 -0.025873989 0.042987168 0.13029885
-0.07619678 0.0018720694 0.06364181 0.06176354 0.010224742 -0.01759099 0.059423584 -0.07512346
0.07481774 0.083276905 0.03311595 0.041598983 0.11560103 -0.09415898 0.04078427 -0.07591829
-0.11486348 -0.09164909 -0.055625398 0.0085251 -0.09581452 0.09779289 -0.07692642 6.6275315e-05
0.066341475 -0.035618797 -0.0031168873 0.009766891 -0.07038412 -0.020390257 -0.10813515 0.1032161
-0.026104579 0.110099554 -0.08643594 -0.037782706 0.03966519 0.10351965 0.06223369 0.00068733515
0.07815439 0.11382741 0.0036537333 0.05025273 -0.01953441 -0.0717347 0.11509788 0.076487616
00000000: 4b7e b5bd 4233 fbbb fec5 a93d 4c03 f2bd
00000010: 99f4 4e3d b3ff af3d b5b1 7c3c 917e 6dbd
00000020: f9e6 0b3d 3217 b73d 8940 063e f10c 193d
00000030: b21f 9cbd 1d04 09bd e406 4a3d bbc6 6dbd
00000040: 2a00 763d a2fc 7d3c 9565 5cbd 8c1e ab3d
00000050: 78a5 f23d fee4 06bd ada6 10be 2c57 803d
00000060: ada0 e53d 1a6d f63d 9ab1 f4bd a3ee 8f3d
00000070: e49c 963d 7866 1d3d 19f7 dcbd d37a a3bc
00000080: 477b b13d ec92 d83d ddae cabd edbf dfbd
00000090: bae6 f9bd 2450 a33d 6f23 b1bd adb8 b03d
000000a0: 0bcd a23c a4fa a13d 8798 fcbc 9d3d 483d
000000b0: be65 f23c 6319 dd3d d899 823d 8607 95bc
000000c0: 7f94 623d 1b78 ec3c 9a94 513d f86a 14be
000000d0: af96 2a3d 5aee e5bd 7e8d f0bd 1d42 e7bd
000000e0: 8a4c 61bd 7f43 fbbd c521 373c 96e5 d13d
000000f0: f79b 1a3b 6e61 dbbd b112 553c 1b37 97bd
00000100: a194 9c3d b397 a63d 7474 053a b1e9 7ebd
00000110: eb74 003c fdcd 103d 0dfc c33d 2672 dabd
00000120: 9a54 223c caa3 283d f87c 2ebc d36f 503d
00000130: f755 64bd bf93 90bd 8c5a 843c f2c1 09bd
00000140: a312 c0bd 345a c63b 2210 bbbd d129 c4bd
00000150: a401 4b3d 4471 49bc e532 8ebd d729 d4bd
00000160: 2340 f53d 254c f93d ff65 82bd 04a7 c23d
00000170: 1a73 6abd 073e d4bd 0177 3c3d 24bf 50bd
00000180: 1790 993c 1420 a9bd 2c4d c8bd b58a d1bc
00000190: fb90 c23c 88f2 33bd cf85 aa3c f44f a3bc
000001a0: 28b0 1c3e 9812 36bd d3ff 493d 6c38 c1bd
000001b0: 3f27 8d3d 45ca da3c 50af c6bd 680a 9d3d
000001c0: 8599 1cbb 0580 4f3d 7146 dc3c 9140 19be
000001d0: d82a bb3d be79 933d 72dd 53bd 0dc3 52bd
000001e0: d660 cabd 9451 953d 8788 ce3d d7a6 193e
000001f0: 0694 8ebd a86f 15bd 9a34 973d 50b6 9f3c
00000200: 13fd d03c 9c19 60bc f53c d23d fdf6 13bd
00000210: f4c7 8dbd 7ad2 d63d d494 ac3d ec83 653d
00000220: bee5 cbbd 503f f63d f1bd b9bd 46c5 c23d
00000230: c0c1 153c dc10 a2bc 97f5 0c3d ca38 9dbd
00000240: e797 07bd 9522 09bc 5702 bebd a9d4 19bd
00000250: 5aff 8e3d a64c 7f3d 6db2 b23d 3090 313d
00000260: b871 9ebd cb72 033d b348 74bd 4ac2 50bd
00000270: 6626 92bc 8d5b 6f3c b34f febd 5492 f13d
00000280: f5f9 b03c 641f 13bd 8eee ff3b cc68 bd3b
00000290: cdca 993c b542 023e 6c93 b93c 4c1b adbd
000002a0: 2453 f03d 0157 f13d ca97 0abc cb33 f13d
000002b0: 2ea8 db3d ec18 a4bc 5457 e03c 36a8 353d
000002c0: 464c 4bbd 16a4 4cbc 1334 b23d a112 c8bd
000002d0: 9f8e c4bc b916 95bd 9e2f 303d dd57 9dbd
000002e0: 6ff3 e2bc 8f82 a83d d665 ab3d 5669 a93d
000002f0: d795 a23d ac71 febd e08e 1a3d 89c8 d83c
00000300: 0ca8 163d afe9 4b3d 9630 3dbd b334 c93d
00000310: b713 1abb b4b4 843d 2e86 ef3d 3864 1fbe
00000320: 963c 893b aed2 70bd 1c52 f63c 8fca 8b3d
00000330: 16ac babd b0f5 d3bc 5013 303d 106d 053e
00000340: 0f0d 9cbd 3a60 f53a a356 823d c4fb 7c3d
00000350: ad85 273c fb1a 90bc 2566 733d 54da 99bd
00000360: 0b3a 993d 158d aa3d 97a4 073d b263 2a3d
00000370: 3cc0 ec3d 6cd6 c0bd 680d 273d 0c7b 9bbd
00000380: 8b3d ebbd 85b2 bbbd 75d7 63bd dcac 0b3c
00000390: 673a c4bd a447 c83d 998b 9dbd 4afd 8a38
000003a0: 0ade 873d 04e5 11bd b144 4cbb 4f05 203c
000003b0: 8d25 90bd 7809 a7bc f675 ddbd f662 d33d
000003c0: 45d9 d5bc e07b e13d 5305 b1bd 0ac2 1abd
000003d0: f777 223d 1c02 d43d c1e8 7e3d 482e 343a
000003e0: 690f a03d 581e e93d 7973 6f3b ced5 4d3d
000003f0: a106 a0bc a4e9 92bd 70b8 eb3d 8aa5 9c3d

fc2.bias f4 [64]
0.100162245 -0.09962201 -0.004117077 0.055886734 0.030355467 -0.11928807 0.010437696 -0.08748717
0.046603505 -0.01964156 -0.062791765 -0.08273148 0.015137127 -0.023340244 0.02750065 0.027090276
0.11532694 -0.09062744 0.115280256 -0.08665417 0.11138627 -0.07980896 0.062293414 0.08190724
0.11238061 0.06372797 0.05814622 -0.126629 0.10926058 -0.05068913 -0.0011295109 -0.06297127
0.094057344 0.043487743 0.07334739 0.03047402 0.006742544 0.05881821 -0.040029928 -0.010739569
0.09581016 -0.03266482 -0.124024525 0.09464141 0.090667136 0.04690621 -0.081370816 -0.114374764
0.045794725 -0.13914733 -0.12470046 0.10018349 0.079146884 -0.1031378 0.06266882 0.03397719
0.09608495 -0.10984974 -0.10794966 0.051349517 -0.11681825 0.0041611954 -0.0040945825 0.1288891
00000000: dd21 cd3d a006 ccbd 8ce8 86bb 7de9 643d
00000010: 07ac f83c 4e4d f4bd df02 2b3c 792c b3bd
00000020: 51e3 3e3d 56e7 a0bc f898 80bd 1f6f a9bd
00000030: b601 783c 0a34 bfbc 0b49 e13c 6dec dd3c
00000040: 8830 ec3d e19a b9bd 0e18 ec3d be77 b1bd
00000050: 7c1e e43d e172 a3bd 6127 7f3d fcbe a73d
00000060: ce27 e63d cf83 823d bb2a 6e3d 08ab 01be
00000070: 03c4 df3d 689f 4fbd 190c 94ba 15f7 80bd
00000080: 23a1 c03d 3420 323d 2837 963d a7a4 f93c
00000090: 8ff0 dc3b 5deb 703d 6cf6 23bd 04f5 2fbc
000000a0: 1e38 c43d 8ccb 05bd 9200 febd 5bd3 c13d
000000b0: b1af b93d ba20 403d bea5 a6bd 513d eabd
000000c0: 4093 3b3d a37c 0ebe f462 ffbd 002d cd3d
000000d0: c317 a23d e939 d3bd 8358 803d aa2b 0b3d
000000e0: 30c8 c43d e7f8 e0bd b614 ddbd df53 523d
000000f0: 683e efbd a35a 883b d92b 86bb 81fb 033e

fc3.weight f4 [1, 64]
0.124359764 0.054878846 0.04664459 0.032453712 0.04384394 -0.084453285 0.029653186 0.00055576867
-0.06694099 -0.0014286558 -0.0065298523 -0.07508558 -0.056940306 -0.00054053665 0.06067296 0.07274584
-0.1244856 0.03759602 0.03580171 0.010015687 0.10169588 0.009376188 0.042352527 0.097336344
0.023523621 -0.12472413 -0.0024170151 -0.07874754 -0.11671847 0.11689144 -0.00078953867 0.08023368
-0.008370871 0.06514486 -0.1220962 0.07546953 -0.100896455 0.00019643197 -0.10088093 0.084066406
-0.0421142 -0.089018606 -0.08225713 0.04902459 -0.045531332 0.059371475 0.03555673 0.039855428
0.043900073 -0.00074452325 0.008685975 -0.010553222 0.045359142 -0.015280111 -0.06307689 0.06813927
-0.09149258 -0.13269593 0.022716321 0.00019428087 -0.11156837 -0.0025167782 -0.011718765 0.06669563
00000000: 55b0 fe3d a4c8 603d 660e 3f3d 2fee 043d
00000010: b495 333d d8f5 acbd 3deb f23c 01b1 113a
00000020: 5c18 89bd bc41 bbba 5ff8 d5bb 78c6 99bd
00000030: 3d3a 69bd cdb2 0dba 3684 783d c5fb 943d
00000040: 4ef2 febd 49fe 193d d0a4 123d d618 243c
00000050: ee45 d03d 959e 193c d879 2d3d 4758 c73d
00000060: 9cb4 c03c 5d6f ffbd c966 1ebb 6446 a1bd
00000070: 180a efbd c764 ef3d 0bf9 4eba 8e51 a43d
00000080: fa25 09bc ab6a 853d 930d fabd c58f 9a3d
00000090: cda2 cebd 4ef9 4d39 a99a cebd 022b ac3d
000000a0: f07f 2cbd 634f b6bd 6d76 a8bd 02ce 483d
000000b0: 107f 3abd 812f 733d efa3 113d 723f 233d
000000c0: 90d0 333d 1c2c 43ba 9f4f 0e3c 6ce7 2cbc
000000d0: 82ca 393d 6e59 7abc 752e 81bd 9a8c 8b3d
000000e0: 7660 bbbd 71e1 07be 9417 ba3c e0b7 4b39
000000f0: f57d e4bd 88f0 24bb 1000 40bc b897 883d

attentionblocks.0.layernorm0.weight f4 [64]
1.0353837 0.97860235 0.99991536 1.0357187 1.0520216 0.8721727 0.97416526 0.8764937
0.9319561 1.0775915 1.0700668 0.9369634 1.0455532 1.0801507 1.0968183 1.0323524
1.0129449 1.018551 0.8934202 0.9991594 0.977695 1.0018765 1.0710582 0.93183976
0.9439192 1.0077424 1.021338 1.0657316 1.0258324 0.93852234 1.0155478 1.030909
1.0284564 1.0290657 1.0679281 0.93562424 1.0256281 1.0143288 1.001549 1.0127628
0.9539116 0.9824169 1.0972097 1.0389822 1.0059875 1.0924668 1.016717 1.0152602
1.0428838 1.0656651 0.90453744 1.0195991 1.0974405 0.82502335 0.92279124 0.9387231
1.0277416 1.0114272 1.014018 1.118643 1.068474 1.1204755 1.1146929 0.9890235
00000000: 7487 843f af85 7a3f 74fa 7f3f 6e92 843f
00000010: a5a8 863f b646 5f3f e562 793f e461 603f
00000020: ad94 6e3f 85ee 893f f3f7 883f d5dc 6f3f
00000030: b0d4 853f 6142 8a3f 8b64 8c3f 2024 843f
00000040: 2ea8 813f e15f 823f 30b7 643f e9c8 7f3f
00000050: 384a 7a3f 7d3d 803f 6f18 893f 0d8d 6e3f
00000060: b0a4 713f b4fd 803f 34bb 823f e569 883f
00000070: 7a4e 833f 0043 703f 78fd 813f d3f4 833f
00000080: 76a4 833f 6db8 833f deb1 883f 1285 6f3f
00000090: c847 833f 87d5 813f c232 803f 36a2 813f
000000a0: 8d33 743f ad7f 7b3f 5e71 8c3f 5efd 843f
000000b0: 33c4 803f f4d5 8b3f c823 823f 0cf4 813f
000000c0: 377d 853f b767 883f c48f 673f 3982 823f
000000d0: ee78 8c3f bb34 533f 0c3c 6c3f 2850 703f
000000e0: 098d 833f 7276 813f 58cb 813f b22f 8f3f
000000f0: c2c3 883f be6b 8f3f 42ae 8e3f a530 7d3f

attentionblocks.0.layernorm0.bias f4 [64]
0.036724765 0.01415416 0.026293175 0.00057923095 0.0043293294 0.00038788922 -0.0122815985 0.06695974
-0.024475923 -0.015342537 0.0045749745 0.0066453554 0.009076682 -0.014335448 -0.00266129 0.01178801
-0.01042526 -0.022839233 0.029726597 0.03324128 -0.0021661338 -0.050357368 -0.0033520022 -0.054145813
0.028780818 -0.010022777 -0.00035776995 -0.10668162 -0.044951703 0.04713578 0.0076072523 -0.010438479
0.028042508 -0.024922878 0.015345502 0.012440331 -0.024532706 -0.06502844 0.008185996 0.016157009
-0.013657774 -0.04050004 -0.015611573 -0.028990911 0.021013359 -0.039933268 -0.0057765464 0.016908942
-0.013994592 -0.009804595 0.039185714 0.012549369 0.014124088 -0.09876559 0.04699431 -0.011637787
0.0011217834 0.00027457494 -0.022547904 -0.03722376 -0.03164194 0.011197407 -0.016360614 0.05469632
00000000: b56c 163d dae6 673c c964 d73c 88d7 173a
00000010: 0cdd 8d3b 9c5d cb39 c238 49bc 3022 893d
00000020: bb81 c8bc 445f 7bbc abe9 953b 48c1 d93b
00000030: 5db6 143c 3adf 6abc 0a69 2ebb 7f22 413c
00000040: b6ce 2abc 5819 bbbc 3185 f33c 0228 083d
00000050: b2f5 0dbb 8743 4ebd 44ad 5bbb 00c8 5dbd
00000060: c0c5 eb3c 9336 24bc 1293 bbb9 e57b dabd
00000070: 471f 38bd 7311 413d 4246 f93b 2706 2bbc
00000080: 67b9 e53c 102b ccbc b36b 7b3c 88d2 4b3c
00000090: d0f8 c8bc a12d 85bd 8e1e 063c b45b 843c
000000a0: dbc4 5fbc 5fe3 25bd afc7 7fbc 597e edbc
000000b0: 3524 ac3c 1191 23bd 2f49 bdbb 9f84 8a3c
000000c0: 9349 65bc 74a3 20bc 3381 203d de9b 4d3c
000000d0: b868 673c 9d45 cabd 1b7d 403d 6bac 3ebc
000000e0: ce08 933a d3f4 8f39 62b6 b8bc f177 18bd
000000f0: fb9a 01bd 5475 373c b206 86bc 4009 603d

attentionblocks.0.layernorm1a.weight f4 [64]
1.0569612 0.952434 1.0369426 1.0953187 1.0759077 0.97358847 0.9728555 0.91456217
0.9536398 1.0456536 1.0626203 0.9700362 1.0551238 1.0681678 1.0263591 1.0350478
1.0365021 1.1141859 0.95108086 0.9699069 0.9718824 0.9870013 1.0396843 0.95640117
0.9506794 1.0815862 0.9919202 1.0175873 1.0157869 0.955026 0.99294746 1.0515325
1.0095972 0.9902402 1.1208383 0.9354841 0.9980283 1.0560797 1.1012837 1.003194
0.96196234 0.99195945 1.0139452 1.0625362 1.026333 1.046503 1.0126083 0.9970387
1.0158805 1.0588151 0.9359384 1.0075542 1.1076132 0.9533201 0.93531543 0.9589148
1.079532 0.9635429 0.98822826 1.0554518 1.1048391 1.0441158 1.0702237 0.9870015
00000000: 814a 873f b7d2 733f 89ba 843f 6733 8c3f
00000010: 58b7 893f 183d 793f 0f0d 793f bf20 6a3f
00000020: bd21 743f fad7 853f f103 883f 4b54 783f
00000030: 4c0e 873f b9b9 883f bc5f 833f 727c 843f
00000040: 1aac 843f a59d 8e3f 097a 733f d24b 783f
00000050: 49cd 783f 1eac 7c3f 6014 853f b5d6 743f
00000060: ba5f 733f 6b71 8a3f 7bee 7d3f 4d40 823f
00000070: 4e05 823f 957c 743f ce31 7e3f 9e98 863f
00000080: 7b3a 813f 6280 7d3f a177 8f3f e37b 6f3f
00000090: c87e 7f3f 9f2d 873f ddf6 8c3f a968 803f
000000a0: 2a43 763f 0ef1 7d3f f5c8 813f 3001 883f
000000b0: e15e 833f cff3 853f 269d 813f ee3d 7f3f
000000c0: 5f08 823f 4187 873f a999 6f3f 89f7 803f
000000d0: 45c6 8d3f c90c 743f d570 6f3f 717b 753f
000000e0: 1b2e 8a3f bfaa 763f 87fc 7c3f 0b19 873f
000000f0: 5e6b 8d3f 96a5 853f 17fd 883f 21ac 7c3f

attentionblocks.0.layernorm1a.bias f4 [64]
0.025812503 0.004495171 0.011410957 0.02224676 0.0053895502 0.009392412 -0.0075750328 0.040578898
-0.045476545 -0.0056606955 -0.015884109 0.009525372 0.010716706 -0.03996458 0.003638802 0.000119391676
-0.002003412 -0.0046369955 0.08225735 0.0092455 0.002562747 -0.0042276564 0.00083379657 -0.014458858
0.013519435 -0.004866055 0.0274019 -0.03251537 -0.010662277 0.019459803 0.026657775 0.0020535933
0.014179677 -0.00955694 0.0065922304 -0.045191523 -0.0064379903 -0.025743378 0.04876257 0.023724793
-0.029284647 -0.041423194 -0.012627377 -0.031754747 0.02922306 -0.0026690576 0.014846815 0.01612683
-0.024028998 -0.06088643 0.02019338 -0.0034057791 0.0022283648 -0.03421523 0.04902318 -0.043550573
0.012806807 -0.016704043 0.012780237 -0.021010283 -0.006199659 0.012104846 -0.0061556464 0.007909128
00000000: be74 d33c 3a4c 933b 06f5 3a3c d63e b63c
00000010: d39a b03b a2e2 193c fb37 f8bb 0f36 263d
00000020: 9d45 3abd 5b7d b9bb 641f 82bc 4e10 1c3c
00000030: 1f95 2f3c e6b1 23bd f878 6e3b eb61 fa38
00000040: ad4b 03bb f0f1 97bb 8b76 a83d 707a 173c
00000050: c3f3 273b 2788 8abb 2493 5a3a d9e4 6cbc
00000060: 9f80 5d3c 6e73 9fbb f379 e03c d62e 05bd
00000070: d5b0 2ebc 2a6a 9f3c 6861 da3c 9495 063b
00000080: e051 683c b694 1cbc a303 d83b bf1a 39bd
00000090: c7f5 d2bb c7e3 d2bc 43bb 473d 7f5a c23c
000000a0: 5be6 efbc 5eab 29bd 0fe3 4ebc 4411 02bd
000000b0: 3365 ef3c 5beb 2ebb 0e40 733c 6a1c 843c
000000c0: 76d8 c4bc 0d64 79bd 966c a53c 7e33 5fbb
000000d0: c209 123b 4525 0cbd 88cc 483d 1662 32bd
000000e0: a4d3 513c ebd6 88bc 3364 513c c21d acbc
000000f0: 8226 cbbb 6753 463c 4eb5 c9bb 4a95 013c

attentionblocks.0.layernorm1b.weight f4 [64]
1.0076549 1.0511727 0.9721648 1.0042046 1.1235355 1.1777765 1.0223954 1.0761093
1.010346 1.0575138 1.0201364 1.0494827 1.0095545 0.996735 1.042154 1.0309373
1.0043478 1.0155836 1.0335356 1.0220855 1.0113754 0.960887 0.99371845 0.9992997
1.0281523 1.094336 0.9758081 1.0115048 1.005158 0.98692447 1.1304696 1.015885
1.027228 1.0469007 1.0428908 0.99464136 1.0115867 1.031049 1.0233351 1.0697519
1.0614806 1.0865083 1.0109215 1.090351 0.984194 1.0284928 1.061951 0.9634342
1.0270606 1.0245968 1.0031066 1.0403589 1.0552438 0.96369314 1.0775908 1.02843
1.0653874 1.0611136 1.0042349 1.077315 1.0355622 1.0632436 1.0219274 1.0695542
00000000: d6fa 803f d48c 863f cbdf 783f c789 803f
00000010: 03d0 8f3f 61c1 963f dadd 823f f3bd 893f
00000020: 0553 813f 9d5c 873f d493 823f 7355 863f
00000030: 1539 813f 062a 7f3f 4d65 853f c1f5 833f
00000040: 788e 803f a5fe 813f e54a 843f b3d3 823f
00000050: c074 813f b1fc 753f 5564 7e3f 1bd2 7f3f
00000060: 7f9a 833f 3413 8c3f 8fce 793f fd78 813f
00000070: 04a9 803f 15a7 7c3f 3ab3 903f 8508 823f
00000080: 357c 833f d800 863f 727d 853f d1a0 7e3f
00000090: ac7b 813f 6af9 833f a5fc 823f a1ed 883f
000000a0: 99de 873f b412 8b3f e065 813f 9f90 8b3f
000000b0: 23f4 7b3f a7a5 833f 03ee 873f a0a3 763f
000000c0: b976 833f fd25 833f cc65 803f 7b2a 853f
000000d0: 3b12 873f 98b4 763f 7fee 893f 98a3 833f
000000e0: 9d5e 883f 92d2 873f c58a 803f 75e5 893f
000000f0: 4d8d 843f 5e18 883f 84ce 823f 27e7 883f

attentionblocks.0.layernorm1b.bias f4 [64]
0.0054948255 0.015772963 0.0316119 0.0010816171 -0.008540077 0.06921678 -0.0063890866 0.011232736
-0.044924323 -0.007968605 -0.0014211257 0.03723679 -0.0032715658 -0.020031055 -0.023144158 0.008028311
-0.0025651276 -0.006241223 -0.0009505133 0.008477587 -0.013576665 -0.00057407 0.0028321592 -0.024484975
0.018199889 -0.03791934 0.0033018666 -0.011840965 -0.0175767 0.015225496 -0.033214666 -0.004851114
0.03939053 0.012245002 -0.003998774 0.001725885 -0.007663194 0.0064180307 -0.0029887164 0.0074792826
0.0016196728 -0.052563902 0.012804848 -0.023453118 0.008071228 -0.0015610205 -0.031111874 0.02357795
1.882074e-05 0.003274951 0.019641144 0.008032601 -0.011132214 -0.027201008 -0.008468464 0.0041142297
-0.0056055915 0.014889027 -0.0027357037 -0.0009315661 -0.0153128095 -0.046108633 -0.0124355545 0.027644603
00000000: f00d b43b 4d36 813c 7b7b 013d 0cc5 8d3a
00000010: aeeb 0bbc 87c1 8d3d 8b5b d1bb 8209 383c
00000020: 9102 38bd c08e 02bc 1145 baba 9b85 183d
00000030: c467 56bb 2b18 a4bc d198 bdbc 2d89 033c
00000040: b31b 28bb 2c83 ccbb de2b 79ba 94e5 0a3c
00000050: a970 5ebc 307d 16ba bf9b 393b b794 c8bc
00000060: ef17 953c 4f51 1bbd 2164 583b 9b00 42bc
00000070: 03fd 8fbc 5c74 793c 1a0c 08bd 18f6 9ebb
00000080: f757 213d 439f 483c 2608 83bb 1737 e23a
00000090: 881b fbbb 584e d23b 57de 43bb c514 f53b
000000a0: 334b d43a 3f4d 57bd 6dcb 513c c120 c0bc
000000b0: 2f3d 043c 289b ccba 54de febc 8c26 c13c
000000c0: 3be1 9d37 8fa0 563b 77e6 a03c 2c9b 033c
000000d0: e463 36bc a6d4 debc 50bf 0abc a9d0 863b
000000e0: 1caf b7bb 1bf1 733c 7e49 33bb 5834 74ba
000000f0: 94e2 7abc 68dc 3cbd 7fbe 4bbc ef76 e23c

attentionblocks.0.layernorm2a.weight f4 [64]
1.0437146 1.0081708 0.96963817 1.0179055 1.0413616 0.94149226 0.99133927 0.9814684
0.8317896 1.0723653 1.0253395 0.9493155 1.0092422 1.0018524 1.0316159 0.9830459
0.9989433 0.9449238 0.924235 1.0167475 1.018529 0.9035386 1.0030537 0.9469709
0.92953634 1.0545766 0.98924786 1.0046946 1.0162303 0.92163 1.0429785 1.0168731
1.0137026 1.011351 1.0056764 0.944505 1.013333 1.0121588 1.0154487 1.0676856
0.96070737 1.0265096 1.0230277 1.0592939 1.0005047 1.0806624 0.9812756 1.0051525
1.1100655 1.0752616 0.97421676 1.0960822 1.0444163 0.9231036 1.0686303 0.9612456
0.98969734 1.0318485 0.9351078 1.0513642 0.94449705 1.0805188 1.0287869 1.002111
00000000: 7198 853f be0b 813f 353a 783f ba4a 823f
00000010: 564b 853f a305 713f 69c8 7d3f 8341 7b3f
00000020: 2af0 543f 4443 893f 533e 833f 5706 733f
00000030: d92e 813f b33c 803f fd0b 843f e5a8 7b3f
00000040: c0ba 7f3f 87e6 713f aa9a 6c3f c824 823f
00000050: 295f 823f 4e4e 673f 1064 803f af6c 723f
00000060: 18f6 6d3f 5efc 863f 593f 7d3f d599 803f
00000070: d613 823f f2ef 6b3f 5280 853f e628 823f
00000080: 02c1 813f f373 813f 01ba 803f 14cb 713f
00000090: e5b4 813f 6b8e 813f 39fa 813f eca9 883f
000000a0: ebf0 753f ab64 833f 92f2 823f f196 873f
000000b0: 8a10 803f 2553 8a3f e134 7b3f d6a8 803f
000000c0: a016 8e3f 2ca2 893f 4566 793f 6c4c 8c3f
000000d0: 6faf 853f 8450 6c3f e1c8 883f 3114 763f
000000e0: ce5c 7d3f 9d13 843f 3a63 6f3f 1a93 863f
000000f0: 8fca 713f 714e 8a3f 4aaf 833f 2c45 803f

attentionblocks.0.layernorm2a.bias f4 [64]
0.016330043 0.022427952 0.035809584 0.0032641096 0.009068013 0.06353741 -0.014987079 0.019609801
-0.056310683 -0.009229168 -0.0026795266 0.045672767 0.00040188542 -0.02664987 -0.03283875 0.0048812055
-0.00010170637 -0.009290775 -0.0026928051 0.0061087725 -0.011134079 0.006289452 0.0035515933 -0.031500734
0.015740633 -0.025798481 -0.000121042336 -0.010996486 -0.029759005 0.0167563 -0.046906766 -0.0019035734
0.041353106 0.012495124 -0.0013522144 -0.004384994 -0.0038994942 0.0033687444 -0.0063442187 0.001372701
-9.259053e-05 -0.06863039 0.016985498 -0.033494513 0.0053605717 0.0017854288 -0.038997553 0.023272699
-0.008527179 -0.0025852167 0.020554114 0.0043884516 -0.004607248 -0.0241495 -0.0036881478 0.0017234565
-0.012306196 0.021584403 -0.006323322 -0.01850958 -0.019859252 -0.054242786 -0.015127187 0.032147475
00000000: 95c6 853c d3ba b73c 12ad 123d acea 553b
00000010: 0192 143c e71f 823d 5e8c 75bc bca4 a03c
00000020: 08a6 66bd f035 17bc ff9a 2fbb 5e13 3b3d
00000030: 26b4 d239 d450 dabc ed81 06bd 85f2 9f3b
00000040: 314b d5b8 5638 18bc c679 30bb 192c c83b
00000050: b66b 36bc bf17 ce3b d9c1 683b ea06 01bd
00000060: 80f2 803c 5657 d3bc 1cd8 fdb8 9b2a 34bc
00000070: 28c9 f3bc 8244 893c 4f21 40bd 5381 f9ba
00000080: e061 293d 59b8 4c3c c93c b1ba ffaf 8fbb
00000090: a88e 7fbb 27c6 5c3b 2ae3 cfbb 34ec b33a
000000a0: 2a2d c2b8 178e 8cbd 2c25 8b3c 8b31 09bd
000000b0: bca7 af3b 0d05 ea3a e6bb 1fbd 63a6 be3c
000000c0: 95b5 0bbc bd6c 29bb 1a61 a83c 00cd 8f3b
000000d0: 66f8 96bb 2cd5 c5bc dab4 71bb 9be5 e13a
000000e0: ed9f 49bc c6d1 b03c df33 cfbb 67a1 97bc
000000f0: dfaf a2bc af2d 5ebd 05d8 77bc 12ad 033d

attentionblocks.0.layernorm2b.weight f4 [64]
0.9596579 1.0055474 0.9832852 1.030928 0.9923956 1.1211505 0.93795633 0.9616684
1.0136048 0.95452285 1.0429442 1.0422022 0.9708329 1.052532 1.0358188 1.105173
0.9762243 1.0279336 1.0148511 0.9755295 0.9779458 0.9984726 1.0333731 0.982695
0.9700138 1.0234911 1.0129476 0.99434066 1.0301185 1.0080612 1.0717367 0.95550495
1.0070004 1.0954635 0.974453 0.926777 1.034858 0.9548794 0.9587689 1.0183346
0.9509572 1.1057218 0.9847895 0.9798798 1.0679662 1.055453 1.0411534 1.0548582
1.016182 0.9705717 1.0347921 1.0180832 0.99742097 0.93580097 1.0274066 1.1310575
0.9689058 1.0126991 0.9710273 0.9939011 1.0031128 0.98202825 0.9976988 0.9815772
00000000: 24ac 753f c7b5 803f 94b8 7b3f 73f5 833f
00000010: a30d 7e3f dc81 8f3f e81d 703f e62f 763f
00000020: cdbd 813f 9c5b 743f 327f 853f e266 853f
00000030: 8188 783f 5eb9 863f b695 843f 4f76 8d3f
00000040: d6e9 793f 5493 833f a4e6 813f 4dbc 793f
00000050: a85a 7a3f e69b 7f3f 9245 843f e691 7b3f
00000060: d352 783f c201 833f 44a8 813f 1c8d 7e3f
00000070: ecda 833f 2608 813f ab2e 893f f99b 743f
00000080: 64e5 803f 2638 8c3f c075 793f 4241 6d3f
00000090: 3a76 843f fa72 743f e171 753f ca58 823f
000000a0: ee71 733f 4b88 8d3f 2a1b 7c3f 67d9 7a3f
000000b0: 1eb3 883f 1519 873f 8444 853f 9805 873f
000000c0: 4012 823f 6377 783f 1174 843f 8d50 823f
000000d0: fb56 7f3f a790 6f3f 0f82 833f 7ec6 903f
000000e0: 360a 783f 20a0 813f 3f95 783f 4d70 7e3f
000000f0: 0066 803f 3466 7b3f 3069 7f3f a548 7b3f

attentionblocks.0.layernorm2b.bias f4 [64]
-0.056976482 -0.03318842 -0.02667454 0.0017058415 -0.04775627 -0.07108959 -0.06202407 -0.015217436
-0.035720687 -0.0021843114 -0.09347574 -0.046598606 -0.017111614 -0.058762114 -0.015929418 -0.0878393
-0.061884534 -0.053465143 -0.037303556 -0.037544683 -0.07155346 -0.06022858 -0.13875124 -0.019562189
-0.00072005444 -0.0069739837 -0.038973123 0.008052583 -0.018773157 -0.12555604 -0.14824477 -0.014069667
-0.025810316 -0.060096275 -0.035325903 -0.13615583 -0.0020102481 -0.023418674 -0.097965665 -0.0645493
0.011786137 -0.058821987 -0.037579168 -0.0919439 -0.04673921 -0.010450752 -0.00735356 -0.0067991028
-0.014708241 -0.035466697 -0.04311947 -0.051109508 -0.03770269 -0.073716536 -0.035527963 -0.0861951
-0.035554603 -0.046624422 -0.022435252 -0.030549359 -0.049580324 -0.02262178 -0.004052735 -0.06435633
00000000: 2c60 69bd 95f0 07bd 9184 dabc 8b96 df3a
00000010: 149c 43bd 6b97 91bd f40c 7ebd 8d52 79bc
00000020: db4f 12bd aa26 0fbb 3570 bfbd 2ede 3ebd
00000030: a82d 8cbc 8bb0 70bd 697e 82bc 17e5 b3bd
00000040: a37a 7dbd 44fe 5abd 9dcb 18bd 74c8 19bd
00000050: 9f8a 92bd 3eb2 76bd ce14 0ebe e240 a0bc
00000060: 09c2 3cba 0486 e4bb 48a2 1fbd fbee 033c
00000070: 2aca 99bc c391 00be 7acd 17be 7684 66bc
00000080: 2870 d3bc 8327 76bd e5b1 10bd 6f6c 0bbe
00000090: 5ebe 03bb 85d8 bfbc 39a2 c8bd 6c32 84bd
000000a0: a41a 413c 53ef 70bd 9dec 19bd 154d bcbd
000000b0: 9d71 3fbd a239 2bbc 22f6 f0bb 02cb debb
000000c0: d6fa 70bc 8745 11bd 0b9e 30bd 3458 51bd
000000d0: 236e 1abd b2f8 96bd c585 11bd 0e87 b0bd
000000e0: b4a1 11bd 40f9 3ebd 22ca b7bc a642 fabc
000000f0: bd14 4bbd 5051 b9bc cecc 84bb 40cd 83bd

attentionblocks.0.fc_q_list.0.weight f4 [16, 64]
0.17730992 0.009904494 -0.13585253 0.23595026 0.27267897 0.09345128 0.06563261 0.06129677
-0.14110763 -0.13187076 -0.099847965 0.0778587 0.29646745 -0.048772965 -0.10125687 0.07223825
0.109409854 -0.13252191 0.023558905 0.05165602 -0.016936919 0.05149236 0.085229024 0.027147144
0.025896376 -0.16711168 -0.13280973 0.08862516 -0.12245283 0.0917586 0.073147036 -0.31427997
0.27444378 0.087220296 0.16759774 -0.113720074 -0.05160805 0.0010928465 0.033319965 0.19613479
-0.17603478 -0.08832983 0.07789695 -0.23656783 -0.031391624 0.33661354 -0.07958536 -0.064993076
-0.099966675 0.008985577 -0.015360741 0.10742909 0.20154178 -0.07201492 -0.04475944 -0.17952435
-0.12494049 0.07693159 -0.0684622 0.10507201 0.0640549 -0.01754406 0.07838918 0.026524061
-0.031884395 0.076814674 -0.13503906 0.05887594 0.05852352 0.06684341 -0.043643698 0.061523892
0.001566322 -0.056039717 -0.020817164 0.113289304 0.09714655 0.1420616 0.045497105 -0.028477652
-0.005233297 -0.061382245 -0.040031478 0.07097405 -0.14403105 0.21197055 0.022180023 -0.026275046
0.016326733 -0.0028896537 0.057394713 0.07507888 0.04012251 0.08845314 -0.029842038 0.074031554
-0.055663116 -0.06506783 0.14310664 -0.053320926 -0.11862446 -0.082154624 -0.022953449 -0.20708825
-0.18915527 -0.013332893 0.014436556 -0.023906851 0.010783681 0.019513085 -0.09229443 0.0418601
-0.0385021 0.06973984 0.07232238 -0.06694609 0.053593308 0.034956574 0.064501286 -0.18098193
-0.04687967 0.09676582 0.05314076 0.091612935 0.16535628 0.11532283 -0.14435938 0.01534492
0.08676976 0.018673457 -0.17785938 -0.036903374 0.25013128 -0.045037515 -0.07021023 0.07593883
0.05251491 0.12545143 0.21834901 0.007075621 -0.056204736 0.060631927 -0.093219705 0.03980326
-0.082897 0.070877805 -0.11215695 0.08978451 -0.1181518 0.117107384 -0.052821796 0.0409748
0.05518879 0.15632099 -0.10578755 0.28648424 0.025733149 0.05862395 0.06640077 -0.023903014
0.0016317414 -0.1996328 -0.03163378 -0.09108295 -0.019946594 0.20099649 0.010791737 -0.052062582
-0.08502677 0.03620462 -0.033194896 -0.09168895 -0.02436557 0.08009265 0.03389272 0.075339764
0.038842972 0.039745558 -0.08749346 0.056175563 -0.22641504 -0.09177357 0.041819263 0.1262603
0.034821264 0.096626624 0.15734953 -0.023747336 0.2719598 0.014448471 -0.11998609 -0.10894135
-0.07922471 0.06294759 -0.08175372 0.020442544 -0.084559835 -0.10086671 0.07507316 -0.13819413
0.098586194 -0.14768086 -0.104475155 -0.13397652 -0.14891352 0.15455887 -0.08784571 -0.15550135
0.08922511 0.13273902 -0.035990488 0.14335026 -0.044284638 -0.06668146 0.019921316 0.061656274
-0.1368665 -0.098191634 0.057366904 -0.11449855 0.15947506 -0.14280857 -0.09646941 -0.02818373
-0.1646246 -0.088763446 -0.19054614 -0.031130318 0.011956084 -0.003029828 -0.086436085 -0.14611866
0.20132113 0.044208433 -0.016921673 0.10699477 -0.07687039 -0.19586203 -0.049433496 0.059327275
-0.09397459 -0.046115328 -0.11552109 -0.05624157 -0.13391873 0.07363643 -0.10126429 0.1375672
-0.043235734 0.14891371 0.012427117 0.18754403 0.018768294 0.034078464 0.14084542 -0.045886483
00000000: bb90 353e 7546 223c ed1c 0bbe f29c 713e
00000010: 949c 8b3e 6263 bf3d 646a 863d 5212 7b3d
00000020: 857e 10be 2109 07be 177d ccbd 6274 9f3d
00000030: 95ca 973e 29c6 47bd c35f cfbd a6f1 933d
00000040: 4612 e03d d3b3 07be 9bfe c03c 4395 533d
00000050: 4bbf 8abc a7e9 523d 8e8c ae3d b063 de3c
00000060: a324 d43c 531f 2bbe 46ff 07be 1c81 b53d
00000070: 8dc8 fabd efeb bb3d 1dce 953d 4ee9 a0be
00000080: e583 8c3e 8ea0 b23d be9e 2b3e 12e6 e8bd
00000090: f662 53bd d83d 8f3a 847a 083d 8fd7 483e
000000a0: 7642 34be 45e6 b4bd 7088 9f3d d63e 72be
000000b0: 8194 00bd 9c58 ac3e a6fd a2bd 171b 85bd
000000c0: 54bb ccbd 3e38 133c 9eab 7bbc c803 dc3d
000000d0: f860 4e3e 8f7c 93bd ad55 37bd 3bd5 37be
000000e0: cde0 ffbd 4f8e 9d3d e935 8cbd fe2f d73d
000000f0: 372f 833d 8fb8 8fbc 828a a03d fd48 d93c
00000100: 3699 02bd 0351 9d3d ae47 0abe e627 713d
00000110: 5cb6 6f3d 33e5 883d bcc3 32bd 7a00 7c3d
00000120: 0c4d cd3a e789 65bd c288 aabc 3904 e83d
00000130: c5f4 c63d 9978 113e 2c5b 3a3d f749 e9bc
00000140: 147c abbb f36b 7bbd 0cf8 23bd d85a 913d
00000150: e07c 13be cf0e 593e e1b2 b53c c43e d7bc
00000160: a4bf 853c 5860 3dbb b816 6b3d f5c2 993d
00000170: 8057 243d eb26 b53d 4a77 f4bc db9d 973d
00000180: 02ff 63bd 4842 85bd 8c8a 123e 0b67 5abd
00000190: 62f1 f2bd af40 a8bd df08 bcbc f10e 54be
000001a0: ebb1 41be 3572 5abc 4e87 6c3c 4dd8 c3bc
000001b0: 09ae 303c e8d9 9f3c dd04 bdbd 7f75 2b3d
000001c0: 61b4 1dbd c3d3 8e3d c21d 943d 081b 89bd
000001d0: a884 5b3d a02e 0f3d 4019 843d 5453 39be
000001e0: e604 40bd 292d c63d 20aa 593d 909f bb3d
000001f0: 2853 293e 602e ec3d f2d2 13be 4269 7b3c
00000200: 58b4 b13d 14f9 983c c520 36be fe27 17bd
00000210: 3511 803e 4279 38bd 62ca 8fbd d185 9b3d
00000220: e019 573d 5776 003e e296 5f3e 9cda e73b
00000230: f036 66bd 2f59 783d f9e9 bebd be08 233d
00000240: e7c5 a9bd 6228 913d 8bb2 e5bd f1e0 b73d
00000250: 92f9 f1bd ffd5 ef3d ab5b 58bd 31d5 273d
00000260: a40d 623d 9c12 203e 25a7 d8bd 10ae 923e
00000270: 53ce d23c ab1f 703d 20fd 873d 41d0 c3bc
00000280: 28e0 d53a 8a6c 4cbe 6c92 01bd b389 babd
00000290: 0a67 a3bc 06d2 4d3e d3cf 303c 933f 55bd
000002a0: 8422 aebd 4c4b 143d 5ff7 07bd 6bc7 bbbd
000002b0: 4e9a c7bc 9e07 a43d 18d3 0a3d bc4b 9a3d
000002c0: cf19 1f3d 3dcc 223d c52f b3bd 5918 663d
000002d0: 58d9 67be c8f3 bbbd ad4a 2b3d 614a 013e
000002e0: bea0 0e3d 2ee4 c53d 3c20 213e c689 c2bc
000002f0: 513e 8b3e 48b9 6c3c 44bb f5bd a41c dfbd
00000300: 9140 a2bd abea 803d 7f6e a7bd 1f77 a73c
00000310: b52d adbd 3593 cebd f5bf 993d c382 0dbe
00000320: 8fe7 c93d a739 17be 12f7 d5bd 2431 09be
00000330: c97c 18be ae44 1e3e 74e8 b3bd bf3b 1fbe
00000340: a8bb b63d bdec 073e c36a 13bd 69ca 123e
00000350: cf63 35bd 4a90 88bd 0732 a33c 4a8b 7c3d
00000360: bb26 0cbe b218 c9bd 8ff9 6a3d 377e eabd
00000370: 6e4d 233e 693c 12be c191 c5bd 91e1 e6bc
00000380: 5a93 28be 9cc9 b5bd 871e 43be 0205 ffbc
00000390: 73e3 433c 1490 46bb 6705 b1bd 21a0 15be
000003a0: 2027 4e3e e713 353d 529f 8abc 1320 db3d
000003b0: 396e 9dbd 0e90 48be c77a 4abd 2801 733d
000003c0: c075 c0bd 6de3 3cbd 5296 ecbd 8f5d 66bd
000003d0: fe21 09be b2ce 963d a763 cfbd 6bde 0c3e
000003e0: f417 31bd d67c 183e 1b9b 4b3c 8b0b 403e
000003f0: f7bf 993c dc95 0b3d c839 103e 77f3 3bbd

attentionblocks.0.fc_q_list.1.weight f4 [16, 64]
0.13589709 0.01815473 0.18678744 -0.07155864 -0.24727863 -0.10911374 0.08518375 -0.040310983
-0.031942848 -0.042302057 -0.17957222 -0.12808277 0.23559129 0.053193565 0.106611185 0.13230419
-0.15774746 -0.007870284 0.036628153 0.110557765 0.1236403 -0.15751882 -0.08973365 -0.044244524
-0.0132962335 0.06967196 0.13943988 0.021486778 0.054918263 -0.039521176 0.045396157 -0.0063249003
-0.13033476 0.090399496 -0.1381606 0.12587266 0.24835752 -0.03830956 0.2150743 0.23816374
0.016093904 -0.03636827 -0.24937783 0.13268758 0.2071996 -0.079283886 -0.18809552 0.10064555
0.22814764 -0.060049765 -0.2111775 -0.19706988 -0.0391795 0.17947583 -0.13261785 0.053844456
0.064515695 -0.12161074 -0.00441672 -0.050374836 0.042303357 0.014827662 0.1460823 -0.023950644
-0.074919246 0.015032301 0.039951082 -0.019321473 -0.124616556 0.10791625 -0.015873743 -0.09180936
0.13803062 0.093484886 -0.0016413612 0.02788565 -0.10003524 0.15990548 -0.16357939 -0.1093589
-0.04745729 -0.071101815 -0.08980596 -0.02891289 -0.023377592 0.1054618 -0.104296714 0.11677728
-0.15452957 -0.04037137 0.0043407315 0.042261235 0.08646491 -0.13238901 -0.08506043 -0.13231336
-0.081222564 -0.003075231 0.08733511 0.1396558 -0.041428443 -0.09653045 0.08057458 -0.0039082197
0.01072392 0.08718428 0.07943581 0.06718692 -0.07592032 -0.120672256 0.08859239 0.021584911
0.01342038 0.18512489 -0.083162405 -0.010365522 -0.0075587393 0.018134817 -0.0526613 -0.026834339
-0.021032723 -0.049934 0.07072287 -0.12427259 0.09189679 -0.007442605 0.0029878938 -0.1566234
-0.0031050416 0.06745638 0.11399181 -0.15544589 -0.06642218 -0.023548769 0.05468474 0.053753804
-0.035159074 0.01687828 0.19072296 -0.077185325 -0.07294235 -0.11472305 0.15511468 0.28046015
0.029712005 0.14389089 -0.08869224 0.07659616 0.059660673 0.03907692 0.0552696 0.06409193
0.12140732 0.110088006 -0.10556266 0.1556489 0.0032950018 0.041325387 -0.0078958 -0.19131103
-0.09541413 -0.05093841 -0.13300294 -0.16392222 0.015074557 0.09625515 0.027977034 0.10311863
-0.083102114 -0.07254962 -0.27116188 0.035634 0.034226473 -0.15267918 0.249808 0.077647276
0.10598859 0.07381522 0.010386964 -0.16268103 -0.26361197 -0.09369427 0.0431814 -0.12511162
-0.017633453 0.061763808 0.061361037 -0.19446848 0.08517711 0.14721413 -0.3596535 -0.072469175
0.05051461 -0.03450602 0.17796417 -0.003591622 -0.0067047616 -0.039890017 0.052241042 0.09513778
-0.14972603 0.06319733 0.01829087 0.11187093 -0.061959293 0.071172155 -0.0058676265 -0.12882277
0.09410274 0.011030605 0.11636948 -0.09640311 -0.06363699 0.066554256 -0.18970567 0.062286437
-0.015933821 -0.18267374 0.06178305 0.034723468 0.12681198 0.00039427858 0.049646404 0.073493704
0.123459294 0.09260793 0.03249437 -0.030622406 -0.023744985 -0.02422541 -0.08228097 -0.13889138
-0.072422005 0.0810327 0.20713109 -0.16129261 0.029006664 -0.014778332 0.09570964 0.06173257
-0.18722253 0.043901674 0.00353659 0.19435073 -0.14579274 -0.038663354 -0.012620445 0.009724009
0.05748226 0.009510036 0.099593624 0.10386518 0.13962089 0.015688492 -0.004515963 -0.17635225
00000000: 9b28 0b3e 3ab9 943c 3545 3f3e 568d 92bd
00000010: 9c36 7dbe 0677 dfbd d174 ae3d 211d 25bd
00000020: 81d6 02bd ec44 2dbd c8e1 37be 2128 03be
00000030: d83e 713e 7fe1 593d f756 da3d c07a 073e
00000040: 8d88 21be 5df2 00bc 6707 163d 1c6c e23d
00000050: 2037 fd3d 9d4c 21be 47c6 b7bd bf39 35bd
00000060: 72d8 59bc 2cb0 8e3d 54c9 0e3e 0a05 b03c
00000070: f9f1 603d f5e0 21bd 52f1 393d 1c41 cfbb
00000080: 7a76 05be 5f23 b93d f979 0dbe c3e4 003e
00000090: 6f51 7e3e 7cea 1cbd 703c 5c3e 32e1 733e
000000a0: 5dd7 833c e5f6 14bd e75c 7fbe 41df 073e
000000b0: 222c 543e 975f a2bd 1d9c 40be 411f ce3d
000000c0: 899f 693e bef6 75bd ea3e 58be b0cc 49be
000000d0: af7a 20bd 83c8 373e f9cc 07be 018c 5c3d
000000e0: ce20 843d 0d0f f9bd 22ba 90bb d855 4ebd
000000f0: 4946 2d3d b9ef 723c 9996 153e 2434 c4bc
00000100: 436f 99bd 0a4a 763c bfa3 233d 1148 9ebc
00000110: f736 ffbd 3203 dd3d a709 82bc 8c06 bcbd
00000120: e657 0d3e 0175 bf3d f122 d7ba 7270 e43c
00000130: 47df ccbd 43be 233e 5b81 27be 8ff7 dfbd
00000140: 9362 42bd d49d 91bd 30ec b7bd bada ecbc
00000150: 5d82 bfbc 5bfc d73d 8499 d5bd ed28 ef3d
00000160: 003d 1ebe 735c 25bd b23c 8e3b 1e1a 2d3d
00000170: 8414 b13d fc90 07be 2a34 aebd 277d 07be
00000180: 0458 a6bd d189 49bb c0dc b23d ee01 0f3e
00000190: dfb0 29bd c2b1 c5bd 4904 a53d 8610 80bb
000001a0: 61b3 2f3c ac8d b23d 3eaf a23d 4c99 893d
000001b0: 1d7c 9bbd 0423 f7bd ed6f b53d d7d2 b03c
000001c0: 27e1 5b3c 6191 3d3e 0d51 aabd 26d4 29bc
000001d0: 4daf f7bb 788f 943c 60b3 57bd b0d3 dbbc
000001e0: d14c acbc 9887 4cbd 27d7 903d a182 febd
000001f0: 6234 bc3d 19e1 f3bb 8ad0 433b e261 20be
00000200: f47d 4bbb 9226 8a3d 8a74 e93d 352d 1fbe
00000210: 5a08 88bd 59e9 c0bc 1bfd 5f3d f32c 5c3d
00000220: f602 10bd 5244 8a3c e14c 433e 5713 9ebd
00000230: cc62 95bd ebf3 eabd 62d6 1e3e 7998 8f3e
00000240: 9766 f33c 2258 133e 47a4 b5bd 73de 9c3d
00000250: c05e 743d 1f0f 203d 6062 623d a142 833d
00000260: 67a4 f83d d275 e13d 3c31 d8bd 6d62 1f3e
00000270: f5f0 573b cf44 293d 635d 01bc 0ae7 43be
00000280: 7c68 c3bd cba4 50bd ec31 08be 3adb 27be
00000290: 46fb 763c 6c21 c53d 1830 e53c dc2f d33d
000002a0: 7131 aabd e594 94bd bbd5 8abe f5f4 113d
000002b0: 0f31 0c3d ee57 1cbe abcd 7f3e 8905 9f3d
000002c0: 8c10 d93d 6f2c 973d 162e 2a3c db95 26be
000002d0: 26f8 86be c8e2 bfbd fbde 303d 431d 00be
000002e0: 0874 90bc 0cfc 7c3d b655 7b3d bf22 47be
000002f0: 5671 ae3d 4dbf 163e 8124 b8be b86a 94bd
00000300: 68e8 4e3d 2f56 0dbd 3d3c 363e 6b61 6bbb
00000310: 9eb3 dbbb b763 23bd b4fa 553d 99d7 c23d
00000320: c851 19be 9a6d 813d bcd6 953c 961c e53d
00000330: 07c9 7dbd b5c2 913d 3845 c0bb 1eea 03be
00000340: f0b8 c03d b6b9 343c 1f53 ee3d fe6e c5bd
00000350: 1c54 82bd 994d 883d 3442 42be 1020 7f3d
00000360: a587 82bc d30e 3bbe 3910 7d3d 323a 0e3d
00000370: 00db 013e 2db7 ce39 075a 4b3d de83 963d
00000380: 3ad8 fc3d 3aa9 bd3d d118 053d d7db fabc
00000390: d884 c2bc 5e74 c6bc ed82 a8bd 8b39 0ebe
000003a0: fd51 94bd 79f4 a53d 2c1a 543e e429 25be
000003b0: 629f ed3c d120 72bc 6a03 c43d 4bdb 7c3d
000003c0: 43b7 3fbe 3ed2 333d 22c6 673b e103 473e
000003d0: b14a 15be 775d 1ebd fcc5 4ebc 7351 1f3c
000003e0: 8572 6b3d fbcf 1b3c bef7 cb3d 44b7 d43d
000003f0: c7f8 0e3e 2785 803c a5fa 93bb af95 34be
