data/user_properties/trained_weights/DenseNet-ael_debye_temperature.pth (torch_old, 289666 bytes, 7 tensors)

network.0.0.weight f4 [256, 119]
00000000: 1768 49bb 0ebe 89bd d4e2 e43c 4c18 5cbd
00000010: 90ba 213e c928 023e fc10 3cbd a020 853d
00000020: db33 483d c1c1 563d b1fe d93d 4a40 e93b
00000030: d2d1 a73d 9263 c63c 089f 7b3d 5847 003c
00000040: 6ea9 043c 18d4 16bd 945a cf3d f0e3 4dbe
00000050: 6168 cbbb 03ad 0d3c 778f 043e e4f3 033e
00000060: ec4e e13d e058 8abd e8ac 15bd ddb6 60ba
00000070: 6c5b 43bd 76df 97bc cc71 0e3e dc1b 8abd
00000080: 43e7 71bd b2e2 05bb d94f d0bc 4498 f2bc
00000090: f064 45bd 4114 033d 2957 52bd eeed 723b
000000a0: c6ff 053e 3c36 623e 9e8e 85bd 45bf e63d
000000b0: d5c4 a33d dd66 c1bb 0b6c a6bd 476a f8bc
000000c0: 4d75 f7bc 02d2 053c 07d5 aa3c 270f f1bc
000000d0: 6ccd bcbc 2f84 db3c 2477 fb3c af42 4fbe
000000e0: 0a7b 7c3d b42e 1f3d e526 953b ee89 4f3d
000000f0: 7af5 e23d a07a 8ebc a6ab 1d3e 7183 90bc
00000100: 4c7f c43c 130b 29be 947d 0dbd 9fcc de3c
00000110: 99f2 a6bb 167f 92bc a1cb dd3c bb70 e93d
00000120: 4b4a d9bd 6137 5b3d 753c 39bc 8582 4cbc
00000130: a386 12bd 2da5 f2ba b9f3 50bd 4948 6e3d
00000140: 028b 99bb d2a8 43bd 7932 53bd 0158 17bd
00000150: f8f0 b33c 1fad bc3c 14ce d03c 691e 4f3d
00000160: 8aa0 ea3b b3aa 693c 1f49 82bd 3d87 7e3d
00000170: d7df 493d a9a3 c03c 66be 9abd cae7 adbc
00000180: 88dc 0c3e 85c1 0d3e bf12 49bc 0e74 0a3d
00000190: f83a 70bc aa28 1b3d 3a5d 25bb a394 c63d
000001a0: f151 9a3d 44b7 89bc 8488 073e a79c b9bc
000001b0: cacc ae3b 36f5 893d 512f e83d a79d fa39
000001c0: 20bf c23d 0e0a ec3c f146 793c df2d 0c3e
000001d0: 3772 823d 6277 143e f407 333e c611 66bd
000001e0: e0e8 0e3d 4716 87bd 58c2 9cbe a62a 5b3c
000001f0: 6d36 9f3b 9e73 91bd d545 f43d 80c9 4abe
00000200: c1d9 d7bd 6960 8cbd de40 afbd 03bf 63be
00000210: 5d46 5abc a7f5 23be 28fe b63c a95f 68bb
00000220: cce9 7abb 5942 ebbd c333 e4bd aeb2 10bd
00000230: e557 e0be 0790 853c 5508 acbd e70d 1c3e
00000240: d321 fdbc ad62 583d 5e1e f2bd 641a 093e
00000250: 7d03 1d3d a65c debd fb68 4b3e 0f0e 223d
00000260: 5e15 f13d 637c f6bd 1d2b 0a3c 54f0 b9bd
00000270: f941 c7bd d49b efbc c1ff 523c 3c93 61be
00000280: 2047 77bd e5fb 4b3e 91d6 34bd 4c35 5b3e
00000290: 6bd8 803d 4f18 0cbe 7a72 1fbe bf97 b5bd
000002a0: d5f8 49be b898 9ebe 93e3 e5be 85fc 31bc
000002b0: ea81 a63c c7c2 0fbe 2b27 153e 241a e43d
000002c0: ba4c 50be 0634 a43c b73c 61be 27f3 783c
000002d0: 8a24 bdbb c294 21bd 4292 5a3c 1ffe 74be
000002e0: b881 92ba aa8b 383c 0aeb 52bc fdb4 a9bd
000002f0: b9fa f6bc 456b 73be 2ab0 8cba a13c ecbe
00000300: 6a7a 95bd 949e 40bd 1293 9cbc a576 16be
00000310: 8302 54bd 70b0 a3bd 1045 a9bb 86a9 4bbd
00000320: 570b c1bd 0625 00be 4835 32be 460f 00be
00000330: 5314 c13c 8601 26bd 72b6 043d 937c e8bd
00000340: 6c85 35bd c21a 5cbc 73d2 8c3c b1ab 1eba
00000350: 5681 83bd 252a 89bd 9d71 b4bd a6f0 80bd
00000360: bea2 94bd f5da 213d 7029 f6bd 9358 d7bc
00000370: acde 0f3d 4f4b aebd d225 b0bb bb73 86bd
00000380: 9179 c4bd 3a02 273d 581c 0a3d 6a01 3bbd
00000390: eb88 17bd 1bb2 e4bc bd55 9cbc d5ed eabb
000003a0: 7aa4 a8bd b2ad e1bc e5a0 a5bd 9324 a8bd
000003b0: c970 3cbd 8b27 9abe 08e7 f63c 20f6 11be
000003c0: e0fe c23d e940 59bd a27d b7bd ef36 12be
000003d0: fc6c d0bc 3b5f 80be 42b9 02bd aaac 36bd
000003e0: 1fff c33d 718f e8bd a783 5dbd 2774 48bd
000003f0: 6cac 1dbd 3bfc 2d3d 6651 06be 8407 cb3c
-0.0030732208 -0.06725703 0.027940191 -0.05373411 0.15793824 0.12710871 -0.045914635 0.06500363
0.04887758 0.052430872 0.10644282 0.0071182596 0.08194317 0.0242174 0.06143096 0.00782951
0.008097036 -0.036823362 0.10124698 -0.20106483 -0.0062075113 0.008647206 0.12945352 0.12886006
0.11001381 -0.06755233 -0.03654185 -0.00085721706 -0.04769461 -0.018539172 0.13910598 -0.06743595
-0.05905844 -0.002042931 -0.0254287 -0.029613622 -0.048191965 0.032001738 -0.051352654 0.0037068087
0.13085851 0.22091001 -0.06521343 0.112669505 0.07996527 -0.005902155 -0.08126076 -0.030324114
-0.0302073 0.008167746 0.020853532 -0.02942617 -0.023047172 0.026796428 0.03069646 -0.20240282
0.061640777 0.0388629 0.0045517557 0.05066865 0.11081977 -0.017392457 0.1539751 -0.017640801
0.023986481 -0.1650813 -0.03454359 0.02719718 -0.005094838 -0.017882865 0.027074637 0.11398455
-0.106098734 0.05351961 -0.011305918 -0.01248229 -0.03577293 -0.0018512361 -0.051013682 0.058174405
-0.0046857605 -0.04776842 -0.051561806 -0.03694916 0.021965489 0.02303177 0.02548889 0.05056611
0.007160251 0.014261889 -0.06361603 0.062140692 0.049285736 0.02351554 -0.07555847 -0.02122869
0.13756001 0.13843353 -0.012272536 0.033802085 -0.014662497 0.037880577 -0.002523257 0.09696319
0.0753516 -0.01681102 0.1323567 -0.022657705 0.0053344714 0.067362234 0.1133715 0.00047801176
0.095091105 0.028813388 0.015214668 0.13689373 0.06369441 0.14498666 0.17483503 -0.056169294
0.034890056 -0.06596046 -0.30617023 0.013376867 0.004858783 -0.0710213 0.11927382 -0.19803429
-0.1053958 -0.06854326 -0.08557294 -0.22240834 -0.01332244 -0.16011678 0.022337988 -0.0035457409
-0.0038286326 -0.11487264 -0.11142685 -0.035326652 -0.43817058 0.01630403 -0.08400027 0.15239678
-0.030899918 0.05282848 -0.11822198 0.13388973 0.038333405 -0.10857515 0.19864266 0.03956419
0.117716536 -0.12035444 0.008433131 -0.09079042 -0.0972938 -0.02924911 0.012878359 -0.22028822
-0.060370564 0.19920309 -0.04414994 0.2140705 0.062912785 -0.13681148 -0.15571013 -0.08866834
-0.19723828 -0.3097589 -0.44900188 -0.010863428 0.02032562 -0.14039145 0.14565723 0.111377984
-0.20341769 0.020044338 -0.21995817 0.015194691 -0.005772178 -0.039448507 0.013340535 -0.23925065
-0.0011177575 0.011263767 -0.0128734205 -0.08286474 -0.03014885 -0.23771389 -0.0010733653 -0.46140006
-0.07298739 -0.047026232 -0.019113097 -0.14693697 -0.051760208 -0.07992637 -0.0051657036 -0.049722217
-0.09425991 -0.12514123 -0.17403138 -0.12505826 0.023569262 -0.040528797 0.032400556 -0.11351886
-0.044316694 -0.013434114 0.017190194 -0.00060528057 -0.06421153 -0.066974916 -0.088107325 -0.062959
-0.07257603 0.039515454 -0.12019622 -0.026287353 0.035124466 -0.08510458 -0.0053756023 -0.065650426
-0.095934995 0.040773608 0.033718437 -0.045655645 -0.03699581 -0.027916959 -0.019083852 -0.007169465
-0.082344964 -0.027548645 -0.08087329 -0.08210101 -0.046005998 -0.30108294 0.030139461 -0.14254045
0.0952127 -0.05304042 -0.089595094 -0.14278768 -0.025442593 -0.25072655 -0.031914957 -0.04459826
0.09570145 -0.11355484 -0.05408063 -0.048938897 -0.038494512 0.042476874 -0.13116989 0.024783857

network.0.0.bias f4 [256]
00000000: e4c5 373d bd30 b53d bb09 b33c 71db e63c
00000010: bdf2 103d 377a 953d beca 9a3c afb8 61ba
00000020: ba68 4bbc 9fce 4abc 829b 9db8 98dc 953d
00000030: 1c66 80bb 5823 a13d d6e3 e93c ee57 053d
00000040: 9edf 2dbc d83c 583d 7cd5 d23c ed9f fcbe
00000050: 7ef8 a63d 1968 8a3d b6ff 423d 09a7 cbb9
00000060: 6c17 693d d104 783d 0c5f b83d 07dd 1dbc
00000070: dfff 53bd 21d2 8b3c bf18 ba3d b8f8 6e3d
00000080: bc74 3abd 994f 6cbd 3ae9 e4bd 5042 163d
00000090: 1835 97bd d921 8bbd 5ca1 dd3d f94d d23c
000000a0: b925 df3c 06c4 da3c 890c a03c 3ea9 2abc
000000b0: b840 3e3d fdcf f93c 4b53 5b3d 07d4 593d
000000c0: bfab 87be 4e6f be3c d017 0b3c 97fe 573d
000000d0: 4e0a 8e3d 6aea 043d 6bf5 1a3d 34e7 b1bd
000000e0: cd63 303d eca7 e0bc ca48 423d ebf8 d7ba
000000f0: a688 5f3c 95fe 333d 8216 87bc d192 423c
00000100: 12cd e7bd 0423 cf3d c3ac f53d c21b 44bd
00000110: 34d7 903d bbce c8bb 6158 18bd 5e16 933d
00000120: b19e 15ba 6b08 1c3d b281 edbd 2909 74bd
00000130: 23e4 ab3c 6345 54be 288a 52bc f833 f6bb
00000140: 66a1 5cbe 40a5 80bb f29a e73a a1a8 843d
00000150: 2c97 9d3c a287 253d 9149 0cbe 0cfb cd3d
00000160: 4038 8bbc 10ac 313d 7717 d63b 0515 aebd
00000170: 98c6 7abc d595 4d3d ab5e c53c 8129 c2bd
00000180: d6e1 e6bc 2754 a03d b35f 35bb 9fd5 963d
00000190: 3cd3 0c3d 70da 273d e13b 0e3d 5e86 143c
000001a0: 5913 6fbd aca5 693a 500f 04bd 19d5 bf3c
000001b0: a513 17bd 3e70 dc3c 59e8 823b 78ff 603d
000001c0: a868 5a3d cdf0 8d3c 582e 973a 54e1 70be
000001d0: 0898 03be d473 883d 63aa 46bb 3bb8 f3bb
000001e0: 70d3 33bc 2720 423d e5c8 943d 3889 02bb
000001f0: ac80 bb3d a48c ab3b 980d 123d dea3 bdbd
00000200: 2917 8dbd e515 2abe 48d2 a3ba f44c 813b
00000210: 0f63 9cbc 0e62 2fbe d650 09be 548e 573d
00000220: f226 0d3c a7f3 373d cfe2 17be ae87 8fbc
00000230: 00ed be3c ebc7 3f3d 9f17 9c3d 7629 ad3c
00000240: ba92 6bbc 6530 aaba 9fe2 023a 0bf4 9b3b
00000250: 6bd2 d83d ac4b 653d 5010 98bc 202a fe3d
00000260: 4d5a 873c fd3c 083d a349 38be 3f5c 083d
00000270: 8081 4bbe 2d40 de3c 7453 9a3c e867 34be
00000280: e197 bb3d cc09 57ba ac8c a93d 967d 23be
00000290: 93a3 433d 6553 f23c 9b3e 1c3e 0e4a 0f3c
000002a0: 080d 313c db63 17be 7692 213d 8d1b 273d
000002b0: 135d 203d d00c 1dbd ea3c 03be ad74 cbbb
000002c0: 1554 32be a889 31bc 1d44 403d c6bf 443d
000002d0: bd97 973c fa60 93bd 290c 483d 9ea5 9f3d
000002e0: 9a78 6a3d 33ab d0ba 5bf7 20bd 19d5 e63c
000002f0: 56d5 043c 6900 35bc 7db5 71ba 8784 6c3c
00000300: bc06 813c a88d 9a3c 6959 4f3d a897 40b9
00000310: 2996 5bbd ba6d 673d 7019 523d d826 f73c
00000320: 5701 46bd f3ad 783d a773 853c 1743 9f3d
00000330: 4a06 f03b fb76 53bb 627f ef3c 6acf 963d
00000340: a398 083d a7fc 9cbd 08e7 02bc 7cc4 143c
00000350: aa27 223e 2abd 41bc ac16 5abd ab31 d83d
00000360: cba2 8d3d 5be6 e53d 4a16 6c3c ce10 443d
00000370: 2199 6b3c 1065 7c3c 8423 9abc 994b 1e3c
00000380: 3641 ea3b 7635 37bd 0d17 853d 2612 c2ba
00000390: 3891 6bbe 0910 4a3d 2b7f c73c 4435 18be
000003a0: 7901 47bd a876 a73d 0b02 433d 3e53 65bd
000003b0: 1d24 94bd e521 9a3c b7de 21bc 3cb7 813c
000003c0: 76d4 bc3d 637f aa3c 45d5 59bc ecfc 78bd
000003d0: 8ddf f83c 4078 9b3c 265b b4bd b586 233c
000003e0: 1b56 ab3d 8a48 99bc 6a96 2ebd ba49 cabc
000003f0: ef2e bd3c d026 44ba c03c 803d d74e ba3b
0.044866458 0.08847187 0.021855226 0.02818081 0.035387743 0.07298701 0.018895503 -0.0008610589
-0.0124151055 -0.012378364 -7.515309e-05 0.073174655 -0.0039184224 0.078680694 0.028551023 0.03255456
-0.0106123965 0.0527924 0.025736563 -0.49340764 0.08152865 0.06758136 0.047607146 -0.00038843628
0.056907102 0.06055147 0.09002504 -0.009635217 -0.05175769 0.01706797 0.09086751 0.058342665
-0.045521483 -0.057693098 -0.11177297 0.036684334 -0.07383174 -0.06793565 0.108217925 0.025671946
0.027239667 0.0267048 0.019537227 -0.010416327 0.04644844 0.030494684 0.05354623 0.05318072
-0.2649822 0.023246434 0.008489564 0.05273303 0.06935559 0.032450117 0.037831705 -0.086866766
0.043063927 -0.027423821 0.0474327 -0.0016477382 0.013643419 0.04394396 -0.016490225 0.011875824
-0.11318411 0.101141006 0.11995842 -0.047878034 0.07072297 -0.00612816 -0.03719366 0.071820006
-0.0005707546 0.038093966 -0.11597003 -0.05957905 0.020982808 -0.20729594 -0.012850322 -0.0075135194
-0.21545944 -0.0039259493 0.0017670079 0.06477476 0.019237123 0.040412553 -0.13699938 0.10057649
-0.016994596 0.043376982 0.006533559 -0.08500103 -0.0153061375 0.05019172 0.024092993 -0.094805725
-0.028183859 0.07828551 -0.002767545 0.07364964 0.034381136 0.040979803 0.034725074 0.009065239
-0.05836806 0.00089129317 -0.032241166 0.023417043 -0.03688397 0.02690899 0.003994983 0.054931134
0.053322464 0.017326737 0.0011534197 -0.23523456 -0.12850964 0.066627175 -0.003031396 -0.0074377335
-0.010975704 0.047393944 0.0726488 -0.0019918215 0.091554016 0.0052352715 0.035657495 -0.09259771
-0.06889183 -0.16609915 -0.0012498582 0.003945941 -0.019090204 -0.17127249 -0.13409743 0.05262597
0.008615242 0.0449101 -0.14832614 -0.017520752 0.02330637 0.046821516 0.07621693 0.021137934
-0.014378244 -0.0012984393 0.00049928756 0.004759317 0.10587009 0.05598037 -0.018562466 0.124103785
0.016522551 0.033261288 -0.1799684 0.033291098 -0.19873619 0.02713021 0.018838622 -0.17617762
0.09159828 -0.0008203059 0.08278784 -0.15965876 0.04776342 0.029580781 0.15258257 0.008745683
0.01080633 -0.14784186 0.039446317 0.04079776 0.039151262 -0.038342297 -0.12816206 -0.006208977
-0.17414887 -0.010836042 0.046939958 0.048034452 0.018504972 -0.07196231 0.04883972 0.07795261
0.05724392 -0.0015920162 -0.039298397 0.028177785 0.008107504 -0.011047461 -0.0009220464 0.014435894
0.015750282 0.018866375 0.050622378 -0.00018367043 -0.05361 0.056501128 0.05129379 0.03016989
-0.04834112 0.060712766 0.016290499 0.07776468 0.0073249685 -0.0032266963 0.029235546 0.0736378
0.03334869 -0.07665377 -0.007989652 0.009080049 0.15835443 -0.011824885 -0.053244278 0.105563484
0.06915816 0.112255774 0.014409611 0.04786759 0.0143797705 0.015404955 -0.018815763 0.009661579
0.007148887 -0.04472872 0.06498537 -0.0014806434 -0.23004615 0.0493317 0.02435263 -0.14864069
-0.04858539 0.08176929 0.04760937 -0.05598759 -0.072334506 0.01881499 -0.0098797595 0.015834443
0.09220211 0.020812696 -0.013295476 -0.06078808 0.030380035 0.018978238 -0.08806448 0.009980847
0.08366033 -0.018711347 -0.042623915 -0.024693359 0.023093669 -0.000748259 0.06261587 0.005685668

network.1.0.weight f4 [128, 256]
00000000: f659 283d 2edf 92bd a4da b23c d3fb 0dbd
00000010: 767d af3c bc7b 693c a869 32bd 6559 cc3c
00000020: 7e34 9d3d 8f7d 7139 b0c5 e03c fe41 8abd
00000030: 369b 94bc 6ba6 27bc 390d 213c 5f9b 143c
00000040: ca0c 913c 533a d33b ac14 d7bd 37a7 363c
00000050: 29b5 35bd 2d45 cf3c 0957 9ebb b78c 203d
00000060: 09be c63c 23ad af3c 522c b4bc be4b 8c3d
00000070: 8365 09be 1e77 403d 6c69 c9bc 0229 8bbd
00000080: 5e0d 98bc fb19 713d 3142 a63d 1555 283d
00000090: 5e15 d33d d464 e13d f5a5 8b3c aeca bbbb
000000a0: d89b 813d 9bc8 5abc 9619 2bbc 2dc3 cc3d
000000b0: e8e2 a43c 70a9 3cbd 7773 4e3d 497f 263d
000000c0: 8e1e 0d3e b94d 1ebd fecd 94bd 5ef8 e7bb
000000d0: 8f05 85bd 7e73 4cbd f269 89bd a5bb 87be
000000e0: a36f 0fbc 89a9 50bc 73a8 13bd c83c f9bc
000000f0: d9a2 98bc 2145 2d3d 6810 a3bd 886b 89bd
00000100: 8f73 1f3b 80ba 22bd 36b4 8c3d f0c3 933d
00000110: d53a 543d 1fec c43c 3f37 503d 2d64 7abc
00000120: 6c74 0bbe c2d4 0fbd 19f1 0cbe dd79 0fbe
00000130: 771e 363d f505 133c 47a5 9f3d 20c6 a6bc
00000140: 37f1 133c 8be4 a43d 4980 f43c f881 2bbd
00000150: fe2c 92bd 8edf 293c e528 1e3c 99e5 c8bc
00000160: 5719 1c3d ea5a 933c 43eb 5fbb 9b85 ed3c
00000170: 446b 7bbc e662 be3d ae94 dcbc 62c3 fabd
00000180: a31e 6ebd b0fd a6bc 4e63 0bbd 0c07 b83b
00000190: 5c17 3fbe 2c89 80bd ee28 ae3d c13e 523c
000001a0: b748 bd3d 2052 0dbd e89a 54bc 4bca 813c
000001b0: c3bb 9b3d 2771 afbd 9704 89bd f3c9 ff3c
000001c0: 6c82 5dbd 2c91 74bb 0f7a 4ebd 55b0 ba3b
000001d0: 1a14 31be f082 9cbc 4e6c e93c 69f1 9f3d
000001e0: f9ca aabd 6b96 183d 3adf ac3d 8dcb 053d
000001f0: 0d3e 78bd df94 683d 668e f13c eade 02bd
00000200: 0ac0 66be 6085 ca3d d670 4d3c e8c4 de3d
00000210: b3bf a83c aa41 e93d 9fcf 12be d84e a6bb
00000220: 92e5 61bc e706 23bc e2e9 45be 4faa f2bd
00000230: 4163 a0bc 296f 9d3d d424 a03c 230e 963d
00000240: 475f 4bbd 4f3f 6b3d 6b0a 433c 2e19 863b
00000250: 6c8c 2f3d ef75 0f3d fc19 693d aa76 643b
00000260: 4532 40bd be2f 0d3d 461a 5c3d 22c6 313d
00000270: 90b8 c43c 1fb0 bbbc 8ff9 3a3d 1fc7 3dbd
00000280: e975 a93d c413 d33d bc64 9cbd 379c 00be
00000290: 1ff7 f2bc 1f02 f2bb 19d9 113c 95c2 6a3c
000002a0: 1d01 87bc ac9a cebd c40c c6bd 06c4 a13d
000002b0: d2d7 04be 9af6 67be 2d31 8739 acb8 613d
000002c0: d482 fdbb 239b 053e 1669 8f3c 7d56 26bd
000002d0: 86d1 193d c852 8e3d 54d0 adbc 93a6 433d
000002e0: 97f6 a53d 2a4f 103d 35a1 8ebd 7dbe c4bc
000002f0: 2890 cbbd 0b48 27be 2fd2 5abe bed3 a2bd
00000300: 75a9 aaba ebf8 ecb9 18f7 20bd 8392 3d3d
00000310: 0225 f1bd ef70 9cbd ff6a 163d 317e 403d
00000320: 9825 813d efa6 cbbc c09b 14bd e613 963c
00000330: 0fdc 963d f1d9 fa3d ea41 1ebd 0561 8fbd
00000340: 45ac 933b af56 243e fc09 513d 5346 9abc
00000350: f28b 453b 503a 23be 084c ccbc 2ee4 8f3d
00000360: 772e 993b 23f9 f837 f1f9 363d 3ecc 4439
00000370: 0e0a e2bd 3fab 2b3d 782a 36bd 9836 0fbe
00000380: 442c 99bc 69dc 263d 3b1d 173d 935f c73c
00000390: 00e8 e53d 20d1 973b b433 ad3b 4f5d 00bd
000003a0: 3ff0 273d f912 613d 3acb 6fbc 47c9 9d3d
000003b0: 7d6b 0b3d 9e68 fe3c c01a b83d 26d1 14bd
000003c0: 2f95 7d3c c60f 163d 5d80 d63c ed37 ab3d
000003d0: f362 633d ab06 ce3c 2d89 b43d d911 943d
000003e0: 28a8 a13c 4e9d da3c e133 14bd 9e50 61be
000003f0: 1011 a33c 2ae8 7e3c 9ae5 b73d 1f52 b53c
0.04110142 -0.071714744 0.021832772 -0.034663986 0.02142213 0.014250692 -0.043557793 0.02494497
0.07676028 0.00023030325 0.027438015 -0.06750868 -0.018140417 -0.010232548 0.009829813 0.0090702465
0.017706294 0.006446162 -0.1050199 0.011148266 -0.04436222 0.02530154 -0.0048321527 0.039196696
0.024260538 0.021444863 -0.02199379 0.06850384 -0.1341763 0.0469886 -0.024586402 -0.06794931
-0.018561061 0.058862668 0.08118094 0.041096766 0.1030681 0.110055596 0.017046908 -0.0057309484
0.06328553 -0.013353492 -0.010443112 0.09998164 0.020127729 -0.046060026 0.050403085 0.040648732
0.13781187 -0.03864834 -0.072658524 -0.007079168 -0.06495201 -0.04991483 -0.067096606 -0.2651035
-0.008754644 -0.012735733 -0.036049318 -0.03042449 -0.01863234 0.042302255 -0.079621136 -0.06709963
0.0024330353 -0.03972864 0.0687031 0.072151065 0.05181392 0.024038373 0.050833937 -0.015282673
-0.1361863 -0.03511501 -0.13763846 -0.14011331 0.044462647 0.008973588 0.07795196 -0.020358145
0.009029678 0.080514036 0.029846327 -0.041871995 -0.07137488 0.010368241 0.009653305 -0.024523543
0.038110103 0.017987687 -0.0034167327 0.028994372 -0.015345398 0.09296207 -0.026926365 -0.122442976
-0.058134686 -0.02038464 -0.03403025 0.0056160744 -0.18661255 -0.062761635 0.085039005 0.0128323445
0.09242385 -0.03450215 -0.012976386 0.015843531 0.07604172 -0.08566504 -0.066903286 0.031224227
-0.054079458 -0.0037317974 -0.050409373 0.00569729 -0.17292824 -0.019105405 0.028494027 0.07809717
-0.08339495 0.037252825 0.084410146 0.032664824 -0.06060605 0.0567826 0.029486846 -0.03195087
-0.22534195 0.098887205 0.012539109 0.10877401 0.020599222 0.113894776 -0.14337014 -0.005075317
-0.013787644 -0.009950376 -0.193275 -0.1184889 -0.019578578 0.07687218 0.019548811 0.07326915
-0.04965141 0.057433423 0.011904339 0.004092357 0.042858526 0.03502458 0.056909546 0.0034860768
-0.04692294 0.03446936 0.053735994 0.043401845 0.024013788 -0.02291113 0.045648154 -0.046332475
0.08274443 0.10306504 -0.07636401 -0.12559591 -0.029658852 -0.0073855068 0.008901858 0.0143286185
-0.016480023 -0.10088095 -0.096704036 0.07898717 -0.12972954 -0.22652665 0.00025785845 0.055107757
-0.007736543 0.13047461 0.017506164 -0.040609825 0.037553333 0.06949383 -0.021217503 0.04776628
0.08103674 0.035231747 -0.069643416 -0.024016613 -0.09939605 -0.16336076 -0.21369241 -0.07950543
-0.0013020473 -0.00045198886 -0.039298147 0.046282303 -0.11774637 -0.07638728 0.036723133 0.046995346
0.063059986 -0.024859874 -0.036281347 0.018320035 0.073661916 0.122486 -0.03863708 -0.07000927
0.00450662 0.16048692 0.051034912 -0.018832361 0.0030143228 -0.15940213 -0.024938598 0.07025944
0.0046747285 2.9679917e-05 0.044671956 0.00018768103 -0.11037074 0.04191136 -0.044474095 -0.1398567
-0.018697865 0.040737543 0.03689311 0.024337566 0.11225891 0.004633084 0.0052857045 -0.031338986
0.0410006 0.054949734 -0.014635855 0.07704406 0.034038056 0.031055745 0.08989477 -0.036332272
0.015477463 0.036636136 0.026184255 0.08360276 0.055514287 0.025149664 0.08815227 0.07229967
0.019733503 0.026686337 -0.036182288 -0.2200341 0.019905597 0.015558282 0.0897934 0.022133885

network.1.0.bias f4 [128]
00000000: 48fd 01bd b594 053d 85ed 33bd c7e6 04bd
00000010: 8a50 463d 490b c83b 938b fcbc b274 e93b
00000020: 8c34 3bbd 9044 4f3d 6e79 0ebd fd70 63bd
00000030: 589a 86bc da7a be3c 8f26 82bc 782c d53c
00000040: 6204 c7be 4564 bdbc 72ff 4c3d 44b9 0dbd
00000050: 3c70 cfbc 7e15 07bb 0b74 803d 79ce f7bd
00000060: 126b d23c 131d 193c 20d7 453d f161 09bc
00000070: 9bde 113d 10c2 fb3c eeea 673c d06a 84bb
00000080: fd55 5f3d 5476 903a 7ab4 c7bc 4aaa 09be
00000090: d6ce a3bc df8a 97bb 4833 07bd 74c4 b53c
000000a0: ec59 12bd 1154 653c b38b 09bd 2f97 303d
000000b0: 0c65 143d c902 b6bc e532 3dbd 370c ddbc
000000c0: 5ab4 39bc a479 bc3d d432 a3be c4fb 7e3d
000000d0: 6fb9 31bd f6a1 d8ba 0d6c 1f3c 9cef a8bd
000000e0: 8ace ac3c cc46 57bc 4fe5 3bbc 0a7e 84bb
000000f0: 67ad f2bc 42d0 c7bc 1b96 30bd 88d2 7f3c
00000100: 81fb 2b3d 99ca e2bc 7eea da3b b583 703d
00000110: 4ad7 7cbd aec2 ac3b 455b 37be 9ab6 84bc
00000120: 5e3a 99bc 6954 753c 6553 4cbb 0070 44bd
00000130: ede4 973b f834 fdbe f2b1 853c 7ace 233d
00000140: 0959 9a3c 6dc3 b43c c741 003d 1ba4 3abd
00000150: dfb8 493d ae83 c33c 74cd c5bc a146 303d
00000160: c849 e8be b748 b63c 376d 1ebd d979 a0bc
00000170: 6ca7 eabc d6ad 06bb 795d 763d 34fc 9fbc
00000180: a508 3b3c be8b bdbc 1e89 a1bc cc57 b83c
00000190: 803e e13c 3dc3 b53c fb40 e7bb 4531 93bc
000001a0: be14 e63c a189 45bc 91f7 14bd ebf0 823d
000001b0: 9ea3 0cbd b39f fe3c c991 6e3d f0e7 93be
000001c0: b21e 613d 9598 633d a136 113d 3568 83bb
000001d0: d8f4 5d3d 4ac8 5c3c 6db2 e4bc 1dec 5c3b
000001e0: ede9 ee3b 11fa 593d 51f0 bcbb 125f 963d
000001f0: a88e 933d 38a1 aebc 58c1 273b 18c9 373d
-0.03173569 0.03261252 -0.04392769 -0.03244665 0.04841665 0.006104861 -0.030828273 0.007124507
-0.04570441 0.050602496 -0.034783773 -0.055527676 -0.016431019 0.02325194 -0.015887527 0.02602218
-0.3887053 -0.023119101 0.0500483 -0.03460051 -0.025322072 -0.0020612176 0.062721334 -0.120999284
0.02568582 0.009345311 0.048300862 -0.008385167 0.035612684 0.030732185 0.014155133 -0.0040410534
0.054525364 0.0011021593 -0.02437805 -0.13443866 -0.019996088 -0.004624709 -0.03300789 0.022188403
-0.035730287 0.013997094 -0.033580493 0.04311293 0.03622918 -0.022218125 -0.046191115 -0.026983364
-0.011334503 0.092028886 -0.31874716 0.06225182 -0.043389734 -0.001652776 0.009730351 -0.08248827
0.02109458 -0.013139438 -0.011468246 -0.0040433453 -0.0296237 -0.024391297 -0.0431119 0.015614159
0.0419879 -0.027684497 0.0066807857 0.058719356 -0.061728753 0.005272231 -0.1790591 -0.016200352
-0.01870459 0.014973738 -0.0031177637 -0.047958374 0.0046354444 -0.49454474 0.016320202 0.039991833
0.018841283 0.022065843 0.03131273 -0.04556666 0.049248572 0.0238665 -0.02414582 0.043036107
-0.4536879 0.02225147 -0.038678374 -0.019589351 -0.028644286 -0.0020550392 0.060147736 -0.01952944
0.011415635 -0.023137923 -0.019718703 0.022502802 0.027495623 0.022187823 -0.007057307 -0.01796783
0.028086063 -0.012056739 -0.03636891 0.06393608 -0.034335725 0.03108201 0.0582445 -0.28887892
0.054960914 0.055565435 0.03545249 -0.004010225 0.05418858 0.013475487 -0.027917111 0.003371007
0.0072910697 0.053216998 -0.0057659526 0.07342352 0.07204944 -0.02131711 0.002559742 0.044869512

network.2.0.weight f4 [64, 128]
00000000: ca29 323d 7c35 943d 7241 aa3d 5c28 ed3d
00000010: 6fcf c93d ea83 883d 5e1a 563d 3fa9 543e
00000020: 2c45 30bd 6b5b 6d3c 6227 d93a f2e2 d03c
00000030: 5cd3 a43d 397d f6bd 6821 203e 4316 ea3c
00000040: aacc b3bc 882f ae3d 5645 2e3d 55fe 333d
00000050: f3c1 143d cb05 093e abb5 6e3d 2f2c 22be
00000060: bdc5 fa3d 2451 fd3d 6e8a d3bd 2d4f 2f3d
00000070: 749b 4f3c aeb7 233d 40a9 a3bd 8d50 bd3d
00000080: 3648 b5bc a837 7dbd 437f 90ba e13b 94bb
00000090: 39c2 c1bc ecba 0fbd fb7a 99ba b971 ad3d
000000a0: 2be9 143c 3d4e 9ebd f4a6 a53d 6306 343d
000000b0: 0fbc 03bd 27b8 cfbd ca73 bbbc c0db c13d
000000c0: b4c7 81bd 1313 153e 0910 bfbd da90 3d3c
000000d0: 57ab fa3d db2b 1f3d 2739 94bd 58ca d73d
000000e0: c469 3b3e ebfd dd3b 24a0 d6bc 8c54 d7bd
000000f0: 85b5 95bd dc38 703d 7253 fb3c 3981 d03d
00000100: 83f2 543d 6bdf ecbc f81c 0e3e d8cf 67bd
00000110: 1412 c43d fd59 633d 414c 04bf 5441 8b3d
00000120: 45dd a0bc 47eb 173e 4adc 8c3d d178 7a3d
00000130: 72b8 ac3d ea84 7ebd 0677 8c3d 8386 8bbd
00000140: 1c51 9a3d 2f3b e23d 0fed 66bc 1ad8 02bd
00000150: e648 013d d9c8 dcbd e5fd 003d c615 a73c
00000160: 13d4 50bd a8ce a4bd 5539 bebc 8184 24bd
00000170: ccfd 29be 00e9 62bd 230e 0fba 0204 aa3b
00000180: 3d9d 58bd 06c0 e73e 6d64 d23d 15de 05be
00000190: d8c0 a33d 3fb9 a9bc fe2d 123e dbb4 7f3d
000001a0: dc61 6bbd 706d 9c3d 2a7d 3d3d 2223 443d
000001b0: 69d3 babd 1c34 2cbd 8839 56bc 7e88 f83c
000001c0: 9d7f f3bc d63b d23c a990 dd3d e29a d33d
000001d0: 8a26 043e bd69 833c 75be 7cbb ab69 0dba
000001e0: 5907 c8bc 8f88 1b3d 6320 50bd 4616 30bc
000001f0: d403 ed3d 3132 a53d e18a 92bc 1471 093b
00000200: a1f9 ce3d 1ca6 e33d 9e0d e03d 3903 eb3c
00000210: 122a dd3d fdfe 033e b6c2 2abd e6fe 0d3e
00000220: 361b f8bc 9d9a 8fbc d8fa b53c 1be5 cabd
00000230: 53ad 263d 5253 c7bd 714e 8d3d e129 73bb
00000240: c720 9e3c c517 353c 8289 863d b414 f43d
00000250: ef9d 033d fd8a 043e 03e2 aa3d dc6a ebbd
00000260: 34e9 823d aa06 d6bc c59d 23be 8660 b63d
00000270: c73e 1c3d 019a 123e d6cd cdbd 2a39 da3d
00000280: c475 233d 624b 0cbd 0f00 c03d 8f6a 0b3d
00000290: 2e63 65bc 4559 ab39 d4d0 db3d 8427 d93d
000002a0: 04b4 163e 4e4b 90bd 53b2 b43c f9a0 4e3d
000002b0: 0436 253d 8657 3fbe 5ba0 46bd cc95 a23d
000002c0: 982e d4bd 450f dfbb 0f90 3dbe 0508 d13c
000002d0: 9098 e33d a745 e13d 1c25 bebd 3a72 103e
000002e0: 3c22 6f3e e875 29bd f41d fb3a 6db8 d33c
000002f0: e373 b4bd 3d77 823d a16f c33c ced3 fd3c
00000300: d28b 1dbc 289c 24bd 3a5d 323c dfb9 7ebd
00000310: 2559 d73a ad9b 8239 d171 f5be daff 063e
00000320: 6936 213d 92ed c43c 0a92 163e 8152 ea3d
00000330: eee5 e63d 758b 9d3c 2efe 02bd 344b 8dbd
00000340: a8c3 72bd 6951 ce3d e173 b93d 2116 c33d
00000350: 3131 563c ec3a 30bd 24f6 e1bc 02ad 813d
00000360: a9eb 98bd 59e9 58bd 5441 643d 4b89 cfbd
00000370: c707 0fbe 1f03 97bd 053f 85bd fbec 083d
00000380: 05cf dcbd d794 cd3e 34b1 d43d 1406 39bc
00000390: e61b a13c 45f9 e73c a20b c73d c199 bbbc
000003a0: 166a 51bd b4c7 133d 9576 a7bd bfcc 983d
000003b0: 5fae d3bd 1cde 71bd 17dc e43d a5c8 ecbd
000003c0: 10de c9bd 49d1 ccbc d7e1 2a3b a826 0cbd
000003d0: 5d2f d83d 5543 b63d 212a f83d 06d2 08bc
000003e0: cdc2 733d 1f83 10bd 18ba cabc 5d3a f43d
000003f0: 4cab 1fbd 9692 973c 9837 4abd 4569 653b
0.043496884 0.07236764 0.08313264 0.115799636 0.09854018 0.066657856 0.05227124 0.20767687
-0.043034717 0.014487128 0.0016567523 0.025498841 0.08048126 -0.12035603 0.15637743 0.028575068
-0.021948177 0.085051596 0.042546593 0.04394372 0.036317777 0.13381116 0.05827872 -0.15837167
0.12244747 0.12368992 -0.10329138 0.042800117 0.01267134 0.039970092 -0.07991266 0.092438795
-0.02212916 -0.061820656 -0.0011024255 -0.0045237397 -0.023652183 -0.035090372 -0.0011709625 0.084689565
0.009088795 -0.077297665 0.080884844 0.043951403 -0.03216177 -0.10142546 -0.022882361 0.09465742
-0.063369185 0.14558057 -0.0932923 0.01157018 0.12239712 0.038860183 -0.072374634 0.10536641
0.18302065 0.006774654 -0.026199408 -0.10514173 -0.07310013 0.058647975 0.030679438 0.10180897
0.05198909 -0.028915128 0.13878238 -0.0565947 0.09573761 0.05550574 -0.51678854 0.0679957
-0.01963676 0.14835845 0.06877954 0.061150376 0.08433618 -0.062138475 0.068586394 -0.068127654
0.07535002 0.110464446 -0.014094605 -0.03194437 0.031563662 -0.10780496 0.031492133 0.020396125
-0.0509835 -0.08047229 -0.023220697 -0.040165428 -0.16600722 -0.055397987 -0.00054571236 0.005188466
-0.05288433 0.4526369 0.10273061 -0.13072999 0.079957664 -0.020718215 0.14275357 0.062428337
-0.057466373 0.07638061 0.046261944 0.047885068 -0.091223545 -0.042041883 -0.01307524 0.030338522
-0.029723937 0.025663298 0.10818607 0.10332276 0.12905326 0.01604163 -0.003856567 -0.0005394469
-0.024417566 0.03797203 -0.050812136 -0.010747498 0.11572996 0.08066214 -0.017888488 0.002097194
0.10106207 0.11115667 0.10940097 0.02868806 0.1079904 0.12890239 -0.041689597 0.13866767
-0.030286413 -0.01752978 0.022214338 -0.0990698 0.04069264 -0.09732689 0.06899727 -0.003710382
0.019302739 0.01105303 0.06569196 0.11918011 0.03213304 0.12943645 0.083438896 -0.11494991
0.06392136 -0.026126225 -0.15978153 0.08905129 0.038145807 0.1431656 -0.10049026 0.106554344
0.039907232 -0.03425158 0.09375011 0.03403717 -0.014000697 0.00032682173 0.1073319 0.1060324
0.14717108 -0.07045613 0.022057688 0.050446484 0.040334716 -0.18685731 -0.04849277 0.07938728
-0.103604496 -0.00680724 -0.18511985 0.02551652 0.11113083 0.10999613 -0.09284422 0.14106074
0.23352903 -0.04137221 0.0019158707 0.025844777 -0.08811166 0.06370399 0.02385694 0.030984785
-0.009615855 -0.040187985 0.010886485 -0.06218898 0.0016429765 0.0002491152 -0.47938398 0.13183537
0.03935853 0.024039064 0.14704147 0.114415176 0.11274324 0.019231537 -0.031980686 -0.068991095
-0.059268624 0.100741215 0.09055305 0.09525705 0.013073252 -0.043024942 -0.02758319 0.06331827
-0.074668236 -0.052956913 0.055726364 -0.101336084 -0.1396781 -0.07373642 -0.06506161 0.033429127
-0.10781673 0.40152618 0.10385361 -0.011292953 0.019666623 0.028317103 0.09719016 -0.022900464
-0.051126562 0.036079124 -0.081769146 0.07460927 -0.10335993 -0.05904971 0.11174791 -0.115617074
-0.09856808 -0.025002139 0.0026074552 -0.034216553 0.10555909 0.08899561 0.121174105 -0.008350855
0.05951195 -0.035281297 -0.02474694 0.119251944 -0.03898172 0.018502515 -0.049369425 0.0035005372

network.2.0.bias f4 [64]
00000000: 6d2d a63c 41a1 e13c 2455 ecbc 8da4 5d3d
00000010: f1a3 1b3d 6687 bc3d fefb 743d a7ce 2a3d
00000020: e772 c63d c527 913d 3b38 1e3d 2742 38bd
00000030: 4698 033d cfc9 993c 6a95 5c3d 2d5d 373d
00000040: 9df8 fabb dfdc 033d 49ea 8dbe 83b5 003b
00000050: b561 dfbc caea 7d3d 1627 363d f550 713d
00000060: 5b7f c93d b488 fd3c bd8b fb3c 9c1f d439
00000070: 01f3 2c3d 819a a93d 37a7 05bc f8c9 13bd
00000080: 4003 5cbd 7f84 c63b 8cc1 c6bc 6704 9f3d
00000090: fd57 3a3d cc84 7b3d 5a99 0dbd 30cf b1bc
000000a0: 2ef1 7abd c0fe 603d 73d7 593c a758 3abd
000000b0: ffcc c43c 7a88 5f3d 2ccd 033d 1b23 2b3c
000000c0: 6ab0 0b3d ab64 853d ddc6 aebc 701a 683d
000000d0: 98b2 103d 8a4b 343d 7947 e43c 4401 233c
000000e0: 4395 683d a1ca 493d 8650 a53d f16c f53c
000000f0: 07f5 90bb 9924 4d3c 1076 a23d 76ce 473d
0.020285333 0.027542712 -0.028849192 0.054112006 0.037998144 0.09205513 0.05981063 0.041700985
0.09689885 0.070876636 0.038627844 -0.044984963 0.03212764 0.018772988 0.05385343 0.044766594
-0.0076590315 0.03219306 -0.27717808 0.001963944 -0.02726827 0.06199149 0.04447087 0.058915097
0.09838744 0.030948974 0.03070628 0.00040459342 0.042223934 0.082814224 -0.008157543 -0.036081284
-0.053714037 0.0060582752 -0.024262212 0.077645116 0.04549407 0.06140594 -0.034570076 -0.02170524
-0.061265163 0.05493045 0.013295996 -0.0454947 0.024023531 0.054573514 0.03217809 0.0104453815
0.03410379 0.065133415 -0.02133506 0.056665838 0.03532657 0.044017352 0.027866112 0.009949032
0.056782972 0.049265508 0.08071999 0.029959174 -0.004423741 0.012520933 0.07932675 0.04878088

network.3.weight f4 [1, 64]
00000000: cd77 c63d 76fe a33d 37b3 0f3e 13b0 a03d
00000010: d038 f0bd c241 0dbe be78 1a3e 2b3a eebd
00000020: efc2 0f3e 0b85 d03d 5e5b bb3d 1a36 fd3d
00000030: 6dcf ac3d ba9a 343e 7109 30be 1842 b53d
00000040: cb42 03be 55a7 043e 81eb b93e aaa6 04be
00000050: ebdd 56be b11a 023e fd85 133e 674d fc3d
00000060: f6a2 2bbe 68b3 37be 42ab 2e3e 5679 093e
00000070: 43d7 213e 225c 39be 4d3d 46bf d5a4 073e
00000080: 9521 1f3e b5bc 40be fbb1 023e 729f 1a3e
00000090: 8b18 02be 2602 22be cab2 02be 589d fb3d
000000a0: d73c 2bbe 85b6 51be 46ef e03d 117c 243e
000000b0: 72b2 f1bd 0b75 60be 6d95 efbd ca80 11be
000000c0: 18f1 f5bd 8ed2 003e 8155 033e aa3e 223f
000000d0: d759 1d3e 5a1b 1c3f fca3 463e 1c69 07be
000000e0: b08b 46be 468e 20be d14c ef3d a234 0dbe
000000f0: d99c cb3d d02d fbbd 2a09 54be 46a0 e93d
0.09690819 0.08007519 0.14033209 0.078460835 -0.11729586 -0.13794616 0.15085122 -0.116321884
0.14039205 0.10181626 0.09148286 0.12363835 0.08438001 0.17637148 -0.17191102 0.08850497
-0.12818448 0.12954457 0.36312488 -0.12954202 -0.20983092 0.12705494 0.14406581 0.12319451
-0.16761383 -0.17939532 0.17057517 0.13425192 0.15804772 -0.18101552 -0.7743729 0.13246472
0.15540154 -0.18821986 0.12763207 0.15099886 -0.12704675 -0.15821132 -0.12763515 0.1228587
-0.16722427 -0.20479782 0.10983138 0.16062953 -0.11801614 -0.21919648 -0.116984226 -0.14209285
-0.120088756 0.1258032 0.12825586 0.6337687 0.15366302 0.60979235 0.19398493 -0.1322369
-0.19389224 -0.15679273 0.116845734 -0.13789609 0.09942026 -0.122645974 -0.20706621 0.11407523
