data/user_properties/trained_weights/DenseNet-energy_atom.pth (torch_old, 289666 bytes, 7 tensors)

network.0.0.weight f4 [256, 119]
0	0x3e35df8d	0.17761059
1	0xbd0ff716	-0.03514775
2	0x3d520671	0.051275674
3	0x3b9743ea	0.0046162503
4	0xbcfe37ac	-0.031032406
5	0xbd00b4f7	-0.03142258
6	0xbccbc8e0	-0.024876058
7	0xbde4b597	-0.11167448
8	0xbd72fa9f	-0.059321042
9	0xbdcc1072	-0.09964074
10	0x3e5ae43d	0.21376128
11	0x3db750a9	0.089509316
12	0x3d07cbac	0.03315322
13	0x3b145b19	0.0022637306
14	0xbc80925e	-0.015694793
15	0xbc4e6028	-0.012596168
16	0xbc602881	-0.013681532
17	0x3d6b9ab8	0.0575206
18	0x3e24866a	0.160669
19	0xbd0527c0	-0.03250861
20	0xbcd9db3c	-0.026593797
21	0xbd233ec3	-0.039854776
22	0xbdfe1e55	-0.12408129
23	0xbcd09063	-0.025459474
24	0xbc6b5fa4	-0.014366064
25	0xbe530abf	-0.20609568
26	0x3ce05084	0.027382143
27	0xbd74d969	-0.05977765
28	0x3cf7a260	0.030228794
29	0x3d8f4d18	0.06997126
30	0x3cf5fa0e	0.030026462
31	0x3cd81ad7	0.026379986
32	0xbc87166b	-0.016490182
33	0xbc03a9f2	-0.008036124
34	0xbc1fc8a5	-0.009752427
35	0x3d0e1256	0.034685455
36	0x3e32cb7e	0.17460439
37	0x3d64089c	0.055672273
38	0xbd74d26c	-0.059770986
39	0xbd5faa53	-0.054605793
40	0xbd9a7740	-0.075422764
41	0xbe5b729d	-0.2143044
42	0xbe48e6d2	-0.19619301
43	0xbc94a4d1	-0.018144997
44	0xbca84a35	-0.020543197
45	0xbc8e4956	-0.017368954
46	0x3d0bd087	0.034134414
47	0x3e63e26b	0.2225434
48	0x3d975e30	0.07391012
49	0xbbbb97ca	-0.005724882
50	0xbd1e4eee	-0.038649492
51	0x3a5b3f04	0.0008363577
52	0x3ba44600	0.0050132275
53	0x3de84cc1	0.11342765
54	0x3ea70716	0.32622594
55	0x3dae31b0	0.08505571
56	0xbd3ec72f	-0.046576675
57	0xbd03f96d	-0.032220293
58	0xbd13eaeb	-0.036112707
59	0xbd100608	-0.035162
60	0xbe44a55f	-0.19203709
61	0x3d995766	0.07487373
62	0xbe495459	-0.19661082
63	0xbd54c7c8	-0.05194834
64	0xbe4a8849	-0.19778551
65	0xbe496e65	-0.19671018
66	0xbc4fff3c	-0.01269513
67	0xbd541817	-0.051780786
68	0xbda427b3	-0.080153845
69	0xbe4a841c	-0.19776958
70	0x3d382954	0.04496129
71	0xbd8cd2cb	-0.06876143
72	0xbe23ee82	-0.16008952
73	0xbd0371f7	-0.032091107
74	0xbdfc430e	-0.12317477
75	0xbe4d7219	-0.20063056
76	0xbdfbd8b8	-0.12297195
77	0xbe46a4d1	-0.1939881
78	0xbdc6c312	-0.097051755
79	0x3dbb56f6	0.09147446
80	0x3e53f12f	0.20697473
81	0x3b7a7181	0.0038214626
82	0xbc09d4b7	-0.008412532
83	0x3d1c7455	0.03819688
84	0x3e32b54d	0.17451973
85	0x3cbb96d4	0.022899069
86	0x3c7cca88	0.015429147
87	0x3df77ce5	0.120843686
88	0x3c4130e1	0.011791439
89	0x3dcbfe0b	0.09960564
90	0xbe23971f	-0.15975617
91	0xbdcfad4a	-0.10140474
92	0xbde6e386	-0.112738654
93	0x3d941517	0.07230585
94	0xbe0055c2	-0.12532714
95	0x3dcfc1d7	0.10144394
96	0x3dd6c0d2	0.10485996
97	0x3dd48f60	0.10378909
98	0x3d4473ae	0.047961883
99	0x3e066ff3	0.13128643
100	0x3d77fd74	0.060544446
101	0x3dc5549d	0.09635279
102	0x3e1bfa02	0.15232089
103	0x3d5488d5	0.051888306
104	0x3df88e93	0.12136569
105	0x3dc539d5	0.09630171
106	0x3da68723	0.08131244
107	0x3e139b91	0.14414813
108	0x3e1589a8	0.14603293
109	0x3e2402e1	0.16016723
110	0x3d3061e6	0.043062113
111	0x3d1ebd98	0.03875503
112	0x3de866e4	0.1134775
113	0x3e27fd0e	0.16405126
114	0x3e207b15	0.15671952
115	0x3df2f7ab	0.11863645
116	0x3da9b91b	0.08287259
117	0x3db4ddc4	0.08831361
118	0x3e15e684	0.14638716
119	0x3c3b05fb	0.011415
120	0x3c91a79a	0.017780114
121	0xbd791c4f	-0.060818013
122	0x3db14d42	0.08657314
123	0xbe1243b0	-0.14283633
124	0xbd5c2258	-0.05374369
125	0xbd96c0e7	-0.07361012
126	0xbce01b45	-0.027356753
127	0xbc971de4	-0.01844687
128	0xbc5bb7ee	-0.0134105515
129	0xbdbe012b	-0.092775665
130	0xbdd3caae	-0.103413925
131	0xbe0a95ae	-0.13533661
132	0xbe10a046	-0.1412364
133	0xbd3b870c	-0.045783088
134	0xbd8d9eb0	-0.06915033
135	0xbcacca97	-0.021092696
136	0xbc7a619a	-0.015282059
137	0x3e005f13	0.12536268
138	0x3d647b65	0.05578174
139	0xbe3f1ae2	-0.18662599
140	0xbd18e951	-0.037331883
141	0xbdbcba51	-0.092152245
142	0xbc8e219c	-0.01735001
143	0xbe197bce	-0.14988634
144	0x3c9f2924	0.019428797
145	0xbe0f84a1	-0.14015438
146	0x3a10d923	0.000552552
147	0xbc67a7dc	-0.014139142
148	0x3dd3037a	0.103033975
149	0x3db48ac2	0.088155285
150	0x3d98f9a0	0.07469487
151	0x3ba7ee05	0.0051248097
152	0xbc4b8c91	-0.01242365
153	0xbccaa5ea	-0.024737317
154	0x3cdd500d	0.02701571
155	0xbd2977a1	-0.041373853
156	0xbcc25bf4	-0.023725487
157	0xbe09e694	-0.13466865
158	0xbdb583fb	-0.08863064
159	0xbe1fe0be	-0.15613076
160	0xbca9ecf4	-0.02074287
161	0xbe2dccc5	-0.16972645
162	0xbd6b3e3c	-0.0574324
163	0xbd810952	-0.06300606
164	0x3c92d96a	0.017925937
165	0xbdd21177	-0.102572374
166	0x3d52c3f2	0.0514564
167	0x3db02682	0.08601095
168	0xbe228a36	-0.15873036
169	0xbe37c0bc	-0.17944616
170	0x3cbd0f55	0.0230786
171	0xbd02b681	-0.03191233
172	0xbcc40098	-0.023926064
173	0x3cafd3ae	0.021463241
174	0x3ba66fb6	0.005079235
175	0xbd21d47a	-0.039509274
176	0xbd3c1891	-0.045921866
177	0xbe3d4a21	-0.18485309
178	0xbe001119	-0.12506522
179	0xbd410e92	-0.047133036
180	0xbc61ab24	-0.013773713
181	0xbdc9873c	-0.09840247
182	0xbd172571	-0.03690094
183	0xbcd0884f	-0.025455622
184	0xbe23cdcd	-0.15996476
185	0xbe00a686	-0.12563524
186	0xbd3e89d0	-0.046518147
187	0xbdfbdbb3	-0.12297764
188	0xbdbd7688	-0.09251124
189	0xbe3c1821	-0.1836858
190	0xbc820066	-0.01586933
191	0xbe0b172a	-0.13583055
192	0xbe2850c7	-0.16437064
193	0xbce1ef40	-0.027579904
194	0xbd002c77	-0.031292405
195	0xbcd0ed90	-0.025503904
196	0xbd378aa4	-0.044809952
197	0xbdd93ab2	-0.10606898
198	0x3d1495ea	0.03627578
199	0x3d8a5201	0.06753922
200	0xbc2f8de7	-0.0107149845
201	0xbdd0705a	-0.10177679
202	0x3cd0c3af	0.025483934
203	0xbda154ff	-0.0787754
204	0x3da915af	0.08256089
205	0xbdb3f891	-0.08787645
206	0xbd93ea66	-0.07222442
207	0xbd8e8770	-0.069594264
208	0xbd44c1ec	-0.0480365
209	0xbdaa2ab2	-0.08308925
210	0xbe1bfffe	-0.15234372
211	0xbe08717c	-0.13324541
212	0xbdbe58f4	-0.0929431
213	0xbdf0d3b6	-0.11759131
214	0x3d96d3da	0.07364626
215	0xbb9444a3	-0.0045247837
216	0x3d19ed92	0.03758008
217	0x3cab15ba	0.020884383
218	0xbd5bd77f	-0.05367231
219	0x3d92844e	0.07154141
220	0xbbf5dd57	-0.0075031924
221	0xbd852ff1	-0.06503285
222	0x3c4a2845	0.012338703
223	0x3b9440b8	0.0045243166
224	0xbd75fd64	-0.060056105
225	0x3d4a8577	0.04944369
226	0x3d062a28	0.032755047
227	0xbda17f98	-0.07885665
228	0x3d40b4c3	0.047047388
229	0xbd3ecc1b	-0.04658137
230	0xbd9ad084	-0.075593024
231	0xbd6bc0c7	-0.057556894
232	0x3d9df596	0.077128574
233	0x3c08a679	0.008340471
234	0x3d049238	0.032366008
235	0x3d998acf	0.07497179
236	0xbd011bfb	-0.031520825
237	0xbe3fe9e6	-0.18741569
238	0xbd18ae10	-0.037275374
239	0xbc8b9692	-0.017039571
240	0x3e0d1a04	0.13779455
241	0xbd60db88	-0.05489686
242	0x3cddca8a	0.027074117
243	0xbc46cbc8	-0.012133546
244	0xbc2c5c1d	-0.010520008
245	0xbc4466c8	-0.011987396
246	0x3a938291	0.0011254122
247	0xbdefe063	-0.1171272
248	0x3ddcfa52	0.10789932
249	0xbd50f8e8	-0.051018625
250	0xbbb0cc73	-0.005395466
251	0x390efbde	0.00013636003
252	0x3b548715	0.0032429148
253	0xbc55b460	-0.013043493
254	0xbbe1bd15	-0.0068889954
255	0xbdc9e3ff	-0.0985794

network.0.0.bias f4 [256]
0	0x3d6c95c2	0.057760008
1	0x3d8a2163	0.06744649
2	0x3d97f17e	0.07419108
3	0x3d122d60	0.035687804
4	0x3d28e308	0.04123214
5	0xbe5cc2a4	-0.21558625
6	0xbd818c23	-0.06325557
7	0x3c5d665e	0.013513176
8	0x3d2195b7	0.03944942
9	0x3dbaa80f	0.09114086
10	0xbe0e056b	-0.13869254
11	0x3d1bc87f	0.038033005
12	0x3d77e490	0.06052071
13	0x3d207771	0.03917641
14	0xbe26320c	-0.16230029
15	0x3cb614dc	0.022226743
16	0x3cf82e4c	0.030295514
17	0xbda97273	-0.082737826
18	0x3ddddd51	0.108332284
19	0xbe2f8382	-0.1714001
20	0x3da41e3f	0.080135815
21	0x3d973888	0.07383829
22	0x3d970591	0.073741086
23	0x3c5ed747	0.013601131
24	0xbcceeeb4	-0.025260307
25	0xbdca98cb	-0.09892424
26	0x3c37975a	0.011205519
27	0x3b7612ff	0.0037547944
28	0x3b3324d5	0.0027335186
29	0x391090b1	0.00013786812
30	0x3c999119	0.018745946
31	0xbe0154a7	-0.12629949
32	0x3d6284eb	0.05530254
33	0x3e696e1e	0.22795913
34	0x3d08ccf9	0.033398602
35	0xbc0d280b	-0.008615504
36	0x3cbd36bb	0.023097387
37	0x3ead981c	0.33905113
38	0xba89f167	-0.0010524214
39	0x3a9faca2	0.0012182186
40	0xbc8cb2f5	-0.017175177
41	0xbe9677ca	-0.29388267
42	0xbab8b0b2	-0.0014090745
43	0xbd72778e	-0.059196047
44	0x3da479b1	0.08031023
45	0xbc636441	-0.013878883
46	0x3da22535	0.07917253
47	0xbcb973c0	-0.022638202
48	0x3c61df0f	0.0137860915
49	0x3d016b53	0.031596493
50	0xbba4f652	-0.0050342465
51	0xbc00a92c	-0.007852834
52	0x3dbedccd	0.09319458
53	0x3da57b47	0.08080154
54	0x3da95f09	0.0827008
55	0x3d3e6f2d	0.046492744
56	0xbd586b4f	-0.052836712
57	0xbe8fe9db	-0.28108105
58	0x3d7176eb	0.0589513
59	0x3b950821	0.004548088
60	0x3dc49fc4	0.096007854
61	0xbe65d392	-0.22443989
62	0x3dcf05e8	0.101085484
63	0x3dbda0e1	0.09259201
64	0xbc7e88f1	-0.015535579
65	0x3a02c354	0.00049882126
66	0xbcf6a05b	-0.03010576
67	0x3c89c2e5	0.016816566
68	0x3c57aa22	0.013163121
69	0x3d848c7f	0.0647211
70	0x3cfe18b9	0.031017648
71	0x3d8a3b29	0.06749565
72	0x3d940981	0.07228375
73	0x3c656ae0	0.014002532
74	0xbe711bbb	-0.23545735
75	0xbe08651d	-0.13319822
76	0xbbc52190	-0.006015964
77	0xbef87b08	-0.48531365
78	0x3d64e413	0.05588157
79	0x3dbc03e9	0.09180433
80	0x3db7f077	0.08981412
81	0x3d3fec10	0.046855986
82	0xbcc3f146	-0.02391876
83	0xbdc90cfc	-0.0981693
84	0x3c6baa61	0.014383883
85	0x3ba62e97	0.005071472
86	0xbdb9c876	-0.09071438
87	0x38aa7565	8.128098e-05
88	0x3d36f0ab	0.044663113
89	0x3da62487	0.08112436
90	0xbc24ab85	-0.010050659
91	0xbd8039a9	-0.06260998
92	0xbc5aeab4	-0.013361622
93	0x3c39fd16	0.011351844
94	0xbdfd3847	-0.1236425
95	0x3c03a818	0.008035682
96	0x3d010875	0.031502206
97	0x3b09d388	0.0021030623
98	0x3c743f63	0.014907691
99	0xbdaa109a	-0.08303948
100	0xbc26d3e8	-0.010182358
101	0xbd63fdeb	-0.055662077
102	0x3cac14db	0.021006038
103	0xbc53b166	-0.012920713
104	0xbe29fd2c	-0.16600484
105	0x3d6d74db	0.05797277
106	0xbe0184d5	-0.12648328
107	0xbd510f75	-0.05104013
108	0xbcd037c9	-0.025417225
109	0xbdb8c23a	-0.09021421
110	0x3d71ef3c	0.059066042
111	0xbda40ba9	-0.080100365
112	0x3d4f4885	0.05060627
113	0x3cb2e935	0.021839717
114	0x3d452a84	0.04813625
115	0x3d822b1e	0.0635588
116	0x3cf0df71	0.02940342
117	0xbb73b2a4	-0.0037185336
118	0x3d198d65	0.03748836
119	0xbe34424c	-0.17603415
120	0xbc9fd123	-0.019508904
121	0x3d5f2654	0.054479912
122	0xbbb6b76d	-0.0055760653
123	0x3cbad237	0.022805316
124	0x3d941329	0.07230217
125	0x3c8af2e3	0.01696152
126	0xbc02b885	-0.007978563
127	0x3d96177d	0.07328699
128	0x3d4e6dfa	0.05039785
129	0x3d13c1a8	0.036073357
130	0x3d75714c	0.0599225
131	0x3c8de069	0.017318921
132	0x3c6b7639	0.014371448
133	0x3d6806c8	0.056647092
134	0x3cb2476b	0.02176257
135	0x3dc28b77	0.09499257
136	0x3cfe24ef	0.03102347
137	0x3c13ac47	0.009013242
138	0x3d3ac9cf	0.045602616
139	0xbeb5001b	-0.35351643
140	0x3d8e910c	0.06961259
141	0xbd2a8ef6	-0.041640244
142	0x3d6c35ee	0.05766862
143	0x3c279610	0.010228649
144	0x3ca95748	0.020671502
145	0xbd30faf1	-0.043208066
146	0x3d2f9638	0.04286787
147	0x3dcea4fa	0.100900605
148	0x3d76485e	0.06012761
149	0xbba9ae3d	-0.0051782415
150	0x3d61ed93	0.05515821
151	0xbcaf61f8	-0.02140902
152	0x3ca1c30d	0.019746328
153	0xbdff7cf1	-0.124750026
154	0x3b3b1cd5	0.002855112
155	0x3d08e523	0.033421647
156	0x3cac9102	0.021065239
157	0x3d1a84ea	0.037724413
158	0x3ce12113	0.027481591
159	0x3d5896aa	0.05287806
160	0x3bb04c3b	0.005380181
161	0x3c94f9d1	0.018185528
162	0xbc6f7e11	-0.014617459
163	0x3df0159b	0.11722871
164	0x3d6a8121	0.057252053
165	0xbbd2fc53	-0.006438771
166	0xbb9d1e8a	-0.0047949003
167	0x3d5117f1	0.051048223
168	0xbe4617fc	-0.19345087
169	0x3cbc3cb0	0.022978157
170	0x3c1f2a8a	0.009714732
171	0x3d96f364	0.07370642
172	0x3d004d75	0.03132387
173	0xbbca06ed	-0.0061653764
174	0x3d9fc011	0.07800306
175	0x3cefafc8	0.029258624
176	0x3ca7af58	0.020469353
177	0x3caae0c6	0.020859133
178	0x3d5318a8	0.051537186
179	0x3d3e1223	0.046404015
180	0x3c50dcf1	0.012747989
181	0xbe551cfe	-0.20811841
182	0x3d9b4c8a	0.07582958
183	0xbc914578	-0.01773332
184	0x3ccb8544	0.02484382
185	0xbd06b5a6	-0.032888077
186	0x3dc6f1ea	0.0971411
187	0x3d8e4c5e	0.0694816
188	0x3cf7b070	0.0302355
189	0x3d217037	0.039413657
190	0xbd06fb89	-0.032954726
191	0xbe7c85f5	-0.24660476
192	0x3d8a3d95	0.06750027
193	0xbb32930b	-0.002724829
194	0xbdb64a34	-0.08900872
195	0xb9a0934c	-0.00030627323
196	0x3ca04c6a	0.019567687
197	0x3b82a326	0.003986734
198	0x3d05849e	0.032597177
199	0x3d14e660	0.036352515
200	0xbe9d36c8	-0.30705857
201	0xbc604672	-0.0136886705
202	0xbd3408bf	-0.043953653
203	0x3db7dae7	0.08977299
204	0x3d24c328	0.040225178
205	0x3d277034	0.04087849
206	0x3d016ba8	0.03159681
207	0xbcc9e557	-0.02464549
208	0x3cba974a	0.022777218
209	0x3c6530d9	0.013988697
210	0xbb8855c0	-0.004160613
211	0x3db00d0f	0.08596241
212	0x3d2e0e9b	0.042494398
213	0x3db3dfc3	0.087829135
214	0xbcc66fbc	-0.024223201
215	0xba6037c4	-0.00085532316
216	0x3e94fdee	0.29099983
217	0x3d3db0f3	0.04631133
218	0x3d8bce1d	0.06826422
219	0x3d26c54c	0.0407155
220	0x3d52df0c	0.051482245
221	0xbc6e31d0	-0.014538243
222	0x3cf44940	0.029820085
223	0xbc091301	-0.008366347
224	0x3d5d36d8	0.05400738
225	0x3d3235fd	0.04350852
226	0xbef5dbfa	-0.4801939
227	0xbc58467e	-0.0132004
228	0xbc9970bd	-0.018730516
229	0xbe8ce754	-0.2752024
230	0x3dafdb9e	0.085868105
231	0xbbf3220b	-0.0074198297
232	0xbdabec79	-0.08394713
233	0xbde865d4	-0.11347547
234	0xbd3b6f13	-0.045760226
235	0xbd6407a8	-0.055671364
236	0x3c73cb02	0.014879944
237	0x3d48126f	0.048845705
238	0x3d85e6e1	0.06538177
239	0x3cc85a2e	0.024457064
240	0x3ce8d16d	0.028420174
241	0x3d1dc303	0.038516056
242	0x3cbe32f9	0.023217665
243	0x3d5e5209	0.054277454
244	0x3ba329db	0.004979355
245	0xbcdbfb04	-0.026853092
246	0x3b29c0f5	0.0025902365
247	0x3d6af0b7	0.05735847
248	0xbcc5d538	-0.024149522
249	0xbe23b781	-0.1598797
250	0xbdb3128b	-0.08743771
251	0x3d24c899	0.040230367
252	0x3db68da6	0.08913736
253	0x3ab97819	0.0014150172
254	0xbd926cf6	-0.07149689
255	0x3d3a516c	0.045487806

network.1.0.weight f4 [128, 256]
0	0xbdddb2d6	-0.10825126
1	0xbb2a4c4c	-0.0025985418
2	0x3d5378c3	0.05162884
3	0x3c947e99	0.018126773
4	0xbe0ac4a3	-0.13551573
5	0xbde5b0d5	-0.11215369
6	0x3d2b18c9	0.041771684
7	0xbb59b770	-0.003322091
8	0xbc936bc2	-0.017995719
9	0x3b941d04	0.0045200605
10	0xbe89f4dc	-0.26944625
11	0xbda172ae	-0.078832015
12	0x3da8c293	0.08240237
13	0xbcc7b18c	-0.024376653
14	0x3cf5bcac	0.029997192
15	0x3d815e91	0.06316865
16	0x3ce63927	0.028103424
17	0x3ddfd8a7	0.10929995
18	0xbdfa1f9e	-0.12213062
19	0x3c4c8015	0.012481709
20	0x3d4c6ff5	0.049911458
21	0xbc4c6ef9	-0.01247763
22	0xbd9f905b	-0.077912055
23	0x3d0a63c0	0.033786535
24	0xbdb7964f	-0.08964216
25	0x3d1cde24	0.038297787
26	0xbd27f90c	-0.041008994
27	0xbab02bd3	-0.0013440795
28	0xbd1a238c	-0.037631556
29	0x3cc0705f	0.023491083
30	0xbc516bd3	-0.012782055
31	0xbd6b08ad	-0.05738132
32	0xbba8811b	-0.0051423437
33	0xbcadb9bc	-0.02120673
34	0xbdc7ae74	-0.09750071
35	0xbca04d0d	-0.01956799
36	0xbd89a694	-0.067212254
37	0xbe0b655d	-0.13612886
38	0x3d1b2a8e	0.03788238
39	0xbd22eb29	-0.039775047
40	0xbd469d17	-0.048489656
41	0xbd645893	-0.055748533
42	0xbccb145e	-0.024789985
43	0x3dd7c9a7	0.10536509
44	0xbd378cc2	-0.04481197
45	0x3cfc20ee	0.03077742
46	0xbc441e42	-0.011970105
47	0x3d90bdec	0.07067475
48	0xbafb54f3	-0.0019175097
49	0xbbeeae75	-0.0072839805
50	0x3c9d4647	0.01919855
51	0xbc6272f9	-0.013821357
52	0xbc272d8f	-0.010203733
53	0xbdd5af28	-0.10433799
54	0x3d8f8175	0.07007114
55	0x3cba44a8	0.022737816
56	0x3c79fe31	0.015258358
57	0xbd143abf	-0.036188837
58	0x3cce0f1f	0.025153695
59	0xbcde9893	-0.027172362
60	0x3b41b15a	0.0029555173
61	0xbcd417f8	-0.025890335
62	0xbddcfdae	-0.10790573
63	0xbdb0af27	-0.08627158
64	0x3d7d9d9a	0.06191788
65	0x3d00db78	0.0314593
66	0x3bc17fbd	0.00590512
67	0xbd322a7c	-0.043497548
68	0xbd7063c2	-0.058688886
69	0xbd5967ba	-0.053077437
70	0x3c9f09ba	0.019413818
71	0x3d756f83	0.0599208
72	0x3d74f145	0.059800405
73	0xbceda754	-0.029010452
74	0xbf5ec219	-0.8701492
75	0x3d90f7f9	0.07078547
76	0x3d2ff358	0.04295668
77	0xbe05d33f	-0.13068865
78	0x3d8af305	0.067846335
79	0x3d49ddbe	0.049283735
80	0x3d05ead6	0.03269466
81	0xbe433227	-0.190621
82	0x3c73fffa	0.014892573
83	0xbe86f981	-0.2636223
84	0xbd467cfd	-0.048459042
85	0x3cffb75e	0.031215366
86	0xbc724edb	-0.014789308
87	0x3d8e5bb8	0.06951088
88	0x3cc3689e	0.023853596
89	0x3d7193e3	0.058978926
90	0xbcf47e82	-0.02984548
91	0x3c2dd049	0.010608741
92	0x3d122e5d	0.035688747
93	0xbd6a8038	-0.057251185
94	0x3b9a58ea	0.0047103064
95	0x3c9b910e	0.018990066
96	0xbce75332	-0.028237913
97	0xbad03d93	-0.0015887491
98	0xbd8aec33	-0.06783333
99	0xbe14dd8e	-0.14537641
100	0x3c8db3b9	0.017297613
101	0xbd03d6f5	-0.03218742
102	0xbdfe6eb0	-0.12423456
103	0x3c3dbbf1	0.011580453
104	0x3d721625	0.05910315
105	0xbd22f670	-0.039785802
106	0xbb90899d	-0.004410936
107	0x3d838e1f	0.06423592
108	0x3d1c979e	0.03823053
109	0x3d905f90	0.07049477
110	0xbbc24f6a	-0.005929877
111	0x3dcf258c	0.101145834
112	0x3caa33c5	0.020776639
113	0xbd5e4470	-0.054264486
114	0x3bcc01ac	0.0062257852
115	0xbdabd639	-0.08390469
116	0x3c822d39	0.015890704
117	0xbd0faf6f	-0.035079416
118	0xbda7bed0	-0.081906915
119	0xbcfdd1c8	-0.03098382
120	0x3ded9403	0.116004966
121	0xbd4dfaaf	-0.0502879
122	0x3df4a5ec	0.119457096
123	0xbd358162	-0.044312842
124	0x3cdda96a	0.027058322
125	0x3d83aa40	0.06428957
126	0xb9f67de4	-0.00047014572
127	0xbd95c26d	-0.073124744
128	0x3b3d0167	0.0028839947
129	0xbddfb3d0	-0.109229684
130	0xbcef2bad	-0.02919563
131	0x3ce69ad8	0.028150007
132	0xbbadcfaa	-0.0053042965
133	0xbd1801b3	-0.037110996
134	0x3d8f2e4e	0.06991254
135	0xbcbc4023	-0.022979802
136	0x3cbf355b	0.023340872
137	0x3cf7f97a	0.030270327
138	0xbd8986d4	-0.067151695
139	0xbdd9b7ca	-0.10630758
140	0x3c8befc2	0.017082099
141	0x3d22ac23	0.039714944
142	0x3d94b652	0.07261337
143	0xbd776e20	-0.060407758
144	0xbdc7580e	-0.09733592
145	0xbcf469bd	-0.029835576
146	0xbd073a82	-0.03301478
147	0x3d2f549d	0.042805303
148	0xbc524c13	-0.01283552
149	0x3c22d02f	0.00993733
150	0xbd6d1e95	-0.057890493
151	0xbcc3070c	-0.023807071
152	0x3c5f8cde	0.013644425
153	0x3d96933c	0.073523015
154	0x3ce5351b	0.027979424
155	0x3d5bf823	0.05370344
156	0xbe14dd43	-0.1453753
157	0x3dcbf898	0.09959525
158	0x3b25dae2	0.0025307466
159	0xbcfa4014	-0.030548133
160	0x3d02117d	0.03175496
161	0xbd8b90a9	-0.06814701
162	0x3dba6349	0.091009684
163	0xbdbd077f	-0.092299454
164	0xbe3840c1	-0.17993452
165	0xbaa6c0b8	-0.001272223
166	0xbd09c180	-0.0336318
167	0x3cf9abd9	0.030477451
168	0x3db22c7d	0.08699892
169	0x3d965572	0.07340516
170	0xbd9c28fa	-0.07625003
171	0x3c914321	0.017732205
172	0x3d1c555a	0.038167335
173	0x3e13dcd0	0.14439702
174	0x3d367ac6	0.04455068
175	0xbd3316bb	-0.04372285
176	0x3cbbf1ad	0.022942388
177	0xba6b3c5d	-0.00089735334
178	0x3cad5933	0.021160698
179	0xbbfaf066	-0.0076580523
180	0x3bee32bc	0.0072692316
181	0xbd148326	-0.036257885
182	0x3d5804e7	0.05273905
183	0x3c08aec3	0.008342448
184	0xbb2e40c8	-0.0026588906
185	0xbdd56284	-0.10419181
186	0xbd785393	-0.060626578
187	0x3d34d10d	0.04414468
188	0x3d939866	0.07206802
189	0xba91594d	-0.0011089236
190	0x3d17ff9f	0.037109014
191	0xbef4f87c	-0.4784583
192	0xbd73690d	-0.059426356
193	0xbd0cef37	-0.03440782
194	0xbdf30c8d	-0.11867628
195	0xbe2a985d	-0.16659684
196	0x3d3acd8f	0.045606192
197	0x3d41cdc6	0.04731538
198	0xbd2ba143	-0.041901838
199	0xbd87842a	-0.06617005
200	0x3da73970	0.08165252
201	0xbdb09850	-0.08622801
202	0x3c37704c	0.011196207
203	0xbbb7acde	-0.005605324
204	0xbdf2f32c	-0.118627876
205	0x3d600180	0.05468893
206	0x3af718f8	0.0018852046
207	0x3dfd05dd	0.12354634
208	0xbc9de72b	-0.019275269
209	0x3ce3289d	0.027729327
210	0x3c04a8e8	0.008096911
211	0xbd914e23	-0.070949815
212	0x3dd517ff	0.104049675
213	0xbc67f945	-0.014158552
214	0x3d1df569	0.03856412
215	0xbcec1cf5	-0.028822402
216	0xbe2ebc46	-0.17064008
217	0xbdaad61d	-0.0834162
218	0xbd97b934	-0.074083716
219	0xbcd5c367	-0.026094152
220	0xbde19748	-0.11015183
221	0xbcb269ae	-0.021778908
222	0x3d95f94d	0.07322941
223	0x3afcfa92	0.001930075
224	0xbde7d884	-0.11320594
225	0xbe918530	-0.28421926
226	0xbe95f5c5	-0.2928907
227	0x3d3c0474	0.045902684
228	0x3d810d0c	0.063013166
229	0x3c156043	0.009117189
230	0xbd1bb2fc	-0.03801249
231	0xbd4ef8df	-0.05053031
232	0xbea28f51	-0.31749967
233	0xbdc11913	-0.09428611
234	0x3c6eeede	0.014583318
235	0x3d916a41	0.071003444
236	0x3d9af756	0.07566707
237	0x3cd1c6be	0.025607463
238	0x3d89eccc	0.067346185
239	0xbc4994e6	-0.012303567
240	0xbdc41b8c	-0.09575567
241	0xbd529fc8	-0.05142191
242	0xbcf7e85a	-0.030262161
243	0xbd19825c	-0.037477836
244	0x3cac1766	0.021007251
245	0x3cbb3403	0.02285195
246	0xbd1a1d6a	-0.037625708
247	0xba284898	-0.0006419509
248	0xbbd02eb2	-0.0063532228
249	0xbd68434c	-0.056704804
250	0xbeb62fe7	-0.35583422
251	0x3de12a5d	0.10994408
252	0xbcde3af8	-0.027127728
253	0xbce2a69e	-0.02766734
254	0xbda4a622	-0.080395
255	0xbd9be63b	-0.07612272

network.1.0.bias f4 [128]
0	0x3d2a4f35	0.041579444
1	0x3ded7613	0.115947865
2	0x3d8e5cfb	0.06951328
3	0x3d02b4ab	0.03191058
4	0x3d8b505e	0.06802438
5	0x3da899d7	0.082324676
6	0x3e1fa40e	0.15589926
7	0x3d1739bf	0.036920305
8	0x3c1b81bc	0.00949138
9	0x3e1c6542	0.15273002
10	0x3d49668a	0.049170054
11	0x3d336fb8	0.043807715
12	0x3d881617	0.06644838
13	0x3d297f84	0.041381374
14	0x3cbb90fc	0.022896282
15	0xbb534572	-0.0032237438
16	0x3c8ecf6f	0.017432896
17	0x3de05f16	0.10955636
18	0x3d707a3f	0.058710333
19	0x3d638433	0.055545997
20	0x3d659365	0.05604877
21	0x3dce9186	0.1008635
22	0x3da9f416	0.08298509
23	0x3e152ca5	0.14567812
24	0x3c3cb88e	0.011518611
25	0xba3d7985	-0.00072278857
26	0x3b009427	0.0019619556
27	0x3d5e80e1	0.054322127
28	0xbf0a9c78	-0.54145
29	0xbc260cfb	-0.010134931
30	0x3d73ef02	0.059554107
31	0x3974a4d6	0.0002333106
32	0x3cbb3ec5	0.02285708
33	0x3b81975b	0.0039548106
34	0x3d12fd4e	0.0358861
35	0x3d63066e	0.055426054
36	0x3d4203dd	0.047366966
37	0x3b0d841f	0.0021593643
38	0x3da3da7e	0.080006585
39	0xbd0fe78b	-0.035132926
40	0x3dadd553	0.08487954
41	0x3d45ed2b	0.048321884
42	0xbf1151b5	-0.567653
43	0x3e095514	0.13411361
44	0x3db2cd19	0.087305255
45	0xbc8ef07a	-0.017448653
46	0x3d9704a2	0.073739305
47	0x3cdb74ee	0.026789155
48	0x3d85895b	0.06520339
49	0x3db5d891	0.088791974
50	0xbbc99ddc	-0.0061528515
51	0x3c5aab04	0.013346437
52	0xbcf1051f	-0.029421387
53	0x3d34293a	0.04398463
54	0x3d256493	0.04037912
55	0x3c0a6bb3	0.008448529
56	0x3be1fe8b	0.006896799
57	0x3e18e9bc	0.14932913
58	0x3d3796c9	0.044821534
59	0xbd5fa00c	-0.054595992
60	0xbd046f35	-0.032332618
61	0x3c94f9ec	0.018185578
62	0x3d4d9819	0.05019388
63	0x3d8c2877	0.068436556
64	0xbc6194d8	-0.013768397
65	0x3cdb6200	0.026780128
66	0x3d89a6d5	0.06721274
67	0x3daff495	0.08591572
68	0xbd308a18	-0.043100446
69	0x3d376094	0.04476984
70	0x3e0e5e90	0.1390326
71	0x3b1f76a0	0.002433218
72	0x3d657e45	0.056028623
73	0x3cdbbae0	0.026822507
74	0x3db250eb	0.0870684
75	0x3da35563	0.079752706
76	0xbcb98282	-0.022645239
77	0x3d776780	0.06040144
78	0x3d14c56e	0.036321096
79	0xbc2f81fb	-0.010712142
80	0x3cae47e2	0.02127451
81	0xbf084c92	-0.5324184
82	0x3c619831	0.013769195
83	0x3e087784	0.13326842
84	0x3e17b9dc	0.14816993
85	0x3d6427cf	0.055702027
86	0x3d41fa58	0.047357887
87	0x3d8ec94a	0.069719866
88	0x3dcac0d0	0.09900057
89	0xbc991a71	-0.018689366
90	0x3c1b82c3	0.009491625
91	0x3c316da1	0.01082936
92	0xbf5226d0	-0.82090473
93	0xbd019a90	-0.031641543
94	0x3ccdf02c	0.025138937
95	0x3a4f8fbd	0.0007917842
96	0x3d01ecad	0.031719852
97	0x3db867e9	0.09004194
98	0x3d8792d3	0.06619801
99	0xbd2ff50a	-0.042958297
100	0x3dfb0f51	0.12258781
101	0xbe854ec3	-0.26036653
102	0xbc3057d9	-0.010763132
103	0x3d111f46	0.035430215
104	0x3e02755a	0.12740079
105	0x3b5b2f27	0.0033444853
106	0xba84751c	-0.0010105702
107	0x3d47bfc8	0.04876688
108	0x3cb4f552	0.022089634
109	0x3d0c40d1	0.0342415
110	0x3d1e78a0	0.038689256
111	0x3e640432	0.22267225
112	0xbc6eaf81	-0.014568211
113	0x3dc76d70	0.097376704
114	0xbd9eef77	-0.07760518
115	0x3c81896d	0.0158126
116	0xbd53abac	-0.05167739
117	0x3dda13bc	0.10648295
118	0x3d20823b	0.039186697
119	0x3d997f6f	0.07495009
120	0xbc9682af	-0.018372862
121	0xbf0574dc	-0.5213144
122	0x3d1054d3	0.035237145
123	0x3ba72b89	0.0051016253
124	0x3dbbd81d	0.0917208
125	0xbd0b43f6	-0.03400036
126	0xbba2a016	-0.0049629314
127	0x3b80e7cf	0.0039338837

network.2.0.weight f4 [64, 128]
0	0x3d9575a5	0.072978295
1	0x3d640b27	0.0556747
2	0x3dbc2853	0.09187379
3	0x3da13b26	0.0787261
4	0x3da3e494	0.08002582
5	0xbdfc9f7e	-0.12335108
6	0x3d1a23e5	0.037631888
7	0x3d76c137	0.060242858
8	0xbda14413	-0.07874312
9	0x3d907e4f	0.070553415
10	0xbd9a2b61	-0.07527805
11	0x3e06fb6a	0.13181844
12	0x3e16c099	0.14721908
13	0xbe918e1c	-0.28428733
14	0xbba4b422	-0.0050263563
15	0x3dc112d4	0.09427419
16	0xbe1268bc	-0.14297765
17	0xbc202635	-0.009774734
18	0xbd51052f	-0.051030334
19	0xbca56d43	-0.020193702
20	0x3db702c0	0.089360714
21	0x3e2d050e	0.1689646
22	0xbd2ee5bd	-0.042699564
23	0x3d83135a	0.064001754
24	0xbdb0f7f6	-0.08641045
25	0x3e1e3408	0.15449536
26	0x3dbf6eb1	0.093472846
27	0xbe0d12b6	-0.13776669
28	0xbe3b391e	-0.18283507
29	0xbd6fdffe	-0.058563225
30	0x3e1225db	0.14272253
31	0x3da3d17e	0.07998942
32	0x3cd504d8	0.026003286
33	0x3d8b1feb	0.06793197
34	0xbd1c3b90	-0.03814274
35	0x3e06e8f1	0.13174798
36	0xbd8fedbf	-0.07027768
37	0x3ea93b30	0.3305297
38	0xbca8be02	-0.020598415
39	0xbd5fdc75	-0.054653604
40	0x3cf14dcf	0.029456047
41	0xbe0d2e90	-0.13787293
42	0xbde955c4	-0.113933116
43	0x3d882c37	0.06649058
44	0x3dcdfde8	0.100581944
45	0xbe01f229	-0.12690033
46	0x3d9f47ac	0.07777342
47	0x3e2e0702	0.16994861
48	0xbe1e612f	-0.1546676
49	0x3dbd2831	0.092361815
50	0xbde4f515	-0.11179558
51	0x3e1eaa15	0.15494569
52	0xbdca4e02	-0.0987816
53	0xbbbb73cd	-0.0057205916
54	0x3de86ee3	0.11349275
55	0xbdf317cb	-0.118697725
56	0x3c82e463	0.015978044
57	0x3da68bb8	0.08132118
58	0xbda2789a	-0.07933159
59	0xbcf0a086	-0.029373419
60	0x3cf6a700	0.030108929
61	0x3e01a50a	0.12660614
62	0x3e7abe20	0.2448659
63	0x3cfa6b2e	0.030568685
64	0x3c472e40	0.012157023
65	0x3dba6671	0.091015704
66	0x3e21b1a4	0.15790421
67	0xbdc80a4e	-0.097675905
68	0xbd6a0174	-0.057130292
69	0x3d1b4dc0	0.037915945
70	0xbc9b98b6	-0.018993717
71	0xbc77daf0	-0.015127882
72	0x3dc607d4	0.09669462
73	0x3e2059b7	0.15659223
74	0x3e6e9f3f	0.23302935
75	0x3b217b1a	0.0024640025
76	0xbdb893e8	-0.09012586
77	0xbd10bc85	-0.035336036
78	0x3dc5e1a5	0.09662179
79	0x3ab3e573	0.0013724997
80	0xbda791a3	-0.08182075
81	0xbe27b748	-0.1637851
82	0xba7e04f4	-0.0009690069
83	0x3d8d4c4e	0.068993196
84	0x3d810464	0.062996656
85	0xbdeb127c	-0.11478135
86	0x3cc2b4c3	0.023767835
87	0xbe26e6b9	-0.16298951
88	0xbf103ed2	-0.56345856
89	0xbdf9cb7f	-0.12197017
90	0x3e66590c	0.22494906
91	0x3d31101c	0.043228254
92	0xbe034ebe	-0.12823007
93	0xbc818fce	-0.015815642
94	0x3d7e2f18	0.06205663
95	0xbdb56e69	-0.0885895
96	0xbde58f7a	-0.112090066
97	0xbda08a9d	-0.078389384
98	0xbcaece9a	-0.02133875
99	0xbc8fcd83	-0.01755405
100	0x3b863749	0.004095946
101	0xbe6515f2	-0.22371653
102	0x3c597d52	0.013274508
103	0x3c351a70	0.0110536665
104	0x3de464c9	0.11152036
105	0xbdd512bb	-0.10403963
106	0x3e183f90	0.14867997
107	0x3c263057	0.010143361
108	0x3de18c90	0.11013138
109	0x3deed624	0.11661938
110	0x3e17330a	0.14765564
111	0x3e05e1c4	0.13074404
112	0x3e067aff	0.13132857
113	0x3e14c6ba	0.14528933
114	0xbcde319b	-0.027123263
115	0xbe2e07d4	-0.16995174
116	0xbd7564d8	-0.059910625
117	0x3d759337	0.05995485
118	0x3c9ecd3c	0.019384973
119	0xbe07eeb3	-0.1327465
120	0x3edaca87	0.4273264
121	0xbe915e0e	-0.2839207
122	0x3c0195d6	0.007909259
123	0x3d21b3b2	0.03947801
124	0x3e0bf3be	0.13667199
125	0xbc1248fb	-0.008928533
126	0xbd4bcaa2	-0.049753793
127	0x3df7190b	0.120653234
128	0x3d1a675a	0.03769622
129	0xbc88c166	-0.016693782
130	0xbd6c4f13	-0.0576926
131	0x3e5deeca	0.21673122
132	0x3eaf9e7e	0.34300607
133	0xbe68ac10	-0.22721887
134	0x3eae5294	0.34047377
135	0xbd1a593c	-0.037682757
136	0x3d32ddbf	0.043668505
137	0xbadf26ed	-0.0017025151
138	0xbe08b4c2	-0.13350204
139	0x3d09f2dd	0.033678878
140	0x3ef14a32	0.4712692
141	0xbf1854a6	-0.59504163
142	0xbbeb1fc1	-0.007175416
143	0xbc3b2008	-0.011421211
144	0xbe019830	-0.12655711
145	0xbd7475cc	-0.059682652
146	0xbe2afe98	-0.16698682
147	0xbd42c103	-0.04754735
148	0xbd01f0bb	-0.03172372
149	0x3f1ca1c2	0.6118432
150	0xbe1780be	-0.14795205
151	0x3e391c06	0.18077096
152	0xbdded427	-0.108803086
153	0xbc91d5c1	-0.017802121
154	0xbc1ce273	-0.009575474
155	0xbe1d53b5	-0.15363963
156	0xbf073eb8	-0.52830076
157	0xbd9aa761	-0.07551456
158	0x3e06c659	0.13161601
159	0x3da2f65b	0.07957145
160	0x3ca8c6c1	0.020602586
161	0xbc856f1f	-0.016288338
162	0xbd900bb7	-0.070334844
163	0x3e2027fe	0.15640256
164	0xbe9cf51a	-0.30655748
165	0x3f87dd2e	1.0614374
166	0xbce6a4b8	-0.028154716
167	0xbca9625b	-0.020676782
168	0x3c77364e	0.015088631
169	0xbe868527	-0.26273462
170	0xbeb78467	-0.35843202
171	0x3d91e56d	0.071238376
172	0xbd826f9f	-0.06368946
173	0xbe8ef36c	-0.2792009
174	0xbcd401fc	-0.025879852
175	0x3d009ff8	0.031402558
176	0xbea4a4cb	-0.32156977
177	0x3dce9434	0.10086861
178	0x3c6f3e06	0.01460219
179	0x3c9c6db6	0.019095283
180	0xbd188615	-0.037237246
181	0xbd3a0cf4	-0.04542251
182	0x3da49e98	0.08038062
183	0x3dd245a6	0.10267191
184	0xbe5d77e8	-0.21627772
185	0xbc58db7d	-0.013235924
186	0xbe0503bf	-0.1298971
187	0xbdd01c90	-0.10161698
188	0x3c2348a9	0.009966054
189	0x3dab0e51	0.0835234
190	0x3ee9d193	0.45667705
191	0x3cb81c31	0.02247438
192	0xbd5f355b	-0.054494243
193	0x3e7a13f3	0.24421673
194	0xbd316911	-0.04331309
195	0x3ceffffe	0.029296871
196	0xbdaffe98	-0.08593482
197	0xbd8bd059	-0.068268485
198	0xbd887419	-0.06662769
199	0xbdd27637	-0.10276454
200	0x3e273bb4	0.16331369
201	0x3d98fac9	0.074697085
202	0x3dbd5016	0.09243791
203	0x3db97828	0.09056121
204	0xbea44e77	-0.32091114
205	0xbde15696	-0.11002843
206	0xbc6bcd9e	-0.014392285
207	0xbd5ce2cf	-0.05392724
208	0xbdaa29b1	-0.08308733
209	0xbe675f19	-0.2259487
210	0xbed43502	-0.41446692
211	0xbd2152bd	-0.039385546
212	0x3b0d5ee8	0.002157146
213	0xbdbf9cde	-0.09356092
214	0x3d823cdb	0.063592635
215	0xbe977782	-0.29583365
216	0xbf2dbaa9	-0.67862946
217	0xbcd42589	-0.025896804
218	0x3e3fbe81	0.18725015
219	0x3d60afa3	0.054855
220	0xbf4fadf2	-0.81124794
221	0xbe3b072d	-0.18264456
222	0x3cbf0827	0.023319317
223	0x3cc2dd9a	0.023787308
224	0xbe49c84f	-0.19705318
225	0xbbbfc3c8	-0.0058521964
226	0x3c729f2d	0.014808458
227	0xbca7cf56	-0.020484608
228	0xbd2eb919	-0.04265699
229	0xbef9a30f	-0.48757216
230	0xbdad936a	-0.084753826
231	0xbd4975d6	-0.049184643
232	0x3dd71a15	0.10503022
233	0xbeb318be	-0.34979814
234	0xbd25bfe5	-0.040466208
235	0xbb22739f	-0.0024788154
236	0x3bbc11ae	0.0057394123
237	0x3d37d614	0.044881895
238	0xbd760b80	-0.06006956
239	0x3d393c2d	0.045223404
240	0xbd6475f0	-0.055776536
241	0x3b9cee13	0.004789123
242	0xbde9498d	-0.11390982
243	0xbdd61ff5	-0.10455314
244	0xbb5e5359	-0.003392419
245	0x3d13e3e8	0.03610602
246	0xbd84fa8a	-0.06493099
247	0xbee4be20	-0.44676304
248	0x3ed638f8	0.4184034
249	0xbf7a99de	-0.9789103
250	0x3d9a13c4	0.07523301
251	0x3d78297d	0.06058644
252	0x3dc28436	0.094978735
253	0xbdaedec5	-0.08538584
254	0xbdb24c9d	-0.08706019
255	0x3e17af29	0.14812912

network.2.0.bias f4 [64]
0	0x3db98085	0.09057716
1	0x3e477e47	0.19481765
2	0x3dd013df	0.1016004
3	0x3db64cb7	0.08901351
4	0x3dbbd368	0.09171182
5	0x3da29eb6	0.07940428
6	0x3debac5e	0.11507486
7	0x3d9fe3d9	0.0780713
8	0x3d6fdeee	0.05856221
9	0x3db286cd	0.087171175
10	0x3d884e35	0.06655542
11	0x3ea1ab29	0.31575897
12	0x3c93e8ac	0.018055283
13	0x3db7d4e2	0.08976151
14	0x3d8513c2	0.06497909
15	0x3dbe1a7f	0.092823975
16	0x3d8732b8	0.06601471
17	0xbcd511c9	-0.026009457
18	0x3d83d4cc	0.06437072
19	0x3d952429	0.072822876
20	0x3d66aa15	0.056314547
21	0x3dec1fa2	0.11529471
22	0x3d0e634e	0.034762673
23	0x3de2bf16	0.11071603
24	0x3dc945fd	0.09827802
25	0x3d659982	0.0560546
26	0x3d396b1f	0.045268174
27	0x3d20e85e	0.039284103
28	0x3d850779	0.06495566
29	0x3d50ee64	0.051008597
30	0x3d1d983a	0.038475253
31	0x3dc36c11	0.095420964
32	0x3db9bbb7	0.09069007
33	0x3de69a7a	0.11259933
34	0x3d9b8b03	0.07594874
35	0x3d9d6a90	0.07686341
36	0x3e03f2b6	0.12885556
37	0x3be18742	0.006882579
38	0x3d9d6c9e	0.07686733
39	0x3e01e922	0.1268659
40	0x3cfbcbaf	0.030736772
41	0x3d9097ae	0.070601806
42	0x3d709b12	0.058741637
43	0x3dbfcaae	0.0936483
44	0x3d5cafd8	0.053878635
45	0x3d0046c4	0.031317487
46	0x3d747282	0.059679516
47	0xbc00937d	-0.007847664
48	0x3e054a8e	0.13016722
49	0x3d106181	0.035249237
50	0x3dad502e	0.08462559
51	0xbd836017	-0.06414812
52	0x3eb4a9a1	0.35285667
53	0x3dcd8a80	0.100361824
54	0x3d491895	0.04909571
55	0x3d7fe2d4	0.06247218
56	0x3dbc0d5e	0.09182237
57	0x3d5dcb30	0.054148853
58	0x3dd50974	0.10402194
59	0x3db8f58f	0.090312116
60	0x3d847c18	0.064689815
61	0x3d9d52cc	0.07681808
62	0x3cb14947	0.021641387
63	0x3eac1a55	0.3361384

network.3.weight f4 [1, 64]
0	0xbe0c0893	-0.13675146
1	0xbeb2e034	-0.34936678
2	0xbe05eed6	-0.1307939
3	0x3e1cf239	0.15326776
4	0x3dd53459	0.10410375
5	0xbe31eb55	-0.17374928
6	0x3dcc764c	0.09983501
7	0x3e1e254d	0.15443917
8	0x3e295dcf	0.16539691
9	0xbe0c8749	-0.13723482
10	0x3e392cb3	0.18083458
11	0xbf0e8e81	-0.55686194
12	0xbe4a716c	-0.1976983
13	0xbe0ef8c5	-0.13962086
14	0xbe61ce89	-0.22051443
15	0x3e596a7c	0.21232027
16	0xbe108aa5	-0.14115389
17	0x3e227529	0.15865006
18	0x3e398763	0.18118052
19	0xbdf810f3	-0.12112608
20	0x3df2d52b	0.11857065
21	0xbe27f3a7	-0.1640154
22	0xbe145afd	-0.14487834
23	0xbe1807c1	-0.14846708
24	0x3e048192	0.12940052
25	0x3e379736	0.17928776
26	0x3de36f96	0.11105268
27	0xbe0b2683	-0.1358891
28	0x3e55a03f	0.2086191
29	0x3e5a2330	0.21302485
30	0xbe33714d	-0.1752369
31	0xbe492e8e	-0.19646665
32	0x3e0a9101	0.13531877
33	0xbe2de8fc	-0.16983408
34	0xbe2d9e08	-0.16954815
35	0xbe3c6972	-0.18399599
36	0xbe2b034a	-0.16700473
37	0x3e32d222	0.17462972
38	0x3e128e8d	0.14312191
39	0xbe58fcba	-0.21190158
40	0x3e6b6438	0.22987449
41	0x3e747c02	0.2387543
42	0x3e273111	0.16327311
43	0x3e070326	0.13184795
44	0xbe539b50	-0.20664716
45	0xbe04e7fa	-0.12979117
46	0xbe327888	-0.17428792
47	0x3dd88a26	0.10573225
48	0x3def96a0	0.11698651
49	0xbe338bca	-0.17533794
50	0xbe0bc752	-0.13650253
51	0x3dc0d371	0.09415329
52	0xbf008aa0	-0.50211525
53	0xbe0e46ba	-0.13894168
54	0xbe13cc70	-0.14433455
55	0x3e021713	0.12704115
56	0x3e04dd6e	0.12975094
57	0x3e27d9b8	0.16391647
58	0x3e2c162a	0.1680533
59	0xbe23bb23	-0.15989356
60	0xbe1bb380	-0.15205193
61	0xbe4d8def	-0.20073675
62	0x3de81dec	0.11333832
63	0xbf1fb008	-0.6237798
