data/user_properties/trained_weights/DenseNet-Egap.pth (torch_old, 289666 bytes, 7 tensors)

network.0.0.weight f4 [256, 119]
000000 f8 58 dc 3c 84 ae b7 bd ad a9 f7 bd 74 0f 13 be
       0.026897892 -0.08968833 -0.1209291 -0.14361364
000010 bb ff 20 bd 98 37 0a be 6a 83 04 be 80 a5 a1 bd
       -0.039306384 -0.1349777 -0.12940755 -0.07892895
000020 ed 3a 50 3d cc 10 8f 3d b4 d2 03 be 55 5a df 3d
       0.050837446 0.069856256 -0.12873346 0.10905901
000030 0c de 6d bd 9d 99 64 bd 01 50 d9 bd 92 e1 1d be
       -0.05807309 -0.05581056 -0.10610963 -0.1541808
000040 a6 3e b7 bd 83 e7 31 3d 53 4a e0 bc 15 1d 93 3d
       -0.08947496 0.043433677 -0.02737919 0.07183281
000050 98 6b c3 bd 05 2f 1c 3e 11 3e f9 bd 94 45 82 bb
       -0.09542006 0.15252312 -0.12170041 -0.0039755795
000060 34 6f 5a 3e c7 07 ed 3c 83 f0 c7 bd 61 3e 4c 3d
       0.21331483 0.028934373 -0.09762671 0.049864177
000070 c4 0b 05 be bd 9f 30 bd 55 cd 22 3c 7f a0 14 bd
       -0.1299277 -0.04312109 0.00993665 -0.036285874
000080 4f c0 2f bd ff 3c ff bd 0c 4e e1 bd ea 5f 52 3d
       -0.04290801 -0.12462806 -0.110012144 0.051361002
000090 53 9f 88 bd c8 e4 5a 3d 9a 12 99 bd 5f 82 1c 3e
       -0.06671014 0.05344084 -0.07474251 0.15284108
0000a0 26 91 62 3e 95 cc d8 bb a9 79 91 3d 86 29 b6 bd
       0.22125682 -0.006616185 0.07103283 -0.08894639
0000b0 bc 64 e7 bd 61 b5 b0 bd fb 2c ea 3d cf b8 f9 bd
       -0.112985104 -0.08628345 0.114343606 -0.121934526
0000c0 1d b1 b4 3d 52 9d 6a 3e 05 f5 37 3e 33 76 ea bd
       0.08822844 0.22911575 0.17964561 -0.11448326
0000d0 03 04 b0 bd 0f d6 e6 bd 03 f7 a8 bd 13 4d 89 3d
       -0.08594515 -0.11271297 -0.08250239 0.06704154
0000e0 07 f0 cc bd 20 b6 81 3d 68 5f a1 3d d3 80 d2 3d
       -0.10006719 0.06333566 0.078795254 0.102784775
0000f0 d5 89 26 bd 65 1c 8f bd 1c 52 00 3e ad 4b ba bd
       -0.04065879 -0.06987838 0.12531322 -0.09096465
000100 2e 95 bd bd 89 02 8a 3d 89 f1 16 3e 15 e6 d1 bd
       -0.092569694 0.06738765 0.14740576 -0.10248963
000110 98 c9 62 3e 8f 39 02 be 76 4b 2d 3e 30 70 17 bd
       0.22147214 -0.1271727 0.16923317 -0.036972225
000120 a3 ff e2 bd 87 de 44 bd fb ec ee bd a3 02 81 3e
       -0.11083915 -0.04806378 -0.11666294 0.25197324
000130 68 a7 09 bd 01 84 68 3e c3 94 b3 3d 41 c1 96 bd
       -0.033606917 0.22706605 0.087686084 -0.07361079
000140 0d 23 2c 3e 4c 23 3e 3d 63 5b 8d bd 4c 70 f2 3d
       0.16810246 0.04642038 -0.06902196 0.11837825
000150 bd a4 08 be 51 0f 9f bc 14 5c 5c 3b 65 39 e5 ba
       -0.13344093 -0.019416483 0.0033624219 -0.0017488418
000160 27 00 4f 3c 5c d1 97 bb f1 4e 06 be a0 0e 12 bc
       0.012634314 -0.004633112 -0.13116051 -0.00891462
000170 4c 90 68 bd 1e 22 ca bd 62 af 56 3c 06 70 cc bd
       -0.056778237 -0.098697886 0.013103338 -0.09982304
000180 a7 a3 3e bc 46 c4 f0 bc 7d d3 c7 bd a2 90 c2 bd
       -0.011635697 -0.029390465 -0.09757135 -0.09500243
000190 4b da 5d bd fd 94 c0 bc de 47 d2 3c f3 46 22 bd
       -0.05416326 -0.023508543 0.025669035 -0.039618444
0001a0 29 7d c9 3c d2 e1 12 3d 9a c3 05 be 06 db 2b 3b
       0.024595814 0.03585989 -0.13062897 0.0026223077
0001b0 41 23 d4 bd 9e 3f 14 bd 73 3b 0a be b0 5f c0 bd
       -0.10358287 -0.036193483 -0.1349924 -0.09393251
0001c0 8a 8e 53 bd 8e 3c 5f bd b7 59 86 3c 4c 28 b7 bd
       -0.051649608 -0.05450111 0.016400201 -0.08943233
0001d0 85 a3 13 bd b2 9f 36 bb 13 5f 0b 3e 49 db 14 3c
       -0.036044616 -0.0027866182 0.13610487 0.009085485
0001e0 9d e2 b7 bc 47 40 f4 bc b9 f5 b5 3c 34 ce 74 3e
       -0.022446925 -0.029815806 0.022211896 0.23906785
0001f0 fd 7d d9 bd 07 0f 17 be 94 14 b7 3d 06 0c 96 bd
       -0.106197335 -0.14751826 0.08939472 -0.07326512
000200 01 3c 6e bd 2d 67 13 bd 7f cb d6 3d 2f d3 c0 bd
       -0.058162693 -0.035987068 0.104880325 -0.0941528
000210 1c 9a bf bd 06 7d 5b be 56 e1 19 be dc 28 5c 3d
       -0.09355566 -0.21434411 -0.15027365 0.053749904
000220 0c 69 97 3c f8 b6 d0 bc eb d2 2d be 9a e9 c9 bd
       0.018482707 -0.025477871 -0.1697499 -0.09859009
000230 0c 98 c5 bd 1c e5 0a be a3 64 45 3e 98 91 e0 bd
       -0.09648141 -0.13563961 0.19276671 -0.1096527
000240 4d e3 cd 3d 95 8f 1d 3d 1a 48 da bd 23 a4 4e 3e
       0.1005312 0.03846701 -0.106582835 0.201798
000250 9e 10 db 3d 26 09 9a bd 5f d0 a2 bd e2 aa 00 be
       0.10696529 -0.07521276 -0.079499 -0.12565187
000260 c6 cc 4d 3e 90 b8 12 be b2 e1 bd bd 85 a0 9f bc
       0.20097646 -0.14328218 -0.092715636 -0.019485721
000270 34 0f dc 3a f3 90 04 3e cf 77 d2 bd 77 00 f7 3d
       0.0016789199 0.12945919 -0.10276758 0.120606355
000280 24 55 c2 3b cc b7 c1 bd 54 3d ca 3d e6 89 f4 bd
       0.0059305597 -0.094588846 0.09874979 -0.119403645
000290 47 66 86 bc 00 6f 1b be 2f e6 27 be 23 15 1e 3d
       -0.016406192 -0.15179062 -0.16396402 0.038594376
0002a0 78 61 03 3e 68 2f 78 3d ca 0e 9d 3d 81 dd 95 3c
       0.1283015 0.060592085 0.076688364 0.018294098
0002b0 06 27 1f be 70 3d 9d bd 0e a3 82 3d e4 5c 1b be
       -0.1554223 -0.07677734 0.063787565 -0.15172154
0002c0 ea e7 40 3d ea eb 10 3d 37 a5 81 bd 41 81 1a 3d
       0.04709617 0.035381235 -0.0633034 0.037720922
0002d0 82 14 8f bd 2b e1 ee bd 0d a7 8a 3e 87 b4 f1 bd
       -0.069863334 -0.11664041 0.27080575 -0.11802011
0002e0 01 17 17 be 93 7b 27 be 73 37 e8 bd de 7d 49 3e
       -0.14754869 -0.16355734 -0.11338701 0.19676921
0002f0 0a 64 e9 bc 91 50 1e be 21 96 28 bd 4f 81 df bc
       -0.028490085 -0.15460421 -0.0411588 -0.027283339
000300 6b 7f 5c bd ed 41 a7 bd ee ab a9 bd 4b 40 55 3e
       -0.053832453 -0.08166871 -0.08284746 0.20825307
000310 64 6f 85 3e 47 b6 98 be 16 21 c1 bd c3 c2 fe 3d
       0.26061547 -0.29826567 -0.09430139 0.124394916
000320 78 52 67 bd 51 cb 99 3b 1a 05 02 3e 83 6a 2e 3c
       -0.056475133 0.0046934267 0.12697259 0.010645512
000330 3e 06 15 be e7 8b 9b bc b2 bf 12 3c be 2b e6 bd
       -0.14553162 -0.01898761 0.008956837 -0.11238812
000340 e4 e9 1a bc c2 c4 06 be 70 2b 11 be 76 c1 f5 3d
       -0.009455178 -0.13160995 -0.14176726 0.1199979
000350 78 87 22 be b0 ee 5b bd c1 50 01 be d5 cf d3 bd
       -0.1587199 -0.053694427 -0.12628461 -0.10342375
000360 ad d1 3d bd 96 74 31 bd ef f7 e0 bd 3f 39 a7 bd
       -0.04634254 -0.043324076 -0.109847896 -0.08165216
000370 05 88 c8 3b 1c 59 19 3b 56 75 0b bd 1c 48 a4 bb
       0.0061197304 0.002339906 -0.034047447 -0.005013479
000380 86 04 a2 bd 70 0d d3 bb ce d4 22 bc 28 93 c8 bd
       -0.07911019 -0.006440811 -0.009938432 -0.09793693
000390 ae 83 22 be 39 e5 11 be ed 2e 8a bd 46 61 f9 bd
       -0.15870544 -0.14247598 -0.06747232 -0.121767566
0003a0 2e d9 2d be 63 63 e8 bc 18 81 4f bd 28 81 1e bd
       -0.16977379 -0.028367704 -0.050660223 -0.03869739
0003b0 54 e4 18 be 52 8d b7 3d 5d ce b9 bc c5 fe 96 be
       -0.1493085 0.089625016 -0.02268141 -0.2949125
0003c0 98 9f 96 be 90 d4 f3 3b d9 25 11 be 36 b8 5a bb
       -0.29418635 0.007441111 -0.14174594 -0.0033373958
0003d0 1a 9b 8c bd ba 75 5e be ee 95 10 be 43 14 bf bc
       -0.06865521 -0.21724597 -0.14119694 -0.023325091
0003e0 fd 8b 96 be fc 9e ea 3a 3a 88 18 3d 64 5b fc 3c
       -0.29403678 0.0017900164 0.03723929 0.030805297
0003f0 77 1e 47 bb b3 df af bc 6a 07 16 bd c9 8e bb bd
       -0.0030383149 -0.021468973 -0.036628164 -0.091580935

network.0.0.bias f4 [256]
000000 db 30 96 be f3 65 af be 45 b4 75 ba 7f 5a 15 3d
       -0.2933415 -0.3425747 -0.00093728706 0.036463257
000010 b3 3b bd 3c e9 21 ba 3d bd 48 9c 3d 10 b0 5c bc
       0.023099756 0.09088499 0.07631061 -0.013469711
000020 e7 f3 7b 3d 78 cd 18 bd f2 04 64 be 4b f3 1c 3c
       0.0615119 -0.037305325 -0.22267511 0.00957949
000030 dc 12 cb 3c 76 1f 96 3d 80 9e 41 be 4f a2 37 bd
       0.024789266 0.073302194 -0.18908119 -0.044832524
000040 63 44 6e 3c f8 ff 48 be d7 53 ca 3c ff 1d ce 3d
       0.014542672 -0.19628894 0.024698181 0.10064315
000050 c4 46 85 bb dc 55 b1 bd fe 11 74 3d 8b 73 95 bd
       -0.004067274 -0.086589545 0.05958747 -0.07297429
000060 83 ab 19 bc c9 32 9e 3c 17 7f 22 bd 6c b6 1a 3d
       -0.0093792705 0.019311326 -0.039671984 0.037771627
000070 a9 43 84 3c c0 8c bc 3d 64 08 91 bb 43 f8 4a bc
       0.016145544 0.092065334 -0.004426049 -0.012388292
000080 db 44 9e bd fc 0c ff ba 58 60 8f 3c 6b fe bb 3c
       -0.07727977 -0.0019458826 0.017501995 0.022948464
000090 65 5d 87 bd 52 a8 b1 bd a1 1c a9 3d 5e 99 49 be
       -0.066096105 -0.08674683 0.08257414 -0.19687411
0000a0 3f c2 89 3d 58 43 05 3d 2e 25 20 bb 77 15 95 3c
       0.067265026 0.032534927 -0.0024436223 0.018198712
0000b0 bf 50 27 3c e4 49 93 bd e1 bb 0c bb dc 4c 6a be
       0.010212122 -0.07191828 -0.002147429 -0.22880882
0000c0 0c ae 80 bc 63 9a a3 3a 43 ba 41 be 0b c2 e1 bd
       -0.015707992 0.0012481924 -0.1891871 -0.11023339
0000d0 e0 68 62 3c 9e 69 73 bc 28 b6 83 3d ff c5 14 3c
       0.013818949 -0.014856724 0.06431228 0.009080409
0000e0 92 47 2f be 64 93 c6 3c d4 a3 cb 3c db 64 3e be
       -0.17117146 0.024240203 0.024858393 -0.18593161
0000f0 58 0b 98 3d 4a 57 9a ba ea e6 c0 3c bf 3b a4 3c
       0.07424039 -0.0011775282 0.023547608 0.02004802
000100 27 ad 9b bd e2 30 95 bb b9 3c 4e be b2 c9 9e ba
       -0.076013856 -0.0045529464 -0.20140351 -0.0012114553
000110 2a 6f 7e 3d ea ce 57 bc e3 8b 21 3c 52 04 f1 bd
       0.062117733 -0.013171891 0.009860012 -0.11768402
000120 96 7f af 3d 1d 67 48 3d bd 16 0d ba cc 89 b2 3c
       0.08569257 0.04892646 -0.00053821114 0.021794222
000130 bc 4c 9e 3d 5c be f8 3c ca c8 a3 3d c1 92 c6 3b
       0.0772948 0.030364208 0.07997282 0.006059975
000140 81 49 d6 3c d6 0e 01 3d d3 2d aa bd a0 0c 14 ba
       0.026158096 0.03150829 -0.083095215 -0.0005647633
000150 f3 19 8e 3d f0 4f 95 bd db 22 98 3d e1 ef 2a 3d
       0.06938543 -0.072906375 0.07428523 0.041732673
000160 aa 93 af bd b9 56 14 3b eb 81 dc 3c cf c9 02 be
       -0.085730866 0.0022634699 0.026917418 -0.12772296
000170 d6 e5 21 be 8f 62 33 3d 1b de 17 be 0c 23 91 3d
       -0.15810332 0.043795165 -0.1483082 0.07086763
000180 e8 b2 22 3c 49 90 6a be e1 6c 9a 3d be 37 00 be
       0.00993035 -0.22906603 0.07540298 -0.12521264
000190 ca 8b 0a 3d e0 4c 06 be e2 24 e4 bc b2 d2 6d 3d
       0.03382472 -0.13115263 -0.027849618 0.058062263
0001a0 d7 73 8d 3c 37 d6 c2 3b b1 75 72 3d c8 46 03 3d
       0.01726715 0.0059459466 0.05919427 0.032049924
0001b0 21 a5 61 3d 63 02 7f 3d 19 7f 1b bd a0 2d af 3d
       0.05508912 0.062258136 -0.037963007 0.08553624
0001c0 a8 49 f7 3c 35 75 93 3d 74 8e 1b 3d a2 81 3d 3d
       0.03018649 0.0720009 0.03797765 0.046266206
0001d0 15 c4 99 3c 7a 11 08 be ba e7 48 3d a0 d6 ba 3c
       0.018770257 -0.13287917 0.049049117 0.02280742
0001e0 1e 95 62 bc ee b1 2c be 3a 18 5f be 8e 26 46 3d
       -0.013829498 -0.1686475 -0.21786585 0.048376612
0001f0 95 0a 8b 3d da a7 9a 3d 09 78 2e be b4 93 94 bd
       0.06789128 0.075515464 -0.17037977 -0.07254735
000200 be 44 d9 bd dc 49 2c 3c 4f 3b 10 bb c1 36 e2 3c
       -0.10608815 0.010515656 -0.0022008007 0.027614
000210 8a f7 ef bd ba 3f e2 3c 31 42 24 3d b1 dc 84 3d
       -0.11717136 0.027618278 0.040102188 0.06487406
000220 8b 4e 2b bb 8b a0 87 3c ec bd 92 b9 87 78 0c bd
       -0.0026139345 0.016556045 -0.00027988793 -0.03429463
000230 05 9e a8 bb b1 fa 1e 3c 29 03 99 3b 2d cf 1c 3a
       -0.0051457905 0.009703324 0.004669566 0.00059817993
000240 7b 30 e8 3d ec 66 aa 3d f8 7b 23 3d 2f 15 fb bd
       0.11337372 0.08320412 0.039913148 -0.122599
000250 40 dd 60 3d 52 5c a4 3d 72 48 d9 bc 22 d8 0b 3c
       0.0548985 0.08025421 -0.026523802 0.008535417
000260 dc dc 1a be 61 3b 8e 3d b9 a4 0d 3c 83 27 cf 3b
       -0.15123314 0.069449194 0.00864523 0.006321849
000270 83 c9 05 3b 30 69 a2 3c 60 4c 95 3c b7 22 19 3c
       0.00204143 0.019825548 0.018224895 0.009346656
000280 81 15 c2 3c 5c a7 2f be 17 c1 2d 3d 88 1f b1 bd
       0.023691894 -0.17153686 0.042420473 -0.08648592
000290 89 8c cb 3c 99 43 a7 3d 78 d4 ce ba a4 17 01 be
       0.024847286 0.0816719 -0.0015779873 -0.12606674
0002a0 01 b2 c2 3b cf f4 ae bd 6e 3f 5f 3d 37 ac 21 ba
       0.00594163 -0.08542787 0.05450385 -0.00061673246
0002b0 01 9c 19 bd 25 c7 18 be a8 fd ef 3c 06 c7 73 be
       -0.037502293 -0.14919718 0.029295757 -0.2380639
0002c0 e8 ab 34 3c b2 c3 ed 3b fd 32 0b be de 8d cd bd
       0.011027314 0.0072559947 -0.13593669 -0.10036825
0002d0 49 6f be bd 7c 70 10 3d 3d eb 9c 3c 82 bb ba ba
       -0.0929857 0.035263523 0.01915514 -0.0014246556
0002e0 cd b0 6a 3d bd e7 b3 3d 05 05 ff 3b 19 42 a5 3d
       0.057297517 0.08784435 0.007782581 0.08069248
0002f0 a3 df e3 bc 53 ff 79 3c 03 37 0f be 3f 1e df 3c
       -0.0278166 0.015258628 -0.13985829 0.027236102
000300 cb c8 8b 3d 47 48 52 3d ab 2f c0 3c 24 dc 66 bb
       0.068254076 0.05133846 0.02346023 -0.003522643
000310 28 19 8d 3d 57 9e 91 3d 14 f2 10 3d fe 63 62 bd
       0.06889564 0.07110279 0.035387114 -0.05527114
000320 4b eb 7e 3d 44 18 0b 3c 4f cb 0a bd fd c2 87 be
       0.06223611 0.008489672 -0.033885296 -0.26515952
000330 db 41 be 3d 73 a7 8a 3d 31 e8 f9 b9 cc 20 1a 3b
       0.09289905 0.0677022 -0.00047665977 0.0023518084
000340 e2 ce ac 3b e3 b5 9e 3d 2e 4d ad 3c f2 0b 9d be
       0.005273686 0.07749536 0.021154966 -0.30673176
000350 97 98 4a 3c 6c 69 27 be 28 7a 8e 3b 58 b7 15 3d
       0.012365482 -0.16348809 0.0043480583 0.036551803
000360 5b e4 71 3d 08 58 34 bc 2a 99 42 3d b5 d9 99 3c
       0.059055667 -0.011007316 0.04750935 0.018780569
000370 d5 e0 62 3d 98 c4 d4 bc 37 ee 16 3e 5b 6a 9e 3d
       0.055390198 -0.02597265 0.14739309 0.077351294
000380 9f 23 8a 3d c7 a3 a7 3d c8 85 26 bb b1 0a cb 3b
       0.067450754 0.08185535 -0.002540933 0.006196343
000390 71 d9 6e 3d 87 d8 8b 3d cd 12 08 3d ed d1 44 3d
       0.058312837 0.06828409 0.033221055 0.048051763
0003a0 5a 90 e0 bc 7a 22 43 3a 6d be 47 3c 31 23 3e 3b
       -0.027412582 0.0007443797 0.012191397 0.0029012675
0003b0 a0 46 9b 3d 01 33 c1 3d 4c 49 fd b8 4f 21 4c bd
       0.0758183 0.09433556 -0.00012077633 -0.049836453
0003c0 ea e5 f3 3d 24 ca 52 38 10 84 1c 3c 73 bc 96 3b
       0.11909087 5.025616e-05 0.0095529705 0.0046001016
0003d0 ee af 79 3d 68 b5 38 be 49 5e 40 3c 3a 6b 99 3b
       0.060958795 -0.18037951 0.011741229 0.004681972
0003e0 a3 40 4b bc d8 fe 2e be ca bd 46 3d 63 f4 ac 3d
       -0.012405547 -0.17089403 0.04852084 0.084450506
0003f0 60 be fe 3c 6d 33 c3 bb a8 71 13 bc 5a f5 a8 3d
       0.031096637 -0.005957058 -0.008999266 0.08249922

network.1.0.weight f4 [128, 256]
000000 ce 51 09 3e 1b d1 8a bc ec 4e 8d 3d 1d a3 40 3d
       0.13410112 -0.016945412 0.06899819 0.047030557
000010 97 5c 48 be f0 62 49 3c 56 6b 81 bc 60 0a 01 3d
       -0.1956657 0.012291655 -0.015798252 0.031504035
000020 51 6b d8 bd 23 c2 8d 3c 45 e5 c5 3d d9 32 c2 3b
       -0.10567344 0.017304486 0.0966287 0.0059264717
000030 32 d0 15 bd 40 14 1d bd 65 e8 20 3e b9 db 1b bd
       -0.036575504 -0.03834939 0.15713651 -0.03805134
000040 5b 3a c2 3d 7e c7 03 3e ee 6f e9 bd 1d 8d eb bd
       0.09483787 0.12869069 -0.11398302 -0.115015246
000050 f4 f6 88 3d 5a c5 35 bc 34 44 6f bc 9f 5e 94 3d
       0.066877276 -0.011094416 -0.014603663 0.0724461
000060 16 46 fd 3d 13 af ee 3c 56 f2 fb 3d 8e 52 ed bc
       0.123668835 0.029136216 0.12302081 -0.02897003
000070 bd 65 9f 3d 04 f1 4e 3d 6d 47 4f 3d b0 03 9e 3d
       0.07783077 0.05052282 0.050605226 0.07715547
000080 17 ab d3 bc da 1a 75 3c 4f e2 e0 bc ab a7 04 bb
       -0.025838418 0.014960015 -0.027451662 -0.002024154
000090 10 bb 05 3e 00 c1 03 3e 35 f7 c1 bd 25 90 a7 3d
       0.1305964 0.12866592 -0.09470979 0.0818179
0000a0 1b ee 02 bd f0 df 33 3d 8d 45 40 bd 0e 35 c7 3c
       -0.031965356 0.043914735 -0.04694133 0.02431729
0000b0 4b f7 2a be 50 b1 aa bd 67 4f de 3d 3c c0 50 bc
       -0.16695897 -0.08334601 0.108549885 -0.012741145
0000c0 d1 5d 32 3d 3b 18 49 bc f1 50 ce bd dc 65 e4 3c
       0.0435465 -0.012273843 -0.10074032 0.027880602
0000d0 04 59 45 bd c6 e5 c1 bd 88 12 b1 bc fd 6a 1f 3d
       -0.048180595 -0.09467654 -0.021615282 0.03892039
0000e0 a7 11 d8 3d dc 30 39 3d 29 84 1b 3d 8f f0 97 3d
       0.10550242 0.04521261 0.037967835 0.0741893
0000f0 2e 02 91 bd 5e d8 ca 3d 78 b4 3d 3d 7c 9d 00 3d
       -0.07080494 0.0990455 0.046314687 0.03140019
000100 ee 72 ae bd 9e ba b7 3d 7d 65 df 3d 5e 57 2c 3c
       -0.08518015 0.08971141 0.10908029 0.010518877
000110 44 18 7f ba 0c fe 95 3d cd 22 94 bd 9c fb a5 bd
       -0.0009731094 0.07323846 -0.072332 -0.08104631
000120 7d 6b e2 3b cb 84 80 3d 16 ee be 3d d9 01 b6 bc
       0.0069097863 0.06275328 0.09322755 -0.022217678
000130 2d e3 42 bd 01 d7 ef bb da 63 55 3d 09 de 9d 3b
       -0.047579933 -0.0073193316 0.05209718 0.0048177284
000140 72 81 8a 3d 47 77 7c 3c e0 70 bb bd e8 f2 7b 3d
       0.06762971 0.015409297 -0.091523886 0.06151095
000150 3a be 99 3d 57 23 8c 3d 1f b8 02 bd ab b6 25 bd
       0.07506986 0.06842678 -0.031913873 -0.04045741
000160 36 d1 03 be e5 0a 34 3d d9 c0 44 3d d7 86 dd 3d
       -0.12872776 0.043955702 0.048035476 0.10816734
000170 55 3b cb 3d 97 1e 86 3d 92 77 24 3d 38 49 98 bc
       0.09923426 0.06548803 0.040153094 -0.0185896
000180 ed 07 44 bd f5 5b 51 3e 93 94 13 bd f1 d6 00 bd
       -0.04785912 0.20445235 -0.036030363 -0.031454984
000190 24 e7 3e bc ac 32 4b 3d 9a 66 4c bc c1 b7 c9 bb
       -0.011651788 0.04960887 -0.012475634 -0.0061559384
0001a0 a2 c1 fe bb 72 a3 e3 3b 51 1f 62 bd dc 76 8d bc
       -0.0077745477 0.0069469744 -0.055205647 -0.01726859
0001b0 c7 a5 53 bc d5 46 8c bd f3 3b 0f 3d 35 95 6b 3b
       -0.012917942 -0.06849448 0.03496928 0.0035947089
0001c0 6c 5b 45 bd ab a1 f3 bc 3c 3f a1 bc 6f 53 f0 bc
       -0.04818289 -0.029740175 -0.019683473 -0.02933666
0001d0 f0 ea b2 3b 38 96 b4 3d e3 ea 01 3d 60 54 21 bd
       0.0054601356 0.088177145 0.031718146 -0.039387107
0001e0 77 4e a4 bc 64 95 c0 bd 77 1a 49 be 4a fa 83 bd
       -0.020056946 -0.09403494 -0.19639002 -0.06444223
0001f0 52 28 ce bb 1b 49 8e bd a0 fc 1f bc 3e 50 a3 bc
       -0.0062914276 -0.069475375 -0.00976482 -0.019935723
000200 8a 9f cb 3c db 13 a1 3b 40 8b 1b 3c 7d d7 a7 3c
       0.024856348 0.004915697 0.009493649 0.020488495
000210 55 0d bc bd 5d f6 3a be 00 62 3e bd 64 58 0e bd
       -0.091822304 -0.18258043 -0.04648018 -0.034752265
000220 53 b9 50 3d e1 1e 4b bd ea 2b 70 bb 5f 53 7a 3e
       0.05095799 -0.049589995 -0.0036647269 0.24445866
000230 87 2a 39 bd 3c 16 b3 bc 0c 78 b1 3d 29 1c 19 bd
       -0.045206573 -0.021861188 0.08665475 -0.03738037
000240 df 00 3d 3c c4 98 5e 3d af db af bc 38 f6 a2 3d
       0.011535852 0.054344907 -0.021467058 0.07957119
000250 72 f4 18 3d b8 9f bb 3c 63 77 35 3c 69 92 08 bc
       0.037342496 0.022903308 0.011075827 -0.008335688
000260 94 da 06 3d 2e 58 52 3a 17 64 fd 3c 5c c5 47 3d
       0.032923296 0.0008024004 0.030931516 0.0487722
000270 28 da c9 bc 1c a6 86 bc 82 fa c7 3c 49 c2 b9 3d
       -0.024640158 -0.016436629 0.024411444 0.0907026
000280 b3 cb 54 b9 98 a2 c5 3d b1 a9 99 3d d5 19 19 bd
       -0.0002029378 0.09650153 0.07503069 -0.03737815
000290 e6 06 3e bd 95 06 f6 bb d8 52 78 3d e2 67 b6 bc
       -0.046393298 -0.007508109 0.06062588 -0.022266332
0002a0 b0 ef 01 be 00 d1 a5 3d 61 26 81 3b 41 ad 21 3e
       -0.1268909 0.08096504 0.0039413427 0.15788747
0002b0 f8 a6 b9 3d f1 f5 09 be d8 11 9b 3c 91 65 99 3d
       0.0906505 -0.13472725 0.018929407 0.074900754
0002c0 2e ef 5b 3c 12 07 10 bd 8f 9a 9c bc c4 55 fd bd
       0.013423724 -0.035162993 -0.019116668 -0.12369874
0002d0 8d fc 9f bd 79 27 eb bc 96 e1 48 bd 5a 70 82 3d
       -0.07811842 -0.028705345 -0.04904326 0.063690856
0002e0 fc de 88 3d 65 b2 b1 bc 5f 90 e1 3c 32 92 c9 3c
       0.06683156 -0.02169151 0.027534662 0.024605844
0002f0 d9 03 47 3d e5 f6 34 3d 33 5b 05 3e 7a 2e b4 bd
       0.048587654 0.04418077 0.13023071 -0.08797927
000300 ff 2c 2a 3c 91 1b 49 bd 8a bd 19 3d b4 3c 81 3d
       0.0103867045 -0.049098555 0.037534274 0.06310406
000310 92 ec 03 3c 4f 55 88 bd c4 12 e4 3c 03 22 13 3e
       0.008052008 -0.06656896 0.02784098 0.14368443
000320 c1 4d 46 bd 0c e2 6e bd d1 a7 2a 3d 0d de 39 3e
       -0.048413996 -0.058321044 0.04166395 0.18151112
000330 28 5a 5f bc f7 80 64 3c 6e b3 01 3d cb 4d d6 bc
       -0.013632335 0.013946763 0.031665258 -0.026160141
000340 10 54 f3 bc 32 7b 85 bd 14 dc 47 bd 09 85 cd bd
       -0.02970317 -0.06517638 -0.048793867 -0.1003514
000350 20 1f 1a 3e 29 b9 94 3d 60 02 67 bd e2 49 68 bc
       0.15050936 0.07261879 -0.05639875 -0.014177771
000360 4a f2 c1 bc eb 77 32 3d 93 f8 af 3b dd 6a 86 bc
       -0.023675103 0.043571394 0.0053702085 -0.016408378
000370 e3 8c 81 bd e0 cd 0b 3e 10 c5 a5 bd 54 ee 0d 3d
       -0.063257 0.13652754 -0.08094227 0.034651116
000380 1d 91 a2 3c 1b f3 7f 3d a9 d7 08 bd ce 2f 34 3d
       0.019844586 0.062487703 -0.033408795 0.043990903
000390 01 51 30 3b f3 74 1e 3d 44 d9 9b bc 18 d4 69 bd
       0.002690375 0.03868575 -0.019024499 -0.057087034
0003a0 f9 ff 9c 3d 21 2b 6e 3d c9 2c dd 3b 94 fe ca bc
       0.076660104 0.0581466 0.0067497236 -0.024779595
0003b0 1f b9 03 3d 8b 58 8f bd 48 8d 88 3d 25 c8 be 3c
       0.032158967 -0.0699931 0.06667572 0.023288796
0003c0 0b 0e ae bc d8 cd 3e bd 23 d4 d9 3c 66 3d d1 bc
       -0.02124693 -0.046583027 0.026590412 -0.025541972
0003d0 cb 2d bd 3c 7e d0 38 be 9d 3b 19 bc 08 d6 03 bd
       0.023093125 -0.18048283 -0.009352592 -0.032186538
0003e0 5a 10 58 3d 9f bd e4 3d 75 a9 84 3c 77 0f 2d 3b
       0.05274997 0.1116898 0.016194085 0.0026406923
0003f0 58 40 8c 3c 4a a6 ad bc 7e 7e 5b 3d d1 6e 2d 3c
       0.017120525 -0.021197457 0.05358743 0.010585503

network.1.0.bias f4 [128]
000000 89 5b 88 3c 90 86 97 3c a5 92 74 3d c5 87 2a bc
       0.01664521 0.018496782 0.059710164 -0.010408347
000010 0e 1e bf bb 21 21 fc 3c 69 59 a9 bd a5 dc f8 bc
       -0.00583244 0.030777516 -0.08269007 -0.030378649
000020 bc 8d 4c bd cd fb 8e bc 56 64 11 3d 78 f7 50 bc
       -0.049939856 -0.017454052 0.03549608 -0.012754314
000030 96 22 0f 3c f8 bb c5 3c 70 c6 dc bc d7 93 60 be
       0.008736273 0.024137482 -0.026950091 -0.21931396
000040 5a 44 2d b9 bb 91 91 3d eb 25 c5 3c 5d c9 63 3d
       -0.00016524029 0.07107874 0.024065932 0.055611957
000050 16 66 12 3d 47 ab da 3c 63 ea 27 be 05 d5 e3 3c
       0.035741888 0.026693 -0.16398005 0.027811537
000060 44 25 b9 3b 53 26 a0 3c aa 07 1c bd bf 06 db bc
       0.0056501944 0.019549524 -0.038093247 -0.026736615
000070 42 50 2e 3d 14 c9 76 3d 56 f2 1f bd 30 6a 77 be
       0.04255701 0.060250357 -0.03904947 -0.24161601
000080 76 c7 27 bd 29 93 c0 bc bd 52 10 3c de bc 57 3c
       -0.040961705 -0.023507671 0.008808789 0.013167588
000090 7b b9 af bc a6 f5 c9 3d 7b 91 a5 bd 9e d3 fe 3c
       -0.021450749 0.09861307 -0.08084389 0.031106766
0000a0 39 cb 35 3d c6 de 10 bd a9 28 3d bd e0 e3 23 bc
       0.04438326 -0.035368703 -0.046181355 -0.01000306
0000b0 30 f4 be bc 7c 45 05 be c5 af 34 3d 3d 5a 31 bb
       -0.023309797 -0.13014787 0.04411294 -0.0027061843
0000c0 f1 e4 25 3c 0a 8e 86 3d 63 12 67 bc 83 0a a7 bd
       0.010125385 0.065700606 -0.014103505 -0.08156302
0000d0 79 a9 ae bc 4d 5c 95 3d 2f a6 99 3d 53 7d a5 3c
       -0.021321045 0.072929956 0.075024 0.02020136
0000e0 86 d7 85 3b 5f 01 3c 3c ed bb 8e 3d 99 c9 38 3d
       0.0040845303 0.011474936 0.06969438 0.045114134
0000f0 88 a3 90 bc a7 24 fe bc aa 1b 38 bd d2 c8 26 bb
       -0.017656103 -0.031023337 -0.044948258 -0.0025449288
000100 ff b5 8d bd 39 78 d4 3c 20 8a 62 3c b2 f4 e6 bc
       -0.069194786 0.025936233 0.013826877 -0.028192852
000110 d3 87 09 bc 52 aa ce ba b2 c0 bd bc 1e da 8c bc
       -0.008394199 -0.0015767312 -0.023163173 -0.01719385
000120 72 14 e0 bb 5a 5f 0b be 86 bd dc 3c 19 cb b6 bc
       -0.006838375 -0.13610592 0.02694584 -0.022313641
000130 4c 34 6e 3d 45 d0 98 bc 07 1b a3 3c 26 bc 25 be
       0.058155343 -0.018653998 0.019910349 -0.16185054
000140 f4 11 67 bc bd de 49 be 2e 7d 71 3c d9 5c 09 3c
       -0.014103401 -0.19713874 0.014739318 0.008383953
000150 16 68 0c be c5 ed 4d 3c 1e c6 97 3a 1e 71 0e bd
       -0.1371158 0.012568896 0.0011579429 -0.034775846
000160 17 96 c6 bd 44 38 85 3d 7c 06 06 3d 80 b3 6d bd
       -0.09696596 0.065048724 0.032721028 -0.058032513
000170 45 9c ad 3c 3b ee fd bb 76 1f 53 bc d1 7a 78 3c
       0.02119268 -0.0077493466 -0.012885919 0.015166
000180 8f 9c 47 3d 3e 54 30 3c a0 cb 14 bd b9 f4 38 bd
       0.04873329 0.010762272 -0.036327004 -0.04515526
000190 8b fa 58 3d 31 0a e7 3c 6d b5 0d bd 74 b2 85 3c
       0.05297331 0.028203102 -0.03459685 0.016320445
0001a0 84 56 4c bd cc e5 62 bd 26 64 90 3d 33 61 ae 3c
       -0.049887195 -0.055394933 0.07050352 0.021286583
0001b0 70 c9 d2 bd d8 f6 ac bc a7 85 3d 3d b3 88 ea bc
       -0.102923274 -0.021113798 0.04627004 -0.028629636
0001c0 a2 f0 e4 3a 81 77 f3 3c ff 6b 73 3d c3 13 68 bc
       0.0017466734 0.02972007 0.059429165 -0.014164868
0001d0 ef e6 4e bc f2 db 78 bc 5b 3a 6a 3d b1 01 fa 3b
       -0.012628301 -0.015189158 0.05718456 0.007629596
0001e0 98 a4 87 3d 67 82 26 be 13 67 28 3d 8d 6a c8 bc
       0.06623191 -0.16260682 0.041113924 -0.02446487
0001f0 23 9f 10 bb ab 7b a8 3d 8e aa 91 bc d8 92 64 bb
       -0.002206751 0.08226713 -0.017781522 -0.0034877565

network.2.0.weight f4 [64, 128]
000000 37 e6 4a be 63 cd 9d 3d 99 d6 76 bd 2b cf f8 3d
       -0.19814382 0.0770519 -0.06026325 0.12148889
000010 77 3c 30 3d f0 fc ba 3d 32 4c 52 be 7a 40 09 3e
       0.043026414 0.09130275 -0.20536879 0.13403502
000020 b6 14 84 3c 5a c3 26 be 66 99 a1 3d f8 05 57 3d
       0.016123157 -0.16285458 0.078905866 0.052495927
000030 a3 3f 6c bd cc 32 63 3d eb 16 01 be 15 03 81 be
       -0.057677876 0.055468366 -0.12606399 -0.25197664
000040 c6 25 0a 3e 63 9c 09 be 44 e1 34 3e 87 90 13 be
       0.13490972 -0.13438563 0.17664057 -0.14410602
000050 ac 37 af 3d 0d 93 ba 3c 3c 71 15 3e 6d 2e d7 3d
       0.085555404 0.022775197 0.14593977 0.10506902
000060 69 b1 b1 bd 7b f3 da 3d 0f 6f 0d bc 87 0a 8b bd
       -0.086764164 0.106909715 -0.008632435 -0.06789117
000070 33 9d f0 3c 36 59 dd 3d 8d 4c 6b bd 6a 36 5a bd
       0.029371833 0.10808031 -0.05744605 -0.05327455
000080 88 4f 39 bd e3 cc dd bc 99 84 12 3d 64 1d d1 3c
       -0.045241863 -0.027075237 0.035770986 0.02552671
000090 67 87 a7 3c 38 a9 ed 3d 5f e5 19 be 9a bc 34 3e
       0.020450307 0.116045415 -0.15028904 0.17650071
0000a0 b4 b4 28 be 6e 35 f0 3c 34 13 27 bc cc 34 a8 3d
       -0.16475183 0.029322352 -0.0101974495 0.08213195
0000b0 45 fc 60 3d 69 b0 ce bc f5 65 9c bd 6c 9b bf 3d
       0.054928083 -0.025230603 -0.07636634 0.09355816
0000c0 21 98 82 3d 92 a4 a5 3d c5 87 25 bc 48 f2 a0 bd
       0.063766725 0.0808803 -0.010103171 -0.078587115
0000d0 91 34 06 be 8a 4d 10 be 52 b6 1a 3d 0a e6 17 3e
       -0.1310599 -0.14092079 0.03777153 0.14833847
0000e0 e3 63 84 3d 1c a4 fd bd 66 63 1d be ac dd f2 bb
       0.064643644 -0.12384817 -0.15369949 -0.0074116793
0000f0 20 4d 92 bd 19 3d d2 3b 37 62 75 bd 90 07 09 3d
       -0.07143617 0.006415975 -0.059908118 0.033454478
000100 b0 ba d7 bc 71 cb 3d bb c9 46 3d 3e 40 f3 ec bd
       -0.026334137 -0.0028960372 0.18484034 -0.11569834
000110 15 ac 83 3d 29 1f d5 3c 6e 41 f0 3d 6a f5 7d 3c
       0.064293064 0.026015835 0.1173123 0.015500406
000120 71 07 04 3d b2 7e 8d bd 9d 45 8d 3d 27 e0 bc bc
       0.03223366 -0.06908931 0.06898043 -0.023056103
000130 85 a1 27 3e 2a a3 e3 3b 2b f4 c2 3d c7 ee 24 be
       0.16370209 0.006946941 0.095192276 -0.16106711
000140 52 eb 01 bc 43 91 99 3d 8a c8 09 3e b3 6a 04 3e
       -0.00792964 0.074984096 0.13455406 0.12931328
000150 5c 8a 79 bc 83 92 aa 3b d1 d8 75 3c e2 ed 7a 3c
       -0.015230741 0.005205454 0.015005306 0.015315505
000160 71 46 74 be c3 91 96 3d a7 53 ee 3c a6 45 e3 bd
       -0.23854996 0.073520206 0.029092623 -0.11097269
000170 79 01 a1 3b 5d 60 34 be 38 30 5c bd eb 9e ea bc
       0.0049135056 -0.17614885 -0.053756922 -0.028640231
000180 77 7c 83 3b c6 a3 8a bd 46 12 d2 3d ec a1 87 bd
       0.00401264 -0.067695186 0.10257392 -0.06622681
000190 9c f1 ac 3b 9c 49 aa 3d 88 a8 da bd b4 a0 b8 3d
       0.0052778255 0.08314821 -0.10676676 0.09015027
0001a0 bc df f6 bd 64 5f 62 3d a1 93 d4 bd 8e b0 c0 3d
       -0.12054393 0.055266753 -0.103797205 0.09408675
0001b0 a2 64 a1 3a 55 80 cc bc b3 d7 91 bd 5d d7 d9 3d
       0.0012313316 -0.024963537 -0.071212195 0.106367804
0001c0 62 8f b4 3d 12 4b bf 3d 20 52 ad bc 14 ca 16 be
       0.088164106 0.093404904 -0.021157324 -0.14725524
0001d0 c9 8e bc 3c af 46 c2 bc 9e 63 b6 3c aa cd f8 bb
       0.023017304 -0.023715345 0.022264298 -0.0075928764
0001e0 db 35 b7 3d 41 c9 74 3e 07 87 34 3d 8e 83 02 3d
       0.08945819 0.23904897 0.044074085 0.03186374
0001f0 4c e3 d6 3d 43 a2 a9 bd 52 d2 44 3c f8 7c fa b9
       0.10492572 -0.08282902 0.012013035 -0.00047776825
000200 44 11 9d bb 70 e2 02 be a3 00 98 bd 67 af 13 be
       -0.004793318 -0.12781692 -0.074219964 -0.1442238
000210 a0 a0 57 bd ae d8 09 bc 48 a3 a3 bd 5e 45 1b be
       -0.05264342 -0.008413477 -0.07990128 -0.1516318
000220 56 0a 59 3d e1 a3 1c 3e 7f cc a5 bc f2 be 00 be
       0.052988373 0.1529689 -0.020239113 -0.1257284
000230 55 d8 70 bd 0f 93 cc bd 92 de cd 3d 87 ad 3a bf
       -0.05880006 -0.09988987 0.100522175 -0.7292103
000240 bf 43 ce 3d 1b 1a 15 3e 00 0d f4 bc 90 43 46 3c
       0.10071515 0.1456074 -0.029791355 0.012101069
000250 00 26 37 bd 1b ab 80 3d ef b2 f0 bd 3f 54 c2 bd
       -0.044713974 0.06282636 -0.11752879 -0.09488725
000260 1f ff d4 3d 2b b1 39 bd 6c 37 29 3d ea 25 db bc
       0.10400223 -0.045334976 0.04131262 -0.026751477
000270 c0 b5 fc bc 7a 71 75 bd af 11 81 bd 6a b7 d0 be
       -0.030848384 -0.059922673 -0.06302201 -0.40764934
000280 c1 1f e6 3d 80 16 64 bd 6b de 41 3d 0c cc 07 be
       0.11236525 -0.05568552 0.047331255 -0.13261431
000290 55 22 05 3d d9 73 00 3e bb 5d 51 3d da 5f 0a be
       0.032503445 0.12544192 0.05111478 -0.13513127
0002a0 9e c9 41 3d 04 b9 e1 bd 7a 5c 12 3b b1 49 ac bc
       0.047311418 -0.11021617 0.0022332952 -0.021031233
0002b0 94 5a a5 3d b4 05 02 be d2 08 6d bd 71 f5 16 be
       0.08073917 -0.12697488 -0.05786974 -0.14742066
0002c0 c6 40 6b 3d 1b 6c d3 bd 31 5a 97 3c d2 a1 a5 be
       0.05743482 -0.10323354 0.018475624 -0.32350022
0002d0 35 69 b5 3d b3 5e 1f 3e 4d c8 a0 bb b6 e9 8e bd
       0.08857957 0.15563469 -0.00490669 -0.069781706
0002e0 37 04 05 be f6 92 9f 3d 48 04 e9 3d c4 0b 17 be
       -0.12989889 0.077917024 0.1137777 -0.14750582
0002f0 2c 51 c9 3c 79 b1 1e 3d d0 87 19 3d 25 44 a7 bc
       0.024574839 0.03874347 0.037483037 -0.020418236
000300 d3 1b 8d bd 63 e7 b8 3d 9a a4 13 bd b5 1d d0 3d
       -0.06890073 0.090285085 -0.03604565 0.10161916
000310 4f bd 09 3d d2 c6 61 bd c3 1c 9e 3d a5 3b f1 bd
       0.033627804 -0.05512125 0.077203296 -0.117789544
000320 8f 61 a5 bd 32 1e 0c be ab 70 02 be 27 c4 c3 bd
       -0.080752485 -0.13683394 -0.12738292 -0.095588975
000330 16 4c ce bd 37 89 d5 3d cb 64 46 bd 05 09 6b 3e
       -0.10073106 0.10426562 -0.048435967 0.2295266
000340 bd e7 6d bc 92 6c 00 bf 6c 0e 10 3e 9d a0 ad bc
       -0.014520583 -0.50165665 0.14068002 -0.02119475
000350 bc 06 cb be e6 ef e0 bc 63 d5 70 bd d2 8d 47 3d
       -0.39653575 -0.027458142 -0.05879725 0.048719235
000360 2c 71 ba 3b 62 a2 2d bc a2 78 5c 3d 5f 3e bd 3d
       0.0056897607 -0.010597797 0.053825982 0.09240412
000370 3c 7a 55 bd 4f 88 0b 3e 7b a3 10 3e 24 9d f8 bd
       -0.052118525 0.13626216 0.14124863 -0.12139347
000380 f8 5c a8 3d ab c7 36 bd ae ee 1c bd 04 f8 b7 bc
       0.082208574 -0.044624012 -0.03831356 -0.02245713
000390 7c 96 01 3e 7a 80 bc 3d cc f9 fa bb fc 6c 62 bd
       0.12655061 0.092041925 -0.0076591726 -0.055279717
0003a0 b9 58 48 3d e5 6a aa 39 7d 05 9c 3d d2 b4 c1 3d
       0.048912738 0.0003250457 0.07618234 0.09458317
0003b0 a6 4e 02 3d d4 68 a6 bd 83 ed 64 3b 1f c3 79 bb
       0.031813286 -0.08125463 0.0034931607 -0.0038110686
0003c0 a1 23 c6 3b 68 3e e5 3d 04 c2 6c 3d 33 f0 b6 3c
       0.0060467278 0.11193544 0.057802215 0.022331333
0003d0 13 79 df 39 10 3a 08 be 06 4a dc bd 53 2a a7 3c
       0.00042624082 -0.13303399 -0.10756306 0.020405924
0003e0 63 b2 21 bd ec e2 f4 be 80 0a 28 3d ec 9a cf bd
       -0.039476763 -0.47829378 0.04102564 -0.10136971
0003f0 79 95 b8 bd e4 d9 a9 3d 26 fa f7 bd c1 f1 91 bd
       -0.09012885 0.082935125 -0.12108259 -0.07126189

network.2.0.bias f4 [64]
000000 35 a7 ae 3d 38 b5 c3 3d 67 fd 0b 3d 68 f3 e3 3b
       0.08527986 0.09556049 0.03417721 0.0069565065
000010 b1 9c 96 3d 98 74 d6 3b 40 51 8f 3d ec 1b b4 3d
       0.07354105 0.006544661 0.06997919 0.08794388
000020 08 ec 4f bd c8 78 ee 3d 95 b5 a7 ba 7a 3f 6c 3d
       -0.050762206 0.11644131 -0.0012795205 0.057677723
000030 95 1a 93 bc 34 0b a1 3d a9 84 aa 3d be 52 48 3d
       -0.017957011 0.07863465 0.08326084 0.048907034
000040 54 4a a3 3d 7f ab 7d 3d cd c7 5a 3d 48 c1 31 3d
       0.07973161 0.06193113 0.0534132 0.043397218
000050 c1 11 40 bd b2 29 15 3d e7 36 89 3c fc 98 d9 3b
       -0.04689193 0.036416717 0.016749812 0.0066405516
000060 5c c7 00 bd 23 54 69 3c 3f 79 f8 3b 65 1f 10 3c
       -0.031440124 0.014241251 0.007582813 0.008796548
000070 28 96 d7 3d d0 74 90 3d f4 b2 66 3d 48 0b 28 3d
       0.10526687 0.0705353 0.056323007 0.041026384
000080 c4 58 98 bd bf ab 1a 3c 78 1a 5a 3d ed f5 7c 3d
       -0.07438806 0.0094403615 0.0532479 0.06175797
000090 a8 86 2c 3d a7 7f dd 3c e9 d3 83 3c f0 ef 62 3d
       0.042120606 0.027038408 0.016092258 0.055404603
0000a0 3d 40 98 bc 19 fe 09 3d db 11 1d bd 6d 9b 48 3d
       -0.018585319 0.033689592 -0.038347106 0.04897635
0000b0 d5 4a 92 3d f7 86 49 3b 08 c3 2b bd 0b ef 01 bd
       0.07143179 0.0030750611 -0.041934043 -0.03172211
0000c0 43 02 18 3d 78 45 21 3e 8a bd a1 3d 62 52 73 3d
       0.037111532 0.15749156 0.0789748 0.05940474
0000d0 7c 74 d5 3b 2c ae 2e 3d 3d 01 3c bd 68 31 dc 3d
       0.00651413 0.042646572 -0.04589962 0.10751611
0000e0 c9 c8 5a 3d c5 b3 c1 3c c6 94 3e bd e5 33 45 3d
       0.05341414 0.023645291 -0.0465286 0.048145194
0000f0 76 32 14 3d 40 ae b6 3d 1d 3c 9d 3d 5c 38 85 bb
       0.036180936 0.08919954 0.07677481 -0.0040655565

network.3.weight f4 [1, 64]
000000 24 0c 4b 3e 0d e1 6d be a7 e0 5d be 4c 41 36 3e
       0.1982885 -0.23230381 -0.2166773 0.17798346
000010 2d e0 4d be 05 fa 4a be 6e 60 ed 3d 07 ff ef 3d
       -0.20105048 -0.19821937 0.11590658 0.117185645
000020 32 c8 03 be ba 20 41 be 5d ac 07 3e 92 42 04 3e
       -0.12869337 -0.1886014 0.13249345 0.1291602
000030 07 24 29 3e 0f 8b 12 3e 26 e5 45 be 29 99 17 3e
       0.1651765 0.14310859 -0.19325694 0.1480452
000040 25 2f 55 be ba e0 2c 3e 50 01 7c be 24 61 56 be
       -0.20818765 0.16882601 -0.24609876 -0.20935494
000050 9c ae 03 3e 24 a5 39 be bf 81 1b 3e 8b 2e 54 be
       0.12859577 -0.18129402 0.15186213 -0.2072088
000060 51 b5 56 be 95 13 85 be a6 95 3c 3e d8 c7 07 be
       -0.20967604 -0.25991502 0.18416461 -0.13259828
000070 72 f4 60 be d6 89 14 be 49 05 8c be b6 9a 13 3e
       -0.21968248 -0.14505705 -0.27347782 0.14414486
000080 b8 a3 1d be 88 30 0d 3e 8f 22 4c 3e 86 7f 55 be
       -0.15394485 0.13788044 0.19935058 -0.20849428
000090 55 b9 08 3e 2b 8d 54 be 40 52 68 be 82 50 36 3e
       0.13351949 -0.20756976 -0.22687626 0.17804149
0000a0 a8 24 80 be 05 52 82 be 62 ff 5a be 12 0e 3f be
       -0.25027966 -0.254532 -0.21386483 -0.18657711
0000b0 e6 2a 21 be 40 5d 1b be fe 08 36 be 9f a3 09 be
       -0.1573902 -0.15172291 -0.17776868 -0.13441323
0000c0 ff d2 60 3e 05 a5 39 bf 56 35 02 be 20 e8 46 be
       0.21955489 -0.72517425 -0.12715659 -0.19424486
0000d0 42 e9 26 be 7d 37 59 3e 39 3c 09 be 20 95 47 be
       -0.16299918 0.21212573 -0.1340188 -0.1949048
0000e0 b6 1e 40 be a6 47 f7 3d 89 a3 1d be d6 6e 3f 3e
       -0.18761715 0.12074213 -0.15394415 0.18694624
0000f0 7b 07 47 be f3 7d 6f be 98 02 0b 3e 21 a6 1b 3e
       -0.19436447 -0.2338789 0.13575208 0.15200092
