data/user_properties/trained_weights/DenseNet-agl_thermal_conductivity_300K.pth (torch_old, 289666 bytes, 7 tensors)

network.0.0.weight f4 [256, 119]
0	0x3ce7cb65	0.028295228
1	0xbda7fb76	-0.08202259
2	0x3e44b7ab	0.19210689
3	0x3cbbd6dd	0.022929603
4	0xbca52743	-0.020160323
5	0x3d38594b	0.04500703
6	0x3b161e1c	0.002290613
7	0xbdb04de3	-0.08608606
8	0xbdc31dfa	-0.09527202
9	0xbda029c4	-0.07820466
10	0x3e50afd1	0.20379569
11	0x3b656288	0.0035001356
12	0xbda1189a	-0.078660205
13	0xbd8b8093	-0.06811633
14	0x3cf39094	0.029732026
15	0x3cca5d87	0.0247028
16	0xbd1ccb8b	-0.03828005
17	0xbe1221ba	-0.14270678
18	0x3dbb181f	0.0913546
19	0xbd0f5a98	-0.034998506
20	0xba0f27b2	-0.0005460932
21	0xbcae2745	-0.02125896
22	0x3cd090c7	0.02545966
23	0x3c53fe26	0.012939012
24	0xbb7e744b	-0.003882664
25	0xbd998a54	-0.07497087
26	0x3da0a817	0.078445606
27	0xbbc88aca	-0.0061200606
28	0xbd1d0cdd	-0.038342346
29	0xbbaee541	-0.005337388
30	0xbc15663a	-0.009118611
31	0xbdc34eca	-0.09536512
32	0x3d0dab78	0.034587353
33	0xbde29701	-0.11063958
34	0x3c7738d2	0.015089231
35	0xbd113947	-0.035455015
36	0xbaeed942	-0.0018222707
37	0x3c884989	0.016636627
38	0xbe0cfd19	-0.13768424
39	0xbbee2c37	-0.0072684544
40	0xbd9556a3	-0.07291915
41	0x3d153e4f	0.036436375
42	0x3d1ef7d2	0.03881056
43	0xbddee70e	-0.10883914
44	0xbd48b32c	-0.048998997
45	0xbdbf807f	-0.093506806
46	0xbdea9f21	-0.11456133
47	0xbc8d402d	-0.017242515
48	0x3c187f14	0.009307642
49	0xbdf33566	-0.11875419
50	0xbd26a9b3	-0.04068918
51	0xbc4bcf62	-0.012439581
52	0xbd1e4704	-0.038641945
53	0x3b9d2bf3	0.004796499
54	0x3ca80a23	0.020512646
55	0x3df22cbf	0.11824941
56	0xbdba6732	-0.09101714
57	0xbc92267b	-0.017840615
58	0x3cbdd026	0.023170542
59	0x3cc5cfa7	0.024146868
60	0x3b155c79	0.0022790714
61	0x3e202b8b	0.1564161
62	0x3dc1ae14	0.09457031
63	0xbd56372d	-0.052298713
64	0xbbf3a599	-0.0074355123
65	0x3d056a53	0.0325721
66	0xbe770a94	-0.24125129
67	0x3da711ab	0.08157667
68	0xbe1dd39d	-0.15412755
69	0x3d5ea967	0.054360773
70	0xbd43e9b8	-0.047830313
71	0xbd9ee1b4	-0.07757893
72	0xbdb00305	-0.08594326
73	0x3cdb8c07	0.026800169
74	0x3d433053	0.047653507
75	0xbdd3f809	-0.10350043
76	0xbe0238a8	-0.12716925
77	0xbcc67c69	-0.024229245
78	0xbd2ee170	-0.042695463
79	0x3d545dda	0.051847316
80	0x3d2f4c0a	0.042797126
81	0xbcc4ca7e	-0.024022337
82	0xbb0a625f	-0.0021115763
83	0xbd03d254	-0.032183006
84	0x3daa1116	0.0830404
85	0x3d954078	0.07287687
86	0x3e05dfcc	0.13073653
87	0x3c23f6b5	0.01000755
88	0x3cfd52af	0.030923216
89	0x3d77abb0	0.06046647
90	0xbcd69cbd	-0.026197786
91	0xbcc8e276	-0.024522047
92	0xbd862220	-0.065494776
93	0x3e13e062	0.14441064
94	0xbdabd6a1	-0.083905466
95	0x3d94dc9f	0.07268643
96	0x3ddbeee0	0.10738921
97	0xba826bfe	-0.0009950397
98	0x3e055fc7	0.13024817
99	0x3db683f4	0.08911887
100	0x3e103fa9	0.14086784
101	0x3d8106e0	0.063001394
102	0x3de8ea56	0.11372821
103	0x3dc7d04c	0.09756526
104	0x3d893e6c	0.06701359
105	0x3da7c19e	0.081912264
106	0x3d224a1f	0.03962147
107	0x3dab93de	0.08377813
108	0x3db90c96	0.09035604
109	0x3d3c0973	0.04590745
110	0x3dcb67d9	0.09931917
111	0x3d494b88	0.049144298
112	0xbc0092be	-0.007847486
113	0x3db166e6	0.086622044
114	0x3de02108	0.109438
115	0x3d92b936	0.071642324
116	0x3da4c26f	0.08044898
117	0x3de335ad	0.11094222
118	0x3ed7fa24	0.4218303
119	0x3e11138a	0.1416761
120	0xbe13a279	-0.14417447
121	0x3e4f3a71	0.20237137
122	0xbc70e35f	-0.014702647
123	0xbcfbf3f7	-0.03075598
124	0x3d54d759	0.051963184
125	0x3bf46a05	0.0074589276
126	0x3ce8f927	0.028439118
127	0x3daf7a0a	0.08568199
128	0xbd384170	-0.04498428
129	0x3d75006d	0.05981486
130	0x3c8679e8	0.016415551
131	0x3c93c772	0.018039439
132	0xbe135820	-0.14389086
133	0x3d33b715	0.043875773
134	0xbc9a8785	-0.018863449
135	0xbe17100a	-0.14752212
136	0x3c99ae17	0.01875977
137	0x3e0df4ee	0.13862965
138	0x3c709752	0.014684515
139	0xbcf79262	-0.030221168
140	0xbdbd3b84	-0.09239867
141	0x3d09ac9e	0.033611886
142	0x3cf360dd	0.029709274
143	0xbdb19f6a	-0.08672984
144	0xbd20d8ca	-0.039269246
145	0xbd8f6127	-0.07000952
146	0xbd9bb7f2	-0.07603444
147	0x3d7356cf	0.05940896
148	0x3c62a1ec	0.0138325505
149	0xbbe25e50	-0.0069082156
150	0xbd8082e4	-0.062749654
151	0xbe185f9e	-0.14880225
152	0xbe1404a8	-0.14454901
153	0x3d28d6cd	0.041220475
154	0x3c657096	0.014003893
155	0x3d7a1fdc	0.06106554
156	0x3da1c141	0.078981884
157	0xbd9097e7	-0.07060223
158	0xbe901153	-0.28138217
159	0xbdb9309f	-0.09042477
160	0x3d92c0b3	0.07165661
161	0x3da5a8c0	0.08088827
162	0xbd98faf5	-0.07469741
163	0xbdc75faf	-0.09735047
164	0xbe19c4db	-0.150165
165	0x3af40408	0.0018616924
166	0x3d7c8965	0.061654467
167	0x3cff0097	0.031128211
168	0x3c102f22	0.0088003
169	0x3cc40de3	0.023932403
170	0x3d17b8dc	0.03704153
171	0x3bd390da	0.0064564766
172	0x3d493d20	0.04913056
173	0x3dc72204	0.09723285
174	0x3dd4f577	0.10398381
175	0x3dd8e829	0.10591156
176	0xbd619672	-0.055075116
177	0xbd882cb5	-0.06649152
178	0xbd821e42	-0.063534275
179	0x3d9d7a10	0.07689297
180	0x3e0634e2	0.1310611
181	0x3ddd69c0	0.10811186
182	0x3cc4608b	0.023971817
183	0xbd95a21b	-0.0730631
184	0xbe30a166	-0.17249069
185	0xbe144b7e	-0.14481923
186	0x3d5ad34c	0.053424165
187	0x3d4cc48b	0.049992125
188	0x3e1c9daf	0.15294527
189	0xbc5d8939	-0.013521486
190	0xbc80b748	-0.015712395
191	0xbdfd3ed5	-0.123655
192	0xbcaa8e7d	-0.020819897
193	0xbd571ca3	-0.052517544
194	0xbd2cf93e	-0.042229883
195	0xbd8802ca	-0.06641157
196	0xbc739865	-0.014867877
197	0xbd2a00e5	-0.04150476
198	0x3d804b03	0.06264307
199	0x3d2eb5df	0.042653915
200	0xbd02864d	-0.03186636
201	0xb60122c9	-1.9242746e-06
202	0xbde54df8	-0.11196512
203	0x3dea64bb	0.11444994
204	0x3b4009cc	0.0029302714
205	0xbbe77e88	-0.0070646442
206	0x3ca7a832	0.020465944
207	0x3be86868	0.0070925243
208	0x3e22fe22	0.15917256
209	0x3d007680	0.03136301
210	0x3d2cbf99	0.04217491
211	0xbcc3d539	-0.023905383
212	0xbb535fc1	-0.0032253119
213	0xbcdab246	-0.026696336
214	0x3dd2df3d	0.102964856
215	0x3bcd0515	0.0062567093
216	0x3c46d7c5	0.012136404
217	0xbbe608cc	-0.0070200916
218	0x3d658b28	0.056040913
219	0x3dbc413f	0.09192132
220	0x3d7e3a5d	0.06206738
221	0x3de0cb47	0.10976272
222	0xbc127f18	-0.008941434
223	0x3db30f7a	0.08743186
224	0x3d30ba12	0.0431462
225	0x3e050077	0.12988459
226	0x3bd23396	0.006414841
227	0x3acb9564	0.0015532193
228	0x3d5ffb29	0.054682884
229	0x3e1cf0b5	0.15326197
230	0x3df9ad79	0.121912904
231	0x3e23ef5c	0.16009277
232	0x3d11785f	0.035515185
233	0x3e15a0ea	0.14612165
234	0x3dda1d68	0.1065014
235	0x3caad9de	0.02085584
236	0x3dbb025f	0.091313116
237	0x3e8c814d	0.274424
238	0x3d8105ce	0.06299935
239	0xbd552b9e	-0.05204355
240	0x3dfcad0c	0.123376936
241	0xbc5cb592	-0.013471024
242	0xbddd5bb6	-0.10808508
243	0xbdada94d	-0.08479557
244	0xbe272f3b	-0.1632661
245	0xbda4017e	-0.08008097
246	0xbd24b41b	-0.040210824
247	0xbd3829ef	-0.044961866
248	0x3d6b3718	0.05742559
249	0xbd68ae2d	-0.056806732
250	0xbca608eb	-0.020267924
251	0xbe253320	-0.16132784
252	0xbd6c80fd	-0.0577402
253	0xbe0669ce	-0.13126299
254	0xbe2ad3dd	-0.16682382
255	0xbd2d4199	-0.042298887

network.0.0.bias f4 [256]
0	0x3d2d9dab	0.042386692
1	0x3c88a206	0.016678821
2	0x3c306ea5	0.010768567
3	0x3dbfa428	0.09357482
4	0xbe486d9b	-0.19573061
5	0x3de54c8f	0.11196243
6	0x3c8d057f	0.017214535
7	0x3da262aa	0.07928975
8	0x3d701607	0.058614757
9	0xbd34d49a	-0.044148065
10	0x3d8ec37b	0.06970879
11	0xbc80882f	-0.015689937
12	0x3d2f4d9c	0.042798623
13	0x3d5d2e45	0.053999204
14	0x3d16d77b	0.036826592
15	0xbbbb4a5f	-0.005715653
16	0x3b07e138	0.0020733606
17	0x3ca0a989	0.01961209
18	0x3d5742fc	0.052554116
19	0xbbd4be53	-0.006492415
20	0xbe1b24c8	-0.1515075
21	0x3b417bb5	0.0029523198
22	0xbbd8de25	-0.0066182786
23	0x3d7f1cc4	0.062283292
24	0x3d77d112	0.06050212
25	0x3c4e4dfc	0.012591835
26	0x3d2d164d	0.042257596
27	0xbc3089a7	-0.010775006
28	0x3cfc0c12	0.030767474
29	0x3da40ea6	0.080106065
30	0x3cc29d76	0.023756724
31	0x377fdd09	1.5250648e-05
32	0x3cbfd2a8	0.023415878
33	0x3db92c6c	0.09041676
34	0x3c9e2ef3	0.019309497
35	0x3d839d50	0.06426489
36	0x3d618248	0.055055887
37	0xbcbec5c5	-0.023287663
38	0x3dc5e5cb	0.0966297
39	0x3d021d92	0.03176648
40	0x3a13952d	0.0005629834
41	0xbd5cd39f	-0.053912755
42	0xbe940328	-0.28908658
43	0x3d79d848	0.060997277
44	0xbb200936	-0.0024419553
45	0xbcfce845	-0.030872473
46	0x3d7e25a1	0.062047604
47	0x3bdc6f6b	0.0067271492
48	0x3d324504	0.04352285
49	0xbb824a15	-0.0039761164
50	0x3c855514	0.01627592
51	0x3d026b96	0.031840883
52	0xbcee705e	-0.029106315
53	0x3d8379c1	0.06419707
54	0x3b8f8180	0.0043794513
55	0xbeabe161	-0.33570388
56	0x3c04aa0c	0.008097183
57	0x3da24065	0.079224385
58	0x3d38dd66	0.045133017
59	0x3caec9fc	0.021336548
60	0xbd2b3c1f	-0.041805383
61	0x3d806673	0.06269541
62	0x3c016bcb	0.007899235
63	0x3dd6d5d5	0.10490004
64	0x3c4e9baf	0.01261036
65	0xbdb1a576	-0.08674137
66	0xbb712164	-0.0036793584
67	0xbb9b37b7	-0.0047368663
68	0x3d4b4b8d	0.049632598
69	0x3c9c9d9f	0.019118128
70	0xbce026eb	-0.027362308
71	0x3d96239e	0.07331012
72	0xbd9e6cc0	-0.07735586
73	0xbbbad001	-0.0057010655
74	0x3d7f0a83	0.062265884
75	0x3ca230ed	0.01979872
76	0x3d06220d	0.032747317
77	0x3c949e76	0.018141966
78	0xbdd9e486	-0.106392905
79	0xbc5200b2	-0.012817549
80	0x3c1fc29c	0.009750988
81	0xba90c477	-0.0011044879
82	0x3d662861	0.056190852
83	0xbe62eff4	-0.22161847
84	0xbd145f4e	-0.036223702
85	0xbda86251	-0.08221877
86	0xbc87e3f3	-0.016588187
87	0x3bc9eb4c	0.006162083
88	0x3d22ec59	0.03977618
89	0x3d2390ad	0.039932895
90	0x3cfd2429	0.030901032
91	0xbcefb816	-0.029262584
92	0xbeaccd0f	-0.33750197
93	0x3cd45846	0.025920998
94	0x3c03b4c2	0.0080387015
95	0xbc53cd95	-0.012927433
96	0x3dc64257	0.09680622
97	0xbc1a30f7	-0.009411088
98	0x3c5c21db	0.013435806
99	0x3a93a4e1	0.0011264348
100	0x3d2bc2c1	0.04193378
101	0x3d8d7fda	0.069091514
102	0xbc1c2adc	-0.009531703
103	0xbcb4019c	-0.021973424
104	0x3d9eb8e6	0.0775011
105	0x3d918d1f	0.07106995
106	0x3d233cef	0.039853033
107	0xbb062648	-0.0020469595
108	0xbdd681bd	-0.10473964
109	0x3c586704	0.013208155
110	0x3d9d0918	0.0766775
111	0xba420a51	-0.000740205
112	0xbb77edc5	-0.003783093
113	0xbbc0fd7b	-0.005889592
114	0xbd2a29c2	-0.04154373
115	0x3d6720d3	0.056427788
116	0x3b3792c8	0.0028011072
117	0x3d3c0b72	0.045909353
118	0x3d87005a	0.06591864
119	0x3c0cbdf1	0.008590207
120	0x3d1e5918	0.038659185
121	0x3d99d75a	0.07511778
122	0xbd4f0ecc	-0.05055122
123	0xbd73e1a8	-0.059541374
124	0x3ccf0838	0.025272474
125	0xb75a3e8f	-1.3008378e-05
126	0x3ccfb93a	0.025356878
127	0x3d4d2cb0	0.050091445
128	0x3d4b9c74	0.049709752
129	0x3d3954c7	0.045246866
130	0xbe1ce89d	-0.1532311
131	0x3cba5cb1	0.022749277
132	0x3d195e69	0.037443552
133	0x3d704bdb	0.05866609
134	0xbdf09860	-0.11747813
135	0x3d5db0cb	0.05412368
136	0x3d849a52	0.06474747
137	0xbcf2d30d	-0.029641652
138	0x3c9e6166	0.019333553
139	0x3d6b6214	0.05746658
140	0xbdc13c12	-0.09435286
141	0xbc22ceeb	-0.009937028
142	0xbdff9b9e	-0.124808535
143	0xb9a6259d	-0.0003169001
144	0xbe493ea5	-0.19652803
145	0x3b2204c3	0.0024722076
146	0x3c735368	0.014851429
147	0xbc00b180	-0.007854819
148	0x3d85f5e1	0.06541038
149	0x3c8261dd	0.015915805
150	0x3d9e562e	0.07731281
151	0x3d2a361c	0.04155551
152	0x3c0cd618	0.008595966
153	0xbdbc5cf0	-0.09197414
154	0x3d9a42f0	0.075322986
155	0xbbbaea64	-0.005704211
156	0xbe2a7b80	-0.16648674
157	0x3c8a18a1	0.016857447
158	0xbe0357b3	-0.12826423
159	0x3cd7945a	0.026315857
160	0x3d89c7e6	0.06727581
161	0x3b8dd44c	0.0043282863
162	0xbb9a3757	-0.004706304
163	0xbe44a203	-0.19202428
164	0x3c7e8e2b	0.015536825
165	0xbb608bf5	-0.0034263108
166	0xbc185b61	-0.00929913
167	0x3ce0bf41	0.027434947
168	0xbccaa695	-0.024737636
169	0xbd2e0106	-0.042481445
170	0x3a9ac6d4	0.0011808523
171	0xbd9babcf	-0.07601129
172	0x3bc7f9c8	0.0061027743
173	0x3b2b6154	0.0026150541
174	0x3dc7298a	0.0972472
175	0x3c59b839	0.013288551
176	0x3db081dc	0.08618519
177	0xbd03ef78	-0.032210797
178	0xb9f35343	-0.00046410607
179	0x3d862013	0.065490864
180	0x3d8f760d	0.07004938
181	0x3ccc687d	0.024952168
182	0x3cd9909a	0.02655821
183	0xbd947c0e	-0.07250224
184	0xbc3b2712	-0.011422889
185	0xbba5f614	-0.005064735
186	0x3d97a754	0.07404962
187	0xbd896970	-0.06709564
188	0xbbfd2b4f	-0.00772611
189	0x3d3d8cbf	0.046276804
190	0xbdd61ce4	-0.10454729
191	0x3c7cb357	0.015423617
192	0xba4dd388	-0.000785165
193	0x3c7f6539	0.015588098
194	0xbc6b6f6a	-0.014369825
195	0x3e344168	0.17603076
196	0x3d18f5cb	0.03734378
197	0xba479c3a	-0.0007614527
198	0xbc1cf4b7	-0.009579829
199	0x3d1912c3	0.03737141
200	0x3d9e7156	0.07736461
201	0xbe31766a	-0.17330328
202	0x3cf4d76c	0.029887877
203	0xbc04adfa	-0.00809812
204	0x3d13c54e	0.036076836
205	0x3d5052ac	0.050860092
206	0xbe41e984	-0.18936735
207	0xbe42b5e5	-0.190147
208	0xbbdfaecf	-0.0068262587
209	0x3aba922d	0.0014234238
210	0x3d5350c9	0.051590715
211	0x3d250b08	0.040293723
212	0xba8888e3	-0.0010416772
213	0x3983e71d	0.0002515846
214	0x3c49f1fa	0.012325758
215	0x3c9a87ea	0.018863637
216	0x3d3fb3dd	0.04680239
217	0x3d8fe481	0.070260055
218	0xbdb40b37	-0.087912016
219	0x3d88c1a5	0.0667756
220	0xbe01fc5f	-0.12693928
221	0x3d956192	0.07294001
222	0x3d99cdc7	0.07509952
223	0xbb5310a4	-0.0032205964
224	0x3d5e3efa	0.054259278
225	0x3ca6dd6e	0.020369258
226	0xbe49f1d1	-0.19721152
227	0xbc207d5f	-0.009795516
228	0xbd59a867	-0.053139117
229	0x3da0abe6	0.07845287
230	0x3cff50fa	0.031166542
231	0x3d9a4995	0.07533566
232	0x3d45952d	0.04823797
233	0x3d2d72c2	0.04234577
234	0x3d30f115	0.043198664
235	0x3cc2213f	0.023697494
236	0x3c70d1c4	0.0146984495
237	0xbd552233	-0.052034568
238	0x3da80e82	0.08205892
239	0x3d5a8a70	0.05335468
240	0xbd541988	-0.05178216
241	0x3caa74e8	0.020807698
242	0x3cbe7757	0.023250265
243	0x3d37790e	0.04479318
244	0x3d29fccb	0.041500848
245	0xbbd2334f	-0.006414808
246	0x3dade45b	0.08490821
247	0x3cb42fa8	0.02199538
248	0xbb9e626f	-0.0048335115
249	0x3d0311c7	0.031999376
250	0xbb43c1d4	-0.002987017
251	0x3ac8cb4a	0.0015319374
252	0x3db5ed0c	0.08883104
253	0x3d4713b5	0.04860278
254	0x3d89ef4d	0.06735096
255	0xbcab3ead	-0.02090391

network.1.0.weight f4 [128, 256]
0	0x3d73cd22	0.0595218
1	0xbcf1d6bf	-0.029521344
2	0x3c4a516e	0.012348516
3	0xbd7d7ef3	-0.061888646
4	0xbe84d33d	-0.25942412
5	0xbd0535a5	-0.032521863
6	0x3b5788cf	0.003288794
7	0x3d425e3a	0.047453143
8	0xbd098843	-0.033577215
9	0xbe33a4f7	-0.17543398
10	0x3cf139e0	0.029446542
11	0x3e29c892	0.16580418
12	0xbd89dfe6	-0.06732158
13	0x3a8649ff	0.0010245441
14	0xbce39dad	-0.027785147
15	0xbb220d0b	-0.0024727012
16	0x3ac37a26	0.0014913722
17	0xbe2f54ca	-0.17122188
18	0xbd4fd1d5	-0.05073722
19	0x3d9d9502	0.076944366
20	0xbdb1d6f5	-0.08683578
21	0xbc8b137b	-0.016977062
22	0x3dae24d7	0.085031204
23	0xbcad4d85	-0.021155128
24	0xbbb11c82	-0.0054050097
25	0xbcab4c06	-0.020910274
26	0x3dc49816	0.095993206
27	0x3c1efa86	0.009703284
28	0xbd515f38	-0.0511162
29	0x3c2a9ddc	0.010413613
30	0xbd9598fa	-0.073045686
31	0x3d14d3d2	0.03633482
32	0x3cafdfae	0.021468963
33	0x3cd14a97	0.025548263
34	0xbd36055c	-0.044438705
35	0x3c74d5fa	0.014943594
36	0xbe05aa10	-0.13053155
37	0x3d38ecc3	0.04514767
38	0xbdd28dfd	-0.10280988
39	0x3b932863	0.0044908985
40	0x3d81eefe	0.06344412
41	0x3da6d621	0.081463106
42	0x3da65132	0.081209555
43	0x3cf87d43	0.030333167
44	0xbca8adc5	-0.020590672
45	0x3d2bf3ba	0.041980483
46	0x3dcbb541	0.09946681
47	0xbd487af5	-0.048945386
48	0xbd3360d9	-0.043793533
49	0x3d0a8ef0	0.033827722
50	0x3d0fff30	0.035155475
51	0xbc3674e7	-0.01113627
52	0xbe054965	-0.13016279
53	0x3da5f7ac	0.0810388
54	0x3cd7527d	0.02628445
55	0xbedcff15	-0.43163362
56	0xbd963858	-0.073349655
57	0xbd1e8604	-0.038702026
58	0x3d5fbb7f	0.05462217
59	0xbca5a49a	-0.02022009
60	0x3d10c6f7	0.035345998
61	0xbc862ca9	-0.016378717
62	0x3bd25dd4	0.0064198766
63	0xbc82805e	-0.01593035
64	0xbc8ab6a8	-0.0169328
65	0x3de5813a	0.11206289
66	0x3e08448c	0.13307399
67	0xbe7c8cbd	-0.24663062
68	0xbd15733e	-0.036486857
69	0xbd92fdc8	-0.07177311
70	0x3dafa071	0.08575524
71	0x3ced4935	0.028965572
72	0x3e329510	0.17439675
73	0x3d601628	0.05470863
74	0xbc8918d4	-0.016735472
75	0xbe91b635	-0.28459325
76	0x3d511675	0.051046807
77	0x3c0023e4	0.007821057
78	0xbe074561	-0.1321006
79	0x3dcdc571	0.100474246
80	0x3d85a1e5	0.065250196
81	0x3da83f97	0.08215254
82	0x3cc40ab0	0.023930877
83	0xbea24c41	-0.31698802
84	0xbe700364	-0.23438793
85	0x3e0d0708	0.13772213
86	0x3c3f7a62	0.011686893
87	0xbdda70a0	-0.10666013
88	0xbc370783	-0.0111712245
89	0xbdfe780b	-0.1242524
90	0xbe2470f9	-0.1605872
91	0x3da8289e	0.08210872
92	0xbf06deca	-0.526837
93	0xbd1466da	-0.0362309
94	0x3d75397d	0.05986928
95	0xbe332879	-0.17495908
96	0xbd17346b	-0.036915224
97	0x3cc82fe2	0.024436895
98	0xbdeceba1	-0.1156838
99	0xbd115efd	-0.03549098
100	0xbbf04a2a	-0.00733306
101	0xbdb7dc9a	-0.08977623
102	0x3cc4ffa7	0.024047686
103	0x3e004f1e	0.12530181
104	0xbd1e63e3	-0.03866948
105	0x3d10b7fd	0.035331715
106	0xbd72fde3	-0.059324156
107	0x3da4a8ae	0.080399856
108	0xbdd383d9	-0.10327882
109	0x3d846d6d	0.06466184
110	0x3d31c86d	0.04340403
111	0x3d9db6df	0.077008955
112	0x3df9d5a2	0.1219895
113	0x3e29c89b	0.16580431
114	0xbe114bcc	-0.1418907
115	0x3cfeface	0.031125452
116	0x3db688a0	0.08912778
117	0xbd3284aa	-0.04358355
118	0xbcb1641a	-0.021654177
119	0x3d867dda	0.06566973
120	0xbbb78b13	-0.0056012957
121	0xbd39ea99	-0.045389745
122	0xbd06a884	-0.032875553
123	0xbd7cc41c	-0.061710462
124	0x3ceebddd	0.029143268
125	0xbefef770	-0.49798155
126	0x3d64e3e5	0.0558814
127	0x3d724d8f	0.059155997
128	0xbe640f7d	-0.22271533
129	0xbe2f6580	-0.17128563
130	0xbe6034f1	-0.21895196
131	0xbbcb1737	-0.006197836
132	0xbd82f7fd	-0.06394956
133	0xbbb2be85	-0.0054548406
134	0x3e67df73	0.22643833
135	0xbd859cf5	-0.06524078
136	0x3d3d60cd	0.046234895
137	0x3d51bfff	0.051208492
138	0x3d986ed7	0.07443016
139	0xbdaac663	-0.083386205
140	0xbe9fe061	-0.31225875
141	0x3bb73555	0.0055910745
142	0x3e775e6b	0.24157111
143	0xbb2beaea	-0.002623255
144	0x3d700afb	0.05860422
145	0x3d89cd52	0.06728615
146	0x3d8a4406	0.06751256
147	0x3dc072cb	0.09396895
148	0x3c28f4e9	0.010312297
149	0xbe1f9432	-0.15583876
150	0xbb99610d	-0.004680759
151	0x3d3e03a4	0.04639019
152	0x3d60b326	0.05485835
153	0xbe49fba1	-0.19724895
154	0xbbe61acf	-0.007022239
155	0x3d939d5e	0.0720775
156	0x3cb5ab62	0.022176448
157	0x3ceba525	0.02876527
158	0xbe483b35	-0.19553836
159	0x3be62512	0.007023462
160	0xbd0168bf	-0.031594034
161	0x3c1b14cf	0.00946541
162	0xbd1af7f5	-0.037834127
163	0xbbbcc065	-0.00576024
164	0xbd3574cf	-0.04430085
165	0xbbe29a11	-0.006915339
166	0x3db73f3e	0.08947609
167	0xbcd5139e	-0.02601033
168	0x3e245474	0.16047841
169	0x3c3a37a6	0.011365807
170	0xbd6ab357	-0.057299938
171	0xbe190b63	-0.1494575
172	0xbd875507	-0.066080146
173	0xbd3c4fcd	-0.04597454
174	0xbcb79b15	-0.022412816
175	0xbe7881ce	-0.24268267
176	0x3d051a42	0.032495745
177	0xbde765d4	-0.11298719
178	0x3aa5914a	0.00126318
179	0xbd9943a0	-0.074836016
180	0x3cdfec29	0.02733429
181	0xbc865d10	-0.016401798
182	0xbd2680a2	-0.040650018
183	0xbeef97dc	-0.46795547
184	0xbc632864	-0.01386461
185	0x3d9d562f	0.07682454
186	0x3d6b45d5	0.057439644
187	0x3ce57ab2	0.028012607
188	0x3daa9687	0.08329492
189	0xbc3753f7	-0.011189452
190	0xbca23b5e	-0.0198037
191	0xbb149717	-0.0022673064
192	0x3db737bc	0.08946177
193	0x3db5857c	0.08863351
194	0xbd477d0a	-0.04870323
195	0xbe0c859d	-0.13722844
196	0xbd0c764a	-0.034292497
197	0x3cd0a115	0.025467435
198	0x3ce93009	0.028465288
199	0x3dc7e3de	0.09760259
200	0xba777a4b	-0.00094405253
201	0xbdbdeea8	-0.09274036
202	0x3d65db32	0.056117244
203	0x3d920bf2	0.07131185
204	0x3d42e0db	0.04757772
205	0xbc937ebb	-0.018004766
206	0x3e097e6e	0.13427135
207	0x3e3f76fd	0.18697734
208	0x3c5cf58c	0.013486277
209	0xbd3e76f4	-0.04650016
210	0xbe8dd3e5	-0.27700725
211	0x3d0f4549	0.034978185
212	0xbde01af4	-0.10942641
213	0xbd575507	-0.052571323
214	0xbd41f0aa	-0.047348656
215	0x3c83fe0e	0.016112354
216	0x3d565818	0.052330106
217	0xbcdaaf3c	-0.026694886
218	0x3c810201	0.015748026
219	0xbc3d9e5f	-0.011573403
220	0xbe98118e	-0.29700893
221	0x3d38518a	0.044999637
222	0x3c15e406	0.009148603
223	0xbc9f4927	-0.019444061
224	0xbcdb6da5	-0.026785681
225	0xbdb2269f	-0.08698773
226	0xbe468da2	-0.19389966
227	0x3c3eaaa8	0.011637367
228	0xbeb664ab	-0.3562368
229	0x3ced638d	0.028978134
230	0xbe69920a	-0.22809616
231	0xbd57ced0	-0.052687466
232	0x3bff9ba0	0.0078005344
233	0xbbf9ed39	-0.007627156
234	0xbd7d713a	-0.06187556
235	0xbbbe17d4	-0.0058011804
236	0xbd4a05f2	-0.049322076
237	0x3d5ce2b0	0.053927124
238	0x3d87f7a7	0.06639033
239	0xbce3d383	-0.027810818
240	0xbe825b14	-0.25460112
241	0xbd86ac5f	-0.06575846
242	0x3dac6c65	0.08419112
243	0xbe263e96	-0.16234812
244	0xbd2ad667	-0.041708376
245	0xbd8ca7c3	-0.068679355
246	0xbd98926b	-0.07449802
247	0xbbe0a64c	-0.0068557616
248	0x3c8ee91a	0.017445136
249	0xbe045283	-0.129221
250	0x3ccdb2d6	0.02510969
251	0xbd3138ed	-0.04326718
252	0x3c49e6c1	0.012323082
253	0x3db595b4	0.08866444
254	0x3d54bad8	0.051936
255	0x3e0026b8	0.1251477

network.1.0.bias f4 [128]
0	0xbc7f4693	-0.015580791
1	0xbd19aa90	-0.037516177
2	0xbd43833e	-0.047732584
3	0xbba0beab	-0.004905542
4	0x3d62b3f6	0.055347405
5	0xbc79fb4e	-0.01525767
6	0x3aa528be	0.0012600643
7	0x3d1fe30b	0.039034884
8	0x3c81b964	0.015835471
9	0x3d48368c	0.048880145
10	0x3c7b10de	0.015323846
11	0x3e85e000	0.2614746
12	0xbe0e6f20	-0.13909578
13	0x3d2d0c9f	0.042248365
14	0x3d1028d1	0.035195176
15	0xbd32fc09	-0.04369739
16	0x3d2bfda8	0.041989952
17	0xbbce4fdc	-0.006296141
18	0x3b5a1885	0.0033278775
19	0x3c084fd5	0.008319815
20	0x3d4c00f0	0.04980558
21	0xbd333bde	-0.043758266
22	0xbd45d8b4	-0.048302367
23	0x3d9005b3	0.07032337
24	0x3cef20dc	0.029190473
25	0xb98777b5	-0.00025838395
26	0xbcba4463	-0.022737687
27	0x3c906960	0.017628372
28	0x3d58bccc	0.052914426
29	0x3d8694f9	0.06571383
30	0xbd059205	-0.03260996
31	0xbce27c91	-0.027647289
32	0x3aee2788	0.001816974
33	0x3c1fc623	0.009751829
34	0x3dbfa2db	0.09357234
35	0x3cfdc506	0.030977737
36	0x3d51b80c	0.05120091
37	0x3d3b4e61	0.045729045
38	0x3ca0f35f	0.019647298
39	0x3d9ebeee	0.07751261
40	0xbe2a4f8e	-0.1663191
41	0xbbf3c45c	-0.0074391793
42	0xbcf9972c	-0.030467592
43	0xbca72eb9	-0.020408021
44	0x3c52119f	0.012821584
45	0xbc92df6a	-0.017928798
46	0xbd1e94d4	-0.038716152
47	0xbbe12b5f	-0.0068716253
48	0xbc353b7f	-0.011061548
49	0xbcd2f981	-0.025753738
50	0xbc52ccf8	-0.012866251
51	0x3c32bb31	0.010908888
52	0xbb32fd61	-0.002731167
53	0x3c867e2c	0.016417585
54	0xbe80df0c	-0.2517017
55	0x3d867818	0.06565875
56	0xbcdb17a9	-0.02674468
57	0x3d8436c5	0.06455759
58	0x3cb88132	0.022522543
59	0x3d3e6c7c	0.046490178
60	0xbcdc1958	-0.026867554
61	0xbd2dca14	-0.042429045
62	0xbcba13ac	-0.022714458
63	0x3d745e8f	0.05966049
64	0xbd1b22bb	-0.03787492
65	0x3cd0816f	0.025452344
66	0xbcc86db1	-0.024466367
67	0x3d938fb6	0.07205145
68	0xbb28a4c2	-0.002573297
69	0xbcae12e6	-0.021249246
70	0xbccb484a	-0.024814744
71	0xbcb90fbd	-0.022590512
72	0xbc9ca544	-0.019121774
73	0xbbccf7cf	-0.006255127
74	0x3c707dae	0.014678402
75	0x3d770edf	0.060316917
76	0x3d1034ad	0.035206486
77	0x3e5aa808	0.21353161
78	0x3cdd9c85	0.027052173
79	0x3be76ea4	0.00706275
80	0x3d3ed540	0.04659009
81	0xbbc034b2	-0.005865657
82	0xbd1dc791	-0.0385204
83	0xbd1e8a2c	-0.03870599
84	0x3d442069	0.04788247
85	0x3d6bd9bc	0.057580695
86	0x3d9b616f	0.07586943
87	0xbcc391ea	-0.023873288
88	0x3d9355c7	0.07194095
89	0xbc592de3	-0.013255569
90	0xbd0432fa	-0.032275178
91	0x3c96fa52	0.018429909
92	0xbd57fd97	-0.052732076
93	0xbc866b38	-0.016408548
94	0x3d59e3bd	0.053195704
95	0xbe9cc3f0	-0.30618238
96	0xbbe15478	-0.0068765245
97	0x3c85a9e8	0.01631637
98	0xbb1326f4	-0.0022453638
99	0x3c8c738d	0.017144943
100	0x3cd967f6	0.02653883
101	0xbcfa8f1d	-0.03058582
102	0xbebf01f0	-0.37306166
103	0x3c3b1a49	0.011419841
104	0x3d05f7cd	0.032707024
105	0xbb8e218d	-0.0043374957
106	0x3d8c6a81	0.068562515
107	0x3d90a043	0.070618175
108	0xbd06aaf9	-0.032877896
109	0x3c0f77f0	0.008756623
110	0xbe8e2c16	-0.2776801
111	0x3c5be979	0.013422363
112	0xbe9e35af	-0.30900332
113	0x3d87e519	0.06635494
114	0xbb83209a	-0.004001689
115	0x3d3f04db	0.04663549
116	0xbca40479	-0.020021664
117	0xbcbfc73d	-0.023410434
118	0x3de9dcb3	0.11419048
119	0x3d36156d	0.044454027
120	0xbe6c1424	-0.23054558
121	0x3d2ab681	0.041677956
122	0xbad3e8b1	-0.001616737
123	0x3d5dd4bd	0.05415796
124	0xbbf4a1e0	-0.007465586
125	0x3cdf9e94	0.027297296
126	0x3c551433	0.013005304
127	0xbc9e994f	-0.019360213

network.2.0.weight f4 [64, 128]
0	0xbd59d1a5	-0.05317845
1	0x3d58b86b	0.05291025
2	0xbe8878ed	-0.2665476
3	0x3db2c044	0.08728078
4	0x3d858abe	0.065206036
5	0xbd6ed62d	-0.058309723
6	0xbdc9e7a8	-0.09858638
7	0x3dcc624c	0.09979686
8	0x3baf7a1a	0.005355132
9	0x3b453d95	0.003009652
10	0xbdfce513	-0.1234838
11	0x3ee7444c	0.45169294
12	0xbdf92a48	-0.12166268
13	0xbdbf6ec5	-0.093472995
14	0x3d5647d4	0.052314594
15	0x3d059e1d	0.03262149
16	0x3d2524a0	0.04031813
17	0xbd512b53	-0.051066708
18	0x3d263a9d	0.04058324
19	0x3ce291b0	0.02765736
20	0xbc5e2cdf	-0.013560503
21	0x3d83de58	0.06438893
22	0xbc70251c	-0.014657285
23	0xbc89995e	-0.016796764
24	0x3db0295c	0.08601639
25	0x3dda54ef	0.10660731
26	0x3cf7347a	0.03017639
27	0xbd412d10	-0.047162116
28	0x3cd3a4a9	0.025835352
29	0xbd8a82af	-0.06763207
30	0xbc27b0ac	-0.010234993
31	0xbde5943a	-0.112099126
32	0xbda9686c	-0.0827187
33	0xbc368fbc	-0.011142667
34	0x3e03c4ca	0.12868038
35	0x3d987054	0.074433
36	0x3df06600	0.11738205
37	0xbdc829f5	-0.09773628
38	0x3d91eb34	0.071249396
39	0xbeb59d32	-0.35471493
40	0xbc9682b3	-0.01837287
41	0x3d2e6024	0.042572156
42	0xbd38e0f7	-0.04513642
43	0x3dad24ff	0.08454322
44	0x3d44b0df	0.04802024
45	0x3cb73f62	0.02236909
46	0x3db137c2	0.08653213
47	0xbe00dd4d	-0.1258442
48	0xbe19810a	-0.14990631
49	0x3d620ac7	0.05518606
50	0xbe012a88	-0.1261388
51	0x3a9ab672	0.001180364
52	0x3dc95ab9	0.09831757
53	0x3e5ffee5	0.21874578
54	0xbd184230	-0.037172496
55	0x3b924929	0.004464288
56	0x3d614899	0.055000875
57	0xbd1ea1d5	-0.038728554
58	0xbdeb98dc	-0.11503765
59	0xbd49d5e8	-0.049276263
60	0x3d266364	0.04062213
61	0x3ce176d3	0.02752248
62	0xbef7afa8	-0.48376203
63	0x3d52ccff	0.05146503
64	0x3dfa260c	0.12214288
65	0x3de8b52f	0.11362683
66	0xbd6e5141	-0.05818296
67	0xbc02af72	-0.0079764
68	0x3dc3cb42	0.09560253
69	0x3d71503e	0.058914416
70	0x3d5bcd6c	0.053662702
71	0x3cbd1eda	0.023086
72	0xbd2fe4f6	-0.042942964
73	0x3b3eaeb3	0.0029095828
74	0x3de63ff0	0.11242664
75	0x3dac92e0	0.08426452
76	0x3d412121	0.047150735
77	0xbf111776	-0.56676424
78	0x3df3032b	0.118658386
79	0x3d83033a	0.063971
80	0x3cf435d2	0.02981082
81	0x3db116b6	0.0864691
82	0x3d4e36bb	0.050345164
83	0x3c994b5d	0.018712694
84	0x3c1b3076	0.009472003
85	0x3dbcae22	0.09212901
86	0x3d5d9493	0.05409677
87	0x3dac0328	0.083990395
88	0x3df250eb	0.1183184
89	0x3c89e157	0.016831083
90	0xbb82ad77	-0.003987964
91	0xbd1b845c	-0.037968025
92	0x3d7a5eb6	0.06112548
93	0x3e0ca428	0.13734496
94	0x3cd8e0cd	0.02647438
95	0xbe9fdc2b	-0.31222662
96	0x3d4781de	0.048707835
97	0x3dd0715b	0.10177871
98	0xbe0f94c7	-0.14021598
99	0xba8baeff	-0.0010657011
100	0x3dd3f3d0	0.10349238
101	0xbb2bb51e	-0.0026200484
102	0xbed293a3	-0.41128263
103	0xbd1bf627	-0.038076546
104	0x3d4a99b5	0.049462993
105	0xbd5cfe70	-0.053953588
106	0x3c45f980	0.012083411
107	0xbd54fe8a	-0.05200056
108	0x3d016ae8	0.031596094
109	0x3c2ddc89	0.010611662
110	0x3da815cb	0.08207282
111	0x3c0871ab	0.008327882
112	0x3c8f3c6d	0.017484868
113	0xbda9b9e1	-0.08287407
114	0x3d895aaf	0.0670675
115	0x3d182841	0.037147764
116	0x3d88914f	0.066683404
117	0x3dc58703	0.09644892
118	0x3d2fdaca	0.042933263
119	0xbbc74da0	-0.0060822517
120	0x3e0baa4e	0.13639185
121	0xbdb94a10	-0.090473294
122	0x3d7143bc	0.058902487
123	0x3c23a1d5	0.009987314
124	0x3dab5324	0.08365467
125	0x3db53a16	0.0884897
126	0xbd30caa3	-0.043162
127	0x3d19edc4	0.037580267
128	0xbdf63f3a	-0.12023778
129	0x3dc514a3	0.09623077
130	0xbe9784e3	-0.29593572
131	0x3e0489c7	0.12943183
132	0xbc2af0fe	-0.010433434
133	0x3d519e68	0.05117646
134	0xbdd93d37	-0.10607379
135	0x3dbfef8a	0.0937186
136	0x3d674e2d	0.05647104
137	0x3dbeffa2	0.09326102
138	0xbdbb940c	-0.09159097
139	0x3f227d3d	0.6347235
140	0xbea46c64	-0.32113945
141	0xbdc8e43c	-0.09809157
142	0x3dedfd7a	0.116206124
143	0xbe03fdd9	-0.12889804
144	0xbdc818f3	-0.09770384
145	0xbd76bd54	-0.06023915
146	0x3e0f3a23	0.13987021
147	0x3c7ce313	0.015434998
148	0x3ba3df1e	0.005000963
149	0x3cad9f9a	0.021194268
150	0x3dea38e7	0.114366345
151	0xbb859264	-0.004076289
152	0x3cf9a2ef	0.0304732
153	0x3d13f5c6	0.03612306
154	0xbca0a0f1	-0.019607993
155	0xbdcf61d7	-0.10126083
156	0xbe19ccb8	-0.150195
157	0xbd1d9481	-0.038471702
158	0x3e26267c	0.16225618
159	0xbdae23a3	-0.08502891
160	0xbf0b9648	-0.54526186
161	0xbd9f1749	-0.07768113
162	0x3dae27fb	0.085037194
163	0x3e540f0f	0.2070887
164	0x3dacae66	0.08431701
165	0xbdbe23d2	-0.09284176
166	0x3ddcc3aa	0.107795075
167	0xbf1876b3	-0.5955612
168	0xbdefcfe9	-0.117095776
169	0x3d01906d	0.031631876
170	0x39b18045	0.0003385564
171	0x3d08442f	0.03326815
172	0x3d6bc7b6	0.057563506
173	0x3d80458f	0.06263267
174	0x3dc21d35	0.09478227
175	0xbd1d412d	-0.038392235
176	0xbe3e81a8	-0.18604147
177	0x39098f12	0.00013118636
178	0xbd7547a7	-0.059882786
179	0x3dba10c8	0.09085232
180	0x3df1df27	0.11810141
181	0x3e2f8ff9	0.17144765
182	0xbdd33679	-0.10313124
183	0x3db5152c	0.08841929
184	0xbc414c31	-0.011797951
185	0xbcf1790a	-0.029476661
186	0xbe12471b	-0.14284937
187	0x3c0c29ec	0.008554917
188	0x3db45fc8	0.08807331
189	0xbcc6a0c5	-0.024246583
190	0xbf122e19	-0.5710159
191	0x3c6527c9	0.013986536
192	0xbaf1c7f4	-0.0018446431
193	0xbba6fc01	-0.005095959
194	0x3bc869e2	0.006116138
195	0xbcc5620c	-0.024094604
196	0xbc871b25	-0.016492436
197	0x3ad7087c	0.0016405727
198	0x3dc60e0a	0.096706465
199	0x3dddc50c	0.10828599
200	0x3c5410b9	0.01294344
201	0x3c7953ff	0.01521778
202	0x3db94294	0.09045902
203	0x3d8ffd80	0.07030773
204	0x3e0ebb63	0.1393867
205	0xbf22735f	-0.6345729
206	0x3e05ae46	0.13054761
207	0x3de995ce	0.11405526
208	0x3da85abf	0.082204334
209	0xbc023bea	-0.007948855
210	0x3caafbf9	0.020872103
211	0x3d18649e	0.03720533
212	0xbdb7b446	-0.08969931
213	0x3dec51e2	0.115390554
214	0x3dce8185	0.10083298
215	0x3e17a3b6	0.14808545
216	0x3dee1dde	0.116267905
217	0x3d70fdb9	0.05883572
218	0x3d9befb9	0.07614083
219	0x3e002ba8	0.12516654
220	0x3c483bff	0.012221335
221	0x3e0b53ba	0.13606158
222	0x3cc77118	0.02434592
223	0xbef1a1ed	-0.47193852
224	0xbd3f5d6b	-0.04671995
225	0x3d264c8c	0.040600345
226	0xbde73a80	-0.11290455
227	0x3c1b2038	0.009468131
228	0x3d342f6e	0.043990545
229	0x3dd507dc	0.1040189
230	0xbf1966ff	-0.59922785
231	0xbc2d61c7	-0.010582394
232	0x3c41bc5a	0.011824692
233	0xbe1164e3	-0.14198641
234	0xbd8ce3d8	-0.06879395
235	0x3cdeddf8	0.027205452
236	0x3de2ab72	0.11067857
237	0xbdf3beb4	-0.11901608
238	0x3cf33437	0.029687984
239	0xbd80d5be	-0.06290768
240	0x3d831d5c	0.06402084
241	0xbd76eb72	-0.060283132
242	0x3c9b8214	0.018982925
243	0x3c35f805	0.011106496
244	0x3d3ed83d	0.04659294
245	0xb9dc91a9	-0.00042070195
246	0x3d5395ad	0.051656414
247	0x3dcb40e6	0.09924488
248	0x3e01eeb2	0.12688711
249	0xbcc9d1cb	-0.02463617
250	0x3d0ab737	0.033866134
251	0x3dfa2269	0.122135945
252	0x3e41ca5a	0.18924847
253	0x3c9e5e32	0.019332025
254	0x3ddf4d57	0.10903423
255	0x3dd69a8b	0.104786955

network.2.0.bias f4 [64]
0	0xbc661157	-0.01404222
1	0xbce6e3db	-0.028184822
2	0x3cbfe7cc	0.023425959
3	0x3d70ec05	0.058818836
4	0x3a56e71c	0.000819789
5	0x3dc34547	0.09534698
6	0x3c720b0a	0.01477314
7	0xbc0e308a	-0.008678565
8	0x3c589d9f	0.013221174
9	0xbbcfd54e	-0.0063425666
10	0x3c5df441	0.013547004
11	0x3c1b3b5d	0.0094746025
12	0x3d06b434	0.0328867
13	0x3daff68b	0.08591946
14	0xbca242a7	-0.019807173
15	0x3cb595f0	0.022166222
16	0x3d5575f9	0.05211446
17	0x3c48ca2d	0.012255234
18	0x3cf0b00f	0.029380826
19	0xbc7220b6	-0.014778307
20	0x3d6ac324	0.057315007
21	0x3d6d6b25	0.05796351
22	0x3dd9ce8e	0.106351
23	0xbd0e565f	-0.03475034
24	0x3cefd988	0.029278532
25	0x3c2423bd	0.010018286
26	0x3d899ec4	0.06719735
27	0xbca9e219	-0.020737695
28	0x3d58470c	0.05280213
29	0x3ce53a31	0.02798185
30	0x3bbd195f	0.0057708467
31	0xbd71da6f	-0.059046205
32	0x3da1100d	0.078643896
33	0xbc2df926	-0.010618484
34	0xbcbd1072	-0.02307913
35	0x3d9431ed	0.07236085
36	0x3b5da83e	0.0033822204
37	0x3da0ae42	0.07845737
38	0x3cc3d8ea	0.023907144
39	0xbd3c3ac2	-0.045954473
40	0x3c5613a1	0.013066203
41	0x3dc8dce8	0.098077595
42	0x3c80f4dc	0.015741758
43	0x3d28d2ec	0.041216776
44	0x3cdef509	0.027216451
45	0x3d71d5cb	0.05904178
46	0x3b0787de	0.0020680348
47	0x3d72edfb	0.059308987
48	0x3dc95f64	0.098326474
49	0x3c24f0dc	0.010067191
50	0xbd41d50c	-0.047322318
51	0x3d83e703	0.06440546
52	0x3d8d9c8b	0.06914624
53	0xbc21a269	-0.009865382
54	0x3dd00b51	0.101584084
55	0xbcb1e870	-0.02171728
56	0xbd2ee9b2	-0.042703338
57	0xbcfeb82c	-0.03109368
58	0x3db92f68	0.09042245
59	0x3be09ca9	0.006854613
60	0xbc881ee0	-0.016616285
61	0xbd6d4229	-0.057924423
62	0xbd11cf49	-0.035598073
63	0x3aa824c0	0.0012828335

network.3.weight f4 [1, 64]
0	0xbe22ab30	-0.15885615
1	0xbe08f333	-0.13374023
2	0xbe0a8ddb	-0.13530676
3	0x3e59f0d8	0.21283281
4	0x3f18e6e1	0.59727293
5	0x3e16c7f6	0.14724717
6	0xbe25bc51	-0.16185118
7	0x3df763a1	0.120795496
8	0xbdf342bc	-0.11877963
9	0xbe0a258e	-0.13490888
10	0x3e0c252f	0.1368606
11	0x3e2ab005	0.16668709
12	0xbe043f18	-0.12914693
13	0x3e44388a	0.19162193
14	0xbde207b4	-0.110366255
15	0xbe393dbf	-0.1808996
16	0xbe381f8f	-0.17980789
17	0xbdd1fa98	-0.10252875
18	0xbe0cbece	-0.13744661
19	0x3e5240dc	0.20532554
20	0xbe1b94ef	-0.15193532
21	0xbe484e94	-0.19561225
22	0x3e3f3328	0.18671858
23	0xbe317f0a	-0.17333618
24	0xbe120170	-0.14258361
25	0x3e2f6548	0.1712848
26	0x3df90f56	0.12161128
27	0x3e051f6d	0.13000269
28	0x3e44636d	0.19178553
29	0x3e67ef9b	0.22649996
30	0xbdf4b996	-0.1194946
31	0x3e3958ce	0.18100283
32	0xbe2693f2	-0.16267374
33	0xbe17338f	-0.14765762
34	0xbdf0c512	-0.11756338
35	0x3e209526	0.15681896
36	0x3de93f28	0.11388999
37	0x3e71a326	0.23597392
38	0xbe3819fc	-0.17978662
39	0x3e3e7a86	0.18601426
40	0xbe319c0a	-0.1734468
41	0x3e170570	0.14748168
42	0x3e394653	0.18093233
43	0xbe2a77af	-0.16647218
44	0xbde9a2bc	-0.11407992
45	0x3e118fd0	0.14215016
46	0x3e1e0faf	0.1543567
47	0x3dfc9f56	0.123350784
48	0x3e23851e	0.15968749
49	0xbe2b3987	-0.16721164
50	0xbe2f9447	-0.17146407
51	0xbdc743f7	-0.0972976
52	0xbe0dd989	-0.13852514
53	0xbe797eb7	-0.24364744
54	0x3e22823a	0.1586999
55	0x3e29adfd	0.16570278
56	0xbe2d4ca6	-0.1692377
57	0x3e1c1ff3	0.15246563
58	0xbd8ff304	-0.070287734
59	0xbe03b212	-0.12860897
60	0xbe155184	-0.14581877
61	0x3e1d9935	0.15390475
62	0xbe4c6668	-0.1996094
63	0xbdc01d8c	-0.093806356
