data/user_properties/trained_weights/DenseNet-ael_shear_modulus_vrh.pth (torch_old, 289666 bytes, 7 tensors)

network.0.0.weight f4 [256, 119]
00000000: 1fab ac3a c08b 2c3c af7c cebc 9fc3 87bb
00000010: 5f3e 82bc 49de d63d c180 4ebd a7a5 bb3d
00000020: d60c d8bd 5ebd cfbc c16e 7bbc fbcb f3bd
00000030: 8bba c43c 2fbb e9bd 2309 2f3c cbd6 adbc
00000040: 7d61 d0bd 79c5 4fbc 2fb2 a53d 9deb acbd
00000050: da0a 8ebc 3977 0abe e68f c63c d1a7 903c
00000060: 06d7 283e ff33 84bc 12cc 843d f525 f73c
00000070: 9bb2 5bbc 09ac 0cbd f48a 373d 08ef 1b3d
00000080: 3952 84bc d587 26bd 3420 f8bc 5571 debd
00000090: 28f5 a2bd 1fb7 d5bd 965c 0fbe 4884 2fbe
000000a0: 1a56 eabc c478 b63b 6d8a 793e 2c03 c9bd
000000b0: 9e14 5abd dfe4 d1bd 5493 dabd 3fb8 a4bd
000000c0: b5dd b0bd f7b3 f8bd 0046 95bc 1721 59be
000000d0: 699a 97bd 45a2 babc d588 9fbd 8b6a 85bd
000000e0: 5d43 5fbe d896 60be fa00 1cbc 8c9e a4bd
000000f0: 6def 8dbd 72ad bcbc e243 01bd 906f 3cbd
00000100: 4859 14be b0fc 08bd ba3a d9bc 8043 bbba
00000110: 15d4 ccbc 0af2 c83d 4f3f 11be 075a db3c
00000120: 2c5f 02bd 93b3 143e 8d58 6f3d 00a5 e8bd
00000130: 99cf 2d3e 52e8 6dbd c817 0dbd b3dc 67bd
00000140: 2469 e7bd 070a d4bd 18bb 20be 4dea 9abd
00000150: 035e 633c 3c21 d13d d6b4 423d ec2d 05bd
00000160: 4507 33bd 3e1c 073d 4121 09be 5fd2 d7bd
00000170: 1a98 3d3d 0c0d 10bc 6542 0ebe 3694 8bbb
00000180: e355 e1bc 87b0 42bd 820b a13d 0d8f 603d
00000190: 1aff 84bc 29eb c83c 9f24 403d 305c 4a3d
000001a0: 3c45 7fbd b6e3 bb3d f6ff e13c e3f6 d73c
000001b0: aff3 fa3c 70c8 b93d cab5 ae3d fec4 b63d
000001c0: 813d 643d 62b7 1ebd 8785 803c 08e3 ef3c
000001d0: 597d 80bd 9ce6 a83d bef5 c73b bc98 da3d
000001e0: a3dd 77bd f750 cdbc a090 86bd 1a74 d0bb
000001f0: c9cc 90bd 1d09 edbc 6412 463d cd33 2fbc
00000200: f4be f0bb 4313 55bd 7344 01be 1a75 0cbe
00000210: 0fb7 0fbe c65c d73c d510 29be a3ea 39bd
00000220: fe33 d4bd 5732 47bd 36bd 27bc be55 0cbe
00000230: f3b3 7c3d d11c e1bd 9263 4f3d d227 f43c
00000240: e7ca 57bd 9128 e8bd 9953 073e eaac f7bd
00000250: e11b 35bd 4591 0abe 6f17 3dbd 64f3 7fbe
00000260: 1294 7dbe 33d9 52bd a924 cabd 25f3 a83b
00000270: 5aae d0bd bffb 353d 9406 9cbd d736 5dbd
00000280: 0191 bdbd 5d52 213d 61b6 13be ce49 bfbd
00000290: 363a 10be c6e5 fbbd 5b75 d6bd 3a81 8ebd
000002a0: 223e 0ebe 4d49 4dbd b9f9 92be a027 8bbd
000002b0: a7cb 6cbd e86e d33c 9a1d 54be 71cc 95be
000002c0: 7316 323b c566 2e3d 0d22 9dbb 1b4c 0ebe
000002d0: 7731 c53d e354 153d d444 35bc 4cdf 313d
000002e0: 2f57 5cbe 5326 29be a36b 26bd aa48 78bd
000002f0: db1e 903d e4b3 33be 6e45 f8bd f592 0a3b
00000300: a69d f63c 6c2e a2bd 59cc 743c e7af f93c
00000310: 509c 24bc 144e 18bd 9a69 0bbd 313f 79bd
00000320: 4f32 0fbe 5a69 1dbe 5428 36bc 6edb b73c
00000330: 74c8 893d 50ed 1a3c 98a7 f9bc ff73 1bbd
00000340: 4ea4 16bd 08ad 28be 893c 05be fc26 083d
00000350: 2359 f1bc fd59 86bd e1af 4a3d bb69 96bc
00000360: 609a 233d 55b4 af3d 1c0d 9c3d 27d2 423d
00000370: c8d1 e03c 93eb 4cbc da3c 4d3d fd91 3a3d
00000380: face 8bbd 2b83 be3b 462e 8b3d bc38 8cbd
00000390: 577a 0c3c 564b a63d 6a7c 66bd eb1c 1d3c
000003a0: 56ca 1c3d d6e5 ab3c 7629 1ebd 0929 d43d
000003b0: 8239 12bc d269 593e 8b27 73bd 3df3 adbd
000003c0: b43a 34bd 7148 57bd 2442 9e3d f290 123e
000003d0: 1be5 833d d370 1b3e 807d e1bd 9639 c0bc
000003e0: ba4b debc 5356 54bd 63f2 c83b 7b9c 09be
000003f0: 2367 1abe 476e 7abd 5755 2dbe 7001 bbbc
0.0013173557 0.010531366 -0.025205938 -0.004143193 -0.015898881 0.10491616 -0.050415758 0.09162455
-0.10549323 -0.025358852 -0.01534623 -0.119041406 0.024014732 -0.114126556 0.010683331 -0.021220585
-0.101748444 -0.0126813585 0.080906264 -0.08443377 -0.017339159 -0.13522042 0.024238538 0.017658146
0.16488275 -0.016138075 0.06484236 0.030169467 -0.013409282 -0.034343753 0.04481025 0.038069755
-0.016152488 -0.040656883 -0.030288793 -0.1086146 -0.07956916 -0.10435318 -0.14000162 -0.17140305
-0.02860551 0.0055685956 0.24369211 -0.09815058 -0.05324232 -0.10248732 -0.10672632 -0.08042955
-0.08636037 -0.121437006 -0.018221855 -0.21204029 -0.07402498 -0.022782454 -0.077897705 -0.06514462
-0.21803041 -0.21932542 -0.009521717 -0.08038053 -0.069304325 -0.023031924 -0.03155888 -0.04600483
-0.14487183 -0.033444107 -0.02651726 -0.0014287084 -0.025003472 0.0981179 -0.14184307 0.026776327
-0.031829044 0.14521627 0.058434058 -0.11359596 0.16973723 -0.058082886 -0.034446508 -0.05660696
-0.11299351 -0.10353475 -0.1569637 -0.075642206 0.013877395 0.10211417 0.04753574 -0.032514498
-0.043708105 0.03298592 -0.13391592 -0.10538172 0.046287633 -0.008792173 -0.13892515 -0.0042596115
-0.027506774 -0.04753163 0.07863523 0.054823924 -0.016234923 0.024526196 0.046909925 0.049404323
-0.062321886 0.09174292 0.027587872 0.026362842 0.030633776 0.090714335 0.08530767 0.08924292
0.055722717 -0.038749106 0.01568867 0.029283062 -0.06273908 0.0824711 0.006102293 0.10673663
-0.060514104 -0.025063021 -0.06570554 -0.0063614966 -0.0707031 -0.02893501 0.048357382 -0.010693503
-0.007346982 -0.052020323 -0.12623768 -0.13716546 -0.14034675 0.026289355 -0.16510327 -0.045389783
-0.10361479 -0.048631992 -0.0102379825 -0.13704583 0.06169505 -0.109918244 0.050632067 0.029804144
-0.052683737 -0.113358624 0.13215484 -0.120935276 -0.04421604 -0.13531978 -0.046164926 -0.2499519
-0.24763516 -0.05147667 -0.098702736 0.005155938 -0.10189505 0.044429537 -0.07618442 -0.054007377
-0.09256173 0.03938519 -0.14425041 -0.09340249 -0.14084706 -0.12299685 -0.104716025 -0.06958242
-0.1389089 -0.050118733 -0.28706148 -0.06794667 -0.057811406 0.02580972 -0.20714417 -0.2925754
0.0027174025 0.042578477 -0.004795319 -0.1389622 0.09628575 0.036457907 -0.011063773 0.043425843
-0.21517633 -0.16518526 -0.040629994 -0.060616173 0.07037135 -0.17549092 -0.12122618 0.0021144722
0.03010447 -0.079190105 0.014941298 0.030479385 -0.010047033 -0.037183836 -0.034036256 -0.06085128
-0.13984035 -0.1537222 -0.011118013 0.0224435 0.067276865 0.009455994 -0.030475423 -0.03795242
-0.036777787 -0.16472256 -0.13011374 0.033240303 -0.029461449 -0.06560133 0.049484137 -0.018360963
0.039942145 0.085793175 0.07619688 0.0475637 0.027443781 -0.012507337 0.05010686 0.04554938
-0.06826587 0.0058139763 0.06795935 -0.06846759 0.00857409 0.08119838 -0.056270994 0.009589414
0.0382789 0.020983618 -0.03861376 0.10359389 -0.008924844 0.21231773 -0.059363883 -0.0849366
-0.044001296 -0.05255932 0.07727459 0.14313105 0.06440183 0.15179758 -0.11010265 -0.02346496
-0.027135719 -0.051840138 0.0061324104 -0.13438599 -0.15078406 -0.061140325 -0.16927086 -0.022827834

network.0.0.bias f4 [256]
00000000: 083f 683d a1f3 75bc c5b2 0c3d ba38 233b
00000010: 4a3e e63d 84cd 2d3d db3a 833c 2dab 3abd
00000020: b68f 2a3d da07 073d ce25 0dbe 8a50 383d
00000030: eee0 163d 6032 2f3e f3c0 2a3d 43a1 16bd
00000040: 1d1b a53d 490a 163e 2ca5 c13a 21a7 95bd
00000050: 3d46 743b 7ea3 243d a876 06ba c3e9 b6bd
00000060: 6f09 19be 6fc4 ae3c 09fa 01be 8855 a63d
00000070: fe12 363c 0102 d23d 3375 ccbc 4a4e 453d
00000080: b094 793d 53da 1e3d 4986 1f3e fa5f 9f3d
00000090: ae2f 1bbc 2eb9 d33b b3cd ecbd 75aa d9bb
000000a0: 6072 093d b822 b3be 80ea 70bd 4c06 823c
000000b0: ce7b 1bbd eb1b ce3a 79ab 823d a990 183d
000000c0: d755 0fbe b4b2 bd3c cacb f73c a64b febe
000000d0: da7c 843d f6b2 6e3c 3e72 733d e83c 563d
000000e0: 40a7 093b e75c fe3d 8760 5b3d 9e48 a63d
000000f0: f82d ab3d cd47 113e e680 4ebb b8cf b0bc
00000100: f98e 29bd c04b 0bbb cacf 5abb 89e9 0d3c
00000110: d2e1 c03a 78b0 913b 6491 bbbc f0d3 05bd
00000120: 7ba0 713d bfa7 833d 5864 833d 7315 f53d
00000130: ddb9 ba3d ccee 383e a5eb 93bb 3161 b6be
00000140: ba0e 14be 6b42 96be fe7a b7bc 7f8e b23d
00000150: f51d a0bd ea3e 4f3d 7953 063d 8eaf 5b3d
00000160: d99d ba3d 182b e6bd 1a44 b6bc 93a5 24bc
00000170: 72ee 653d c153 163c 4d1d e03d bf15 f73c
00000180: d34e e33c d59a 093b 13be da3c 52fc 6d3d
00000190: f8b8 c43c ccda d7bd 2965 3b3d a654 0a3e
000001a0: f706 2abc 88b5 febd 7d8b d63d 813b 3cb8
000001b0: 67ea 11be 7b17 aebd b1f7 2f3c 4737 f73d
000001c0: 4087 21bd 9aa4 af3d f3c1 253d 767f a9bd
000001d0: 15f5 cebb 8ba4 073d e0c8 d4bc 0878 883d
000001e0: 2614 203c bd08 b9bd c0c1 4ab9 3ec2 0c3e
000001f0: 4492 4dba f0a4 c3bc 76bd eabc f1b3 b63d
00000200: 10ad 773d 02aa 163d 97cd 75ba e6d2 023e
00000210: 94c2 7f3d 48a1 783d e70b 183e 1307 2fbe
00000220: d9f0 c23d 26e1 973c c463 3d3d e54e b63a
00000230: 817d 033d 3c7e 973c dd7a aa3d 1100 d6bd
00000240: f5cd e83b 9fc3 ea3d 17d4 6dbd 69d9 22bc
00000250: 1f5f 96be d37c cf3c 9a83 3c3d 1805 afbc
00000260: 1ab2 c43b eb43 d4bd 4d7c 953c e1c2 2fbd
00000270: 0fab c7bd e187 02be a485 a939 0b08 1e3d
00000280: 6a67 ecbd b839 04be c2b9 e4bc 0e1d 1a3c
00000290: 0c49 ba3d 2609 cd3d 9a8d d8bd b0fb 793b
000002a0: e811 e43c 9e18 fd3c b577 0fbe 7e71 d3ba
000002b0: 0be9 55bd ec96 373d 18fb 893d 9606 cebb
000002c0: a14e 73bd b491 c9bc 4f57 a73d f2a8 1b3c
000002d0: cd02 cfbd 5f26 d6be 096a b03c 9495 1dbb
000002e0: c677 05bd bead a93d 4a2b 853d 2464 8abb
000002f0: 13a7 33ba bdb3 a03d 22e2 12bc 2947 12bc
00000300: 4be1 293d 4f6c 79bd 6ca5 af3d 9a64 9dbc
00000310: a7e2 833b fbdc 46bd cda8 0bbe 61b7 793d
00000320: 3ab7 503e 7a09 b03a 3e91 e3bd cf80 0b3d
00000330: e281 edbb 6ce7 133d 8c23 48bd 587e 5cbe
00000340: 60c7 ecbb 8011 db3c d644 55bc 13d6 c93c
00000350: 5233 933d 7fbf b83d 4307 fbba 9da6 0fbd
00000360: be4d 983b 3b86 edbd 5618 8a3b 6471 47bc
00000370: 9f55 783d f890 d3bd 090c 8c3c 1a63 80bd
00000380: 0628 c53c 5b4d 99bb dbd6 7bbd 8de3 29be
00000390: a905 e4be b8fa bebc ef9a 5f3d 30d0 af3d
000003a0: 4abe 133d aff1 1e3c a3c7 0c3d 5014 323a
000003b0: f549 55be f0b9 9e3d d813 7abd 7c9f ae3d
000003c0: 7bfa 8ebc 7b6c 6ebd e21d 92be 0483 c23d
000003d0: ffdd 4a3d d771 3abc 31e4 113e 98da 9d39
000003e0: d1bb 37bc e027 7abc 841b 383d bada 5c3d
000003f0: cbbd d5bb fa82 af3c 7950 22bd e114 4cbe
0.056700736 -0.015011699 0.034350175 0.0024905638 0.112423494 0.042432323 0.016019275 -0.045573402
0.04164096 0.032966472 -0.13783953 0.044998683 0.036835603 0.1710906 0.041687917 -0.036774885
0.08061812 0.14652361 0.0014773956 -0.07307268 0.003727331 0.04019498 -0.00051293755 -0.08931305
-0.14945005 0.021333901 -0.12693037 0.081217825 0.0111129265 0.102542885 -0.024958229 0.048170365
0.060932815 0.03878243 0.1557857 0.07781978 -0.009471817 0.006461284 -0.115626715 -0.0066426345
0.033556342 -0.34987426 -0.058817387 0.015872143 -0.037959866 0.0015724873 0.06380362 0.037247334
-0.13997589 0.023156501 0.030248541 -0.4966709 0.06469126 0.014569035 0.05943512 0.05230418
0.002100423 0.124200635 0.053558853 0.081193194 0.08358377 0.14187546 -0.0031509935 -0.021583423
-0.041396115 -0.0021254867 -0.0033388012 0.008661636 0.0014715737 0.0044460855 -0.022896476 -0.032672822
0.058990937 0.064284794 0.064156234 0.11966982 0.09117482 0.18059844 -0.004514175 -0.35621026
-0.14458743 -0.29347548 -0.022397514 0.08718585 -0.07818214 0.05059711 0.03279445 0.05363422
0.09112138 -0.11238688 -0.02224927 -0.010049242 0.056135602 0.009175242 0.10943089 0.030161737
0.027747547 0.0020996828 0.026701963 0.05810196 0.024013981 -0.10539779 0.04575077 0.13508853
-0.010377637 -0.12436968 0.10475824 -4.487811e-05 -0.14249574 -0.08500572 0.010740207 0.1207109
-0.039435625 0.08576317 0.040468168 -0.08276264 -0.006315837 0.033115905 -0.02597469 0.06663519
0.009770429 -0.0903487 -0.00019336399 0.13745973 -0.00078419247 -0.02388236 -0.028654795 0.0892104
0.06046778 0.036783226 -0.00093766436 0.12775764 0.062441424 0.060700685 0.1484829 -0.17092542
0.09518594 0.018539976 0.046237722 0.001390901 0.03210211 0.01849281 0.083242156 -0.104492314
0.00710463 0.11463093 -0.058063593 -0.00993953 -0.29369447 0.025328076 0.046023943 -0.021364734
0.0060026767 -0.10364517 0.018247748 -0.04291046 -0.09749424 -0.12747146 0.00032333762 0.03858189
-0.11543162 -0.12912643 -0.027920607 0.009406341 0.09095964 0.100115106 -0.10573883 0.0038144402
0.02784057 0.030895527 -0.14010508 -0.0016131846 -0.0522242 0.044821665 0.067373455 -0.006287406
-0.05940116 -0.02460561 0.0817095 0.009500729 -0.10107956 -0.4182615 0.021534937 -0.0024045454
-0.032584928 0.08285092 0.06502397 -0.0042233635 -0.0006853204 0.07846782 -0.008965047 -0.008928099
0.04147462 -0.060894307 0.085764736 -0.01921301 0.004024822 -0.048550587 -0.13638611 0.0609659
0.20382395 0.0013430559 -0.11111687 0.03405839 -0.0072481493 0.036109373 -0.048862025 -0.21532571
-0.007225916 0.026741743 -0.0130169 0.024638211 0.07187523 0.090209 -0.0019151944 -0.035071004
0.0046479395 -0.11597868 0.004214327 -0.0121730305 0.06062853 -0.10330385 0.017095583 -0.06268902
0.024066936 -0.004678411 -0.0614842 -0.1659071 -0.44535568 -0.023312911 0.054591116 0.085846305
0.036070146 0.009701177 0.034370076 0.0006793188 -0.20828994 0.077503085 -0.06105408 0.08526513
-0.017453423 -0.058208924 -0.28538424 0.094976455 0.04952812 -0.011379681 0.14247204 0.0003010824
-0.0112142125 -0.015268296 0.044948116 0.05391953 -0.006522869 0.02142476 -0.039627526 -0.1992984

network.1.0.weight f4 [128, 256]
00000000: 537e f4bd 2014 0bbd 610d 633d 3c80 c63d
00000010: 6ad5 abbe 033c 9fbe b67e bb3d 15f6 99bd
00000020: a48b b73c bd34 bbbd 14a5 19bc 347e 7f3c
00000030: b854 cc3d 447d 50be 23d7 c83c c084 b0bc
00000040: b8f6 3abe 0832 a1be 65f4 373d 6997 4f3e
00000050: 8747 d8bc 3c68 993d f7be 2b3e 3399 143d
00000060: dfcd 833d 872e 39bd c8df 183e f4aa 333d
00000070: af46 a43d 0500 0d3d 55af 08be 800c c43d
00000080: 4088 353c c87c bfbd 9346 dabd a846 f63d
00000090: 58de f73d 03da 8e3e 2c90 8b3d f12f 2d3d
000000a0: c9ae 79bd 806a f2bd 61ff 613d cf50 b6bc
000000b0: 62d1 033e 9ba8 c63c 906d 833d db16 20be
000000c0: e0e9 053e e271 383e b692 8b3d 2c7f 18bf
000000d0: ae22 8ebe 373f e33d 7fc0 35be 0041 6d3d
000000e0: 24ce b8bc 6b1c f7bd 1356 28bd 8fed 55be
000000f0: a893 c4bd 73e6 4bbe af70 9d3d 00aa 82bd
00000100: eb54 023b 82f6 fb3d 76ba 013d 66f2 3ebd
00000110: 66fa 6f3c b663 673b 7d02 bb3d 502d 643e
00000120: 7b23 b6bd 0b56 57bd a001 a83d 41fe 823d
00000130: 21db 49be 2dd3 eebe f741 ae3d 6a51 d1bd
00000140: 0a30 603e 2001 f53a 7f19 1dbe 3d30 b63c
00000150: 944d 08be 5b42 ad3d 7172 74bc 85f9 fdbc
00000160: 1448 c0bd 5fbf 0cbe cf2b cdbc 0607 e3bd
00000170: d695 64be 7322 d83a 9464 553e ecbf 7fbc
00000180: 1e81 7a3d 0b84 1f3e f1cf bb3c 3a9a 573d
00000190: e98a 01be 17e5 78be 7fe2 6dbd 7382 e7bd
000001a0: 9b00 01be 338d 99bd fb96 193d 460d 653e
000001b0: 8bf9 02be 378c debd 45d3 64bd 640a 23bd
000001c0: 1699 773d 33e3 b6be 2e4e 81bc d174 a83d
000001d0: c0a4 0d3e 374e d6bd ce7d 9ebc a4f8 763d
000001e0: d584 3dbd 8c26 2a3d 2f5a 693d a792 65bc
000001f0: 43a4 0bbe 03fa 583c 05ed c93d 5804 b5bd
00000200: c070 92bd 5839 0bbd d1dd 953d af99 74be
00000210: cb45 d0bd 955f b03c 4f3e 11bc b0a3 c23d
00000220: ed7f 4bbd 049d 9bbd 3f43 f73d e1e5 163e
00000230: 61d8 b1bc 6e74 a8bc 9895 9e3d 90b6 673d
00000240: 8c78 4dbd 2cd1 78be 2fd9 53bd 5b97 a33d
00000250: 0c02 2ebf a07b 813b 084c 5f3d cc76 4b3d
00000260: 3ecc 313e 4f7d 2a3e b872 653b 22aa 35be
00000270: 9ce7 12bd 05e8 753e 37a5 d7bd 23bb 06be
00000280: 3616 eabd f145 f73c a8b5 063e 387e 3cbe
00000290: 5efb 9bbd 1fc0 81be 1798 07be 5ab8 513d
000002a0: 7df7 bf3d 576c 0cbe 8a78 053e d338 cc3d
000002b0: e5c1 003b 7e44 e13b 7a25 7cbd 0d76 863b
000002c0: 3925 b63e f963 ac3d 7c87 d2bd 8884 923d
000002d0: 5d97 2fbd 2c32 d23b 82af 5dbe 2483 0e3c
000002e0: 4e28 a23e 49b0 4cbd 82ca ddbb 51c3 bbbc
000002f0: a8aa 8e3c 99f3 68be b87b f13b f5d7 dd3d
00000300: 3a80 653d 1952 933d a2f4 1ebe 2bef 323d
00000310: 2dc8 3f3d c169 443d 8d06 a13d 7cfc 883b
00000320: 693e c2bd 8311 bd3d cd94 5f3e 435b 72bd
00000330: 7ec1 c63d 133e 803e 718d 163e 7376 583a
00000340: c901 6c3e d239 3cbc e19f a53c 4933 5dbe
00000350: c93b 8bbc 74bb bcbd d510 88bc bccf 79bd
00000360: 5afa 9fbd bdad adbd ce41 ea3d 7df2 88bd
00000370: 9e07 b93d a259 56bc f5e5 2e3c 7208 693e
00000380: 4ae7 01bb 01e4 ad3d e067 4a3e 5ef1 36be
00000390: 82cb 79be 2e88 a43d 37ab 133e 201f 3fbd
000003a0: 42af 68be 0538 d93c caa3 3d3e 7770 cd3d
000003b0: 7541 2fbd 50d4 f93b cf15 8d3d 6cb9 68bd
000003c0: 77ac a13d 618a 25bd 3cea 53bb 1695 213e
000003d0: 463c 27bd d953 d33d 977c febc 3838 1e3d
000003e0: 9a50 aebd f72d b83d 56ce d93c a6f8 a73d
000003f0: 4a86 0f3e a026 4d3d 6278 973c 1a2b 59be
-0.11938157 -0.03395474 0.05543268 0.096924275 -0.3356126 -0.31100473 0.091550276 -0.075176395
0.022405453 -0.091409184 -0.009377737 0.015594054 0.09977096 -0.20360285 0.024516648 -0.021547675
-0.18258178 -0.31483483 0.044910807 0.20272602 -0.026401294 0.07490584 0.16772066 0.036278915
0.06435751 -0.045210388 0.14929116 0.043864205 0.08021294 0.034423847 -0.13348134 0.09572697
0.011079848 -0.09349972 -0.10657992 0.12025195 0.121029556 0.27900705 0.06814608 0.04228205
-0.060957704 -0.118367195 0.05517519 -0.02225533 0.12872842 0.02425032 0.06417382 -0.15633719
0.13077497 0.18012193 0.06815092 -0.5956905 -0.27760834 0.11096042 -0.17749213 0.057923317
-0.022559233 -0.12065967 -0.04109771 -0.20891403 -0.09598476 -0.19912128 0.07687508 -0.06380081
0.001988704 0.12302877 0.031671964 -0.046617888 0.014647102 0.0035307235 0.09131334 0.2228291
-0.08893486 -0.05257229 0.08203435 0.06396151 -0.19712497 -0.4664549 0.085086755 -0.102206066
0.21893325 0.0018692352 -0.15341757 0.022239799 -0.13310844 0.08459922 -0.014919863 -0.03100277
-0.09388748 -0.13744877 -0.025045304 -0.11085324 -0.22322783 0.0016489759 0.20839149 -0.015609723
0.061158292 0.15577714 0.022926303 0.052637316 -0.12650646 -0.24306141 -0.05807733 -0.11304178
-0.12597887 -0.07497635 0.0374975 0.22368345 -0.12790506 -0.108665876 -0.055865545 -0.03980483
0.06044873 -0.35720214 -0.01578435 0.08225406 0.13832378 -0.10464137 -0.019347098 0.060295716
-0.046269257 0.041540667 0.05697077 -0.014012015 -0.1363688 0.013243201 0.09859661 -0.08838719
-0.071504116 -0.033990234 0.07317699 -0.2388675 -0.10169562 0.021529952 -0.008864953 0.09503877
-0.049682546 -0.07598308 0.12073373 0.1473613 -0.021709623 -0.02056333 0.077433765 0.05657059
-0.05016379 -0.24298543 -0.051720794 0.07987853 -0.67971873 0.003951505 0.05451587 0.04967384
0.17363068 0.16649364 0.0035011005 -0.17740682 -0.03586541 0.2401429 -0.10529559 -0.13157324
-0.11430018 0.030184718 0.13155234 -0.18407524 -0.07616304 -0.2534189 -0.13241611 0.051201202
0.093733765 -0.13713203 0.13034263 0.09971776 0.001964682 0.00687462 -0.061559178 0.004103428
0.35575274 0.08417506 -0.10279748 0.071541846 -0.04286896 0.0064146724 -0.21648982 0.008698259
0.31671375 -0.049972806 -0.0067685256 -0.022920283 0.01741536 -0.22749175 0.0073694848 0.10832206
0.05603049 0.07193393 -0.15523008 0.04368512 0.046821762 0.047952417 0.078625776 0.004180489
-0.0948456 0.09231856 0.21834107 -0.059169065 0.097048745 0.2504736 0.14702393 0.00082573964
0.23047556 -0.011488395 0.020217838 -0.21601595 -0.016996281 -0.09215441 -0.016609589 -0.060989127
-0.07811423 -0.084804036 0.114383325 -0.06686876 0.09034656 -0.013082894 0.010674943 0.22757128
-0.0019821697 0.08490754 0.19766188 -0.17865512 -0.24394038 0.08033787 0.14420782 -0.046660542
-0.22723106 0.02651597 0.18519512 0.100312166 -0.042787034 0.0076241866 0.06888925 -0.056817457
0.07894223 -0.04041517 -0.003233566 0.15779528 -0.040828966 0.10318727 -0.031065268 0.038627833
-0.08511467 0.08993142 0.026587646 0.08201723 0.14016071 0.050085664 0.01849002 -0.21207848

network.1.0.bias f4 [128]
00000000: 266d f8bd cdcf dbbb 6fae 3bbe c438 e3ba
00000010: ac0c 023c fde9 3f3d 7c2b 693c 67e6 673d
00000020: a894 94bc 6bb9 27bd 51ff 433c 9f31 0f3d
00000030: c082 c43c 62a8 74bc 5c51 343d 707a 01bc
00000040: 9f46 de3c bbd0 e63c e237 5d3d 0ac9 a43c
00000050: 0221 333c 3c50 eebb 88b8 0bbd f8de d53c
00000060: d211 643d ebaa e4bc 1c7a e23c 18a8 eb3c
00000070: 57d1 22bd dca6 803d 6104 833c 6bf6 0b3d
00000080: d592 34bd 2aa2 393d 65b8 d0bc 6ec9 0b3d
00000090: 6225 853b f17d 993d 21bd 753c c17b 6c3d
000000a0: 1f7a 71bd 707d 513d 2750 9e3c dfab fcbc
000000b0: 0794 94bb f1d9 c03b 577a 463c 24f4 f73c
000000c0: a55e 343c a01b 0d3c 353f 323d 10db 23be
000000d0: c23c 803d 8a38 99bd f3cd 16bd a396 2f3d
000000e0: 3e52 24bd e8b8 293d 21ad 89bd b10d 983c
000000f0: 983c 123d 7de7 05bd 4dcf 0dbb 9184 f4bc
00000100: 6241 5c3d 850d 3c3d f8b5 603d 0328 c93c
00000110: b4c6 76bb 9072 c93c 6209 973c 6188 b8bb
00000120: 0e91 8e3b 2ae2 3b3d 0662 a3bc 8a25 5ebe
00000130: d119 1dbe 0b33 263d 4575 d83c 0ed5 1ebe
00000140: 6402 7ebe 4a47 3cbe 5aa8 2d3d 9851 5e3d
00000150: 6d1f 4e3c 679b ab3c 0b5e 183d 0ead 823d
00000160: 1f5e 19be 573f bd3c 0f5e 6a3c 0b35 43be
00000170: 051d d83c b3ab af3d f3cb 883c ed29 1d3d
00000180: 208d b33c 204a 623d 32b0 42bc fa8d fc3c
00000190: e72c 68bb cf7e 7c3d ba18 bbbc c9b6 6d3d
000001a0: f0ee ec3c d023 f83b 6478 93bc b29e 093d
000001b0: 28e2 6f3b 13d1 3dbd b8fb 843d 63b7 133c
000001c0: 7d5b 4f3c 88cb 913c 2e32 653d 5b71 8939
000001d0: 5d43 2a3d 4d4b bdbc 6131 c73c 7f98 823c
000001e0: 89a1 ebbb 1982 403d 71cf 2ebd aec3 79bd
000001f0: 5cb7 3d3d a979 353d 7931 b73b f09d f8bc
-0.121301934 -0.0067081214 -0.1832826 -0.0017335643 0.0079375915 0.046854008 0.014231559 0.056616213
-0.018137291 -0.040948313 0.011962728 0.03495943 0.023988128 -0.014932724 0.044022903 -0.0079027265
0.027133284 0.028175702 0.054008372 0.020115394 0.010933163 -0.0072727483 -0.03411153 0.026107296
0.055681057 -0.027913531 0.027646117 0.028766677 -0.039750423 0.06281826 0.015993299 0.03417055
-0.044085342 0.045320667 -0.025478551 0.034127645 0.0040632943 0.074947245 0.014998705 0.05773521
-0.058954354 0.051145017 0.019325329 -0.030843673 -0.004534248 0.0058853556 0.012114129 0.030267783
0.011008893 0.008612543 0.04351731 -0.16001534 0.06261589 -0.07481487 -0.036817502 0.042868268
-0.040117495 0.041436106 -0.06722475 0.018561216 0.035702318 -0.032691468 -0.0021638453 -0.029848369
0.05377329 0.04591133 0.05486104 0.024555212 -0.0037655057 0.02459076 0.018437091 -0.005631492
0.004350788 0.045869984 -0.019944202 -0.21694008 -0.1534188 0.040576022 0.026423106 -0.15510961
-0.248056 -0.1838657 0.04239688 0.054277033 0.012580735 0.020948125 0.03719906 0.06380664
-0.1497731 0.023101492 0.014304652 -0.19063203 0.026381025 0.08577671 0.016698813 0.03837006
0.02191788 0.055246472 -0.011882829 0.030829418 -0.0035427155 0.06164437 -0.022838939 0.058035646
0.028922528 0.0075726286 -0.018001743 0.03359861 0.0036603305 -0.046341967 0.06493324 0.009015891
0.01265609 0.017797247 0.05595606 0.00026215133 0.04156815 -0.023107195 0.024315538 0.015941856
-0.0071908874 0.04699907 -0.0426783 -0.06097763 0.046317443 0.044305477 0.0055906144 -0.030348748

network.2.0.weight f4 [64, 128]
00000000: 1f00 5b3c 5755 34bd a0b6 c3be 8ecb ce3d
00000010: f730 1f3e 96bf b73c 012c f73c 03e6 cbbd
00000020: 3e6c 0a3c c758 ae3d 5dcc d73c be09 20bd
00000030: 89fa ca3d 3d00 163e 7eaa debd a4f7 a23d
00000040: 09fa fbbd 1871 f8be 1c23 85be d2f1 74bd
00000050: ed40 96bd 9f1b c63c d351 083e 4a8f e5bd
00000060: 3442 bd3c c660 49bd ed3a 02bb c59d e8bc
00000070: 7260 173d 18fd 7b3d e456 f23d b4e4 523d
00000080: cb07 3a3c 50de 1bbc 8d83 eb3c 947f 61bd
00000090: 9657 233d a06d b8bc 239d 21bd a04f 393d
000000a0: fe3d 22bf 688c b73c 58e2 1fbf 8d70 90bc
000000b0: 43de ed3d 9972 c3bd 13f6 fe3d 2968 a23c
000000c0: f0c7 ecbc 64be 46bd a3ff 1dbe 8752 fd3e
000000d0: e60f 5ebc 5495 44bd c94d cf3c c0f8 d9bd
000000e0: 2965 25bd f31f 77bd 5f44 63ba 28d3 7f3d
000000f0: da4b 7cbd dcdd a13d a69a 853c 52d6 0a3d
00000100: a851 093d a659 fe3d 057f 3a3d 429c af3d
00000110: 1243 9d3d 73f8 7ebc 18d0 ea3c 3c33 883d
00000120: c764 853b ccdd 8d3d 2543 9e3c e068 1ebf
00000130: c964 d8be cc72 043e 0c9e 96bc 20d5 1dbd
00000140: ab14 08bf eda1 0f3f 637c 94bc 30fc 163e
00000150: 4378 d63d be00 acbd a1ae 9b3d a069 86bd
00000160: b158 b0be 255a 0f3e 087a 3ebe fec3 23bf
00000170: dee8 133e ee54 123c 3b0d e43d 1252 373d
00000180: 3744 f23c e86f 0cbd af4f 20bd 079a 0a3e
00000190: d84f 2f3d 8bc6 f13d ab82 e83d 01fd b63d
000001a0: 846f d9bd 6b16 233d 7bdf 8f3d acb9 683d
000001b0: e29c 343c da1a 9b3d 0018 c1bd 0020 a8bc
000001c0: db6e 34bd c09f 59bc 156b 8b3d f1ec 333d
000001d0: 0624 de3d 4116 53bd 6a10 12bd 428c 093e
000001e0: 098c b83c 636f e3be 15a0 93bd 1815 9abb
000001f0: 1c9d 943d eb71 05bd f283 0b3e 5f8c cf3d
00000200: cd67 643d 7227 3f3d 7daa 66be 072e 6ebc
00000210: d455 ea3c 9a30 d4bc db69 b5bd 0de5 e7bc
00000220: 25b7 c6bc 8b1a 8a3c cef5 57bc 64bf f5bb
00000230: 931b 003e 3d1d a43d 3a56 0bbe 2d17 c83d
00000240: b284 083d fd3c babe 2a96 1dbe d57c 0abe
00000250: 6f32 a1bd d148 253d 2046 0c3c 41a9 f53c
00000260: d736 a33d 5d13 913c 0e6c 91bd 38f5 f6bc
00000270: 002a 363d b596 32bd 8209 523a 6a6a b73d
00000280: 6ce6 86bc 6ab7 c4bd bba5 c93d d0bc 7ebd
00000290: 7b59 433c ec12 103d 5835 a2bc 9cf1 0a3e
000002a0: a389 cdbe 89b4 bb3c 2389 f4be 5ac2 a8bc
000002b0: ef18 b0bb cd62 7bbd c5ea 1f3c e2e1 e63d
000002c0: 6a16 ddbc 7c65 36bd d69b 7abc c64c ff3e
000002d0: 658e 0b3d 1cfe b73d 87c9 62bd 0ac5 883d
000002e0: 415a a93c 4f9f 2ebd a259 c73a 3673 cb3d
000002f0: 0308 acbb 012d e3bc 783b c3bc 17b1 523d
00000300: be07 4b3c 191a db3d 61a6 0d3e f64b 983d
00000310: b5c1 b53d 36f5 5b3b 37b8 e63c e10d 503d
00000320: 8525 b0bc b601 0d3e ee37 4e3d c1ac c6be
00000330: ce47 19be ae0d 743d f91e 58bc 24cb fbbd
00000340: 82b2 fcbe 2d83 eb3e 8d74 ce3d 1106 583d
00000350: 6979 2b3e 78b5 0cbd 5685 5c3c 6b89 82bd
00000360: 1648 bcbe 36cc 913d 2190 05be f8e6 fbbe
00000370: 2b4c d03d cfee 7c3d 8fe7 8e3d 9b55 38bd
00000380: af9d d63d 36e9 1d3c 59d1 87bd 26a1 933c
00000390: 5d58 783c 9e1f a93d 40c4 ce3d e904 153e
000003a0: d5c5 88bd 9d1d 0e3e 091d 0a3e f04e e93d
000003b0: 61b5 8a3d 3ed9 753d 1b50 b8bd 9904 d23b
000003c0: 5e3a babd e713 be3d 5f96 943c 4464 553d
000003d0: 56c6 f63c d8de c5bc 5f96 e8bd 2d99 1a3e
000003e0: bcf9 863d c7a8 aebe 724e 7b3c 2837 cdbc
000003f0: aed0 483d a13f 143c e787 683c 6d2d 663d
0.013366728 -0.0440267 -0.3822527 0.10097419 0.15546022 0.022430222 0.03017235 -0.09955981
0.0084486585 0.08513027 0.026342565 -0.03907179 0.09911067 0.14648528 -0.108723626 0.0795739
-0.1230355 -0.48523784 -0.2600335 -0.05980093 -0.07336602 0.024183093 0.13312463 -0.11208971
0.023102857 -0.049164556 -0.0019871548 -0.028395543 0.03695721 0.061520666 0.11832979 0.05148764
0.011354397 -0.009513453 0.028749252 -0.05505331 0.03987845 -0.02251321 -0.039456498 0.045241952
-0.6337584 0.022405818 -0.6245475 -0.017631793 0.11614659 -0.09543342 0.12449279 0.019825058
-0.028903931 -0.048521414 -0.15429549 0.49477026 -0.013553595 -0.047993973 0.025305646 -0.106431484
-0.040379677 -0.060333204 -0.0008669551 0.062457234 -0.061595775 0.079036444 0.016309094 0.033895798
0.03352514 0.12419443 0.04553129 0.08574726 0.07678808 -0.015562165 0.02866368 0.06650397
0.0040708515 0.0692707 0.019319126 -0.61878777 -0.42264393 0.12934417 -0.01838591 -0.03853333
-0.53156537 0.56106454 -0.018125718 0.1474464 0.10472157 -0.08398579 0.07601667 -0.06563115
-0.34442666 0.13999231 -0.18601239 -0.63970935 0.144443 0.008931382 0.11135336 0.044756003
0.029573543 -0.03428641 -0.039138492 0.1353532 0.042800754 0.11805447 0.11353048 0.089349754
-0.10616973 0.0398163 0.070250474 0.056817695 0.011023732 0.07573481 -0.09428406 -0.020523071
-0.044051033 -0.013282716 0.06807534 0.043927137 0.10846715 -0.051534895 -0.035660185 0.1343241
0.022527711 -0.4442092 -0.072082676 -0.0047022216 0.07256529 -0.032579344 0.13624552 0.101341955
0.055763055 0.046668477 -0.22525974 -0.014537341 0.02860538 -0.025902081 -0.08858081 -0.028307462
-0.024257252 0.01685836 -0.013181163 -0.007499622 0.12510519 0.08013389 -0.13607112 0.097700454
0.033329673 -0.36374655 -0.15389314 -0.13524182 -0.078709476 0.040352646 0.008561641 0.029987933
0.07969444 0.017709428 -0.07100688 -0.030146226 0.044473648 -0.043600757 0.0008012281 0.08955844
-0.016467296 -0.09605296 0.09846064 -0.062191784 0.011923189 0.035174295 -0.019800827 0.13568729
-0.4014407 0.022913234 -0.47760877 -0.020600487 -0.005374066 -0.06137352 0.009760563 0.112735525
-0.026988227 -0.044530377 -0.015295943 0.4986326 0.034071345 0.089840144 -0.055367973 0.06678207
0.02067292 -0.042632397 0.0015209208 0.09934084 -0.0052499785 -0.02773142 -0.023832068 0.051438417
0.012391983 0.10698337 0.13833 0.074363634 0.08874837 0.0033562905 0.028164012 0.050794486
-0.021502266 0.13770184 0.050346307 -0.38803676 -0.14968798 0.05958336 -0.013190978 -0.122946054
-0.4935494 0.45998517 0.10080824 0.05274016 0.16745533 -0.03435275 0.013459524 -0.06373867
-0.36773747 0.07119028 -0.13043262 -0.49199653 0.10170778 0.061751183 0.0697776 -0.045003515
0.104792945 0.009638121 -0.06631727 0.018021178 0.015157786 0.082579836 0.100960255 0.14552654
-0.066783585 0.13878484 0.13487639 0.11392009 0.067728765 0.06002163 -0.08999654 0.0064092395
-0.09093164 0.0928114 0.018138109 0.052097574 0.03012387 -0.024154112 -0.11356806 0.15097494
0.06590602 -0.34113142 0.015338527 -0.025050715 0.049027137 0.009048373 0.014192558 0.056195665

network.2.0.bias f4 [64]
00000000: 949e 973d a3e3 29bc 31c0 2fbd 1f32 a63d
00000010: 8db4 bd3d d972 4bbc 18bd 19bd 7b2c 433d
00000020: e024 a5bc 8483 24bd 6068 41bd 20ff 65bd
00000030: f1f2 11bd f898 a3bc 7d7a 41bd 5516 05bd
00000040: 2e93 7b3d 7456 c43c 7683 423b 1f48 713c
00000050: 79cc c63d c7f0 64be 6e1f e8bc 88e0 4cbd
00000060: 621d 66bd 3d8e ee3c 6380 c33d ce93 203b
00000070: a437 4d3c ba87 8fbb 0604 063d 8fba 843b
00000080: 02dc 02bd 4d50 703c b54a 363d 0e48 eebc
00000090: eeaa 5ebc 4136 5bbd f96d ea3c 642a 5bbc
000000a0: cf57 b73c 317a a63c 041d 97be e33f 613d
000000b0: cb71 8f3c e732 1cbe 910e c83d 9bad ddbc
000000c0: c8d7 103d 4c8e 2e3d ec2f 9abd d5c0 a53d
000000d0: 4f97 303d 3873 333d b4fd 8f3c f43d 5cbc
000000e0: 9c3c c53d ca32 503d 3ad1 ae3d 54e4 79be
000000f0: d1c8 95bd 64a9 95bc 1ecf 423d e686 ebbc
0.07403293 -0.010369214 -0.042907897 0.081150286 0.09262953 -0.0124175185 -0.03753385 0.04764984
-0.020159185 -0.040164486 -0.04721868 -0.05615151 -0.035632078 -0.019970402 -0.047235955 -0.032492
0.06141966 0.023967005 0.0029680408 0.014726668 0.09706969 -0.22357474 -0.0283353 -0.050018817
-0.056180365 0.029120559 0.09545972 0.002450216 0.012525473 -0.0043801935 0.03271868 0.00405056
-0.031948097 0.014667583 0.04450484 -0.029087093 -0.0135905575 -0.053518537 0.028616892 -0.013376806
0.022380738 0.020321937 -0.29514325 0.054992568 0.017510315 -0.15253793 0.09768403 -0.02706032
0.035362035 0.042616174 -0.075286716 0.080934204 0.04311305 0.043811053 0.01757703 -0.013442505
0.09630701 0.050829686 0.085360005 -0.24403507 -0.07313693 -0.018269248 0.047560804 -0.028750848

network.3.weight f4 [1, 64]
00000000: 879b 20be 0268 34be b2b3 743e 4864 3abe
00000010: 552e 03be 13bf 5bbe 3901 253f 25b8 38be
00000020: a3d5 cd3e b78e 1cbe 31c8 823e 0c9f 8f3e
00000030: 1dfc 9a3e 55b4 913e f44d 48be bace 793e
00000040: edf5 553e cd7c 97be e374 8d3e d518 643e
00000050: 2143 30be 3010 97be 4708 3fbe 359f 53be
00000060: 81f6 34be 1644 56be e109 643e 3712 19be
00000070: f855 3abe e4c8 783e 157c 5abe 4bca 3a3e
00000080: 802c 843e 3a69 72be 51cb 52be b25f 863e
00000090: 44b4 47be ef26 cb3e 7166 5f3e c982 503e
000000a0: 9c4a 43be b68e 7c3e b63f 79be 4e04 573e
000000b0: 1b90 6abe abd2 c0be 9639 3bbe 5dbb 723e
000000c0: 523e 9b3e 1c6d 9b3e bf49 71be a54a 2fbe
000000d0: e980 6b3e 3ced 7f3e ceb8 53be 2391 5bbe
000000e0: 9eec 3abe 1390 4f3e 46aa 553e 8daf 993e
000000f0: 4340 953e c2b1 a03e 8e1d 3dbe 8e11 21be
-0.15684329 -0.17617801 0.23896673 -0.18202317 -0.12810643 -0.21459608 0.6445499 -0.18038996
0.40202054 -0.15288816 0.2554336 0.2805103 0.30270472 0.28457895 -0.19560987 0.24395266
0.20894594 -0.29587403 0.2762824 0.22275098 -0.17213108 -0.29504538 -0.18655501 -0.20666201
-0.17672159 -0.2092441 0.22269394 -0.14948355 -0.18196857 0.24295384 -0.21336396 0.18241231
0.258152 -0.23672953 -0.20585372 0.26244885 -0.1950236 0.3967814 0.21816422 0.2036239
-0.1907143 0.24663815 -0.2434071 0.20997736 -0.22906534 -0.37660727 -0.18283686 0.23704286
0.30320984 0.3035668 -0.23563288 -0.17118318 0.22998394 0.24992841 -0.20675966 -0.21442084
-0.18254325 0.20269804 0.20865735 0.30016747 0.2915059 0.31385618 -0.18468305 -0.15729353
