data/user_properties/trained_weights/DenseNet-ael_bulk_modulus_vrh.pth (torch_old, 289666 bytes, 7 tensors)

network.0.0.weight f4 [256, 119]
000000 b5 2a 53 bd 5a d0 02 3d 85 f8 93 bd 6e d7 c9 3c
       -0.0515544 0.03193698 -0.07225136 0.024638858
000010 c1 56 79 bc 7b 5b 72 bd 88 11 4c be 17 fe 4c be
       -0.015218438 -0.059169274 -0.19928563 -0.20018803
000020 d4 6e 9d bd 9d 37 e6 bb 0f e3 cd bc 9f 55 dc 3c
       -0.076871544 -0.0070256726 -0.025132684 0.026896296
000030 3b 04 9c bd 90 6f 83 3d 25 17 5d 3d de 1b cc bb
       -0.076179944 0.06417763 0.05397715 -0.006228908
000040 b5 a8 b9 bc 7e 93 ec 3d 68 59 b3 3d 7b f9 22 3e
       -0.022663454 0.115515694 0.08757287 0.15915482
000050 a2 01 db 3c d9 64 0d 3d 2a ac 03 3d cf 5b 0a be
       0.026734177 0.034520004 0.03214661 -0.13511585
000060 a1 bf a0 bd 1d 19 14 3d 36 42 f8 bb cb dd 00 39
       -0.0784905 0.036156762 -0.0075762523 0.00012289656
000070 a5 d3 a4 bd 79 4c 99 bd f9 30 62 3d 3f 8f 50 3d
       -0.080481805 -0.07485289 0.055222485 0.05091786
000080 ea 0f 8e bb d1 f4 d4 bb df 60 63 bc 5b 12 04 3e
       -0.004335393 -0.006498911 -0.013878076 0.12897627
000090 02 a2 35 3e d7 7d 7a 3e 2d 09 38 3d 37 31 13 3d
       0.17737582 0.24462067 0.044930626 0.035935607
0000a0 81 06 0b 3d 88 a8 08 be 94 cb 05 be 18 3a ed bc
       0.03394175 -0.1334554 -0.1306594 -0.028958365
0000b0 03 83 42 be a0 89 8a 3c 1b de 7c bd 4b ac bf 3d
       -0.1899529 0.016911328 -0.061735254 0.09359034
0000c0 b9 91 76 3d 61 7f 4b 38 a6 a8 65 3d bb a5 a7 3c
       0.060197566 4.8517602e-05 0.05606904 0.020464769
0000d0 f2 66 38 3d 1f c0 16 bd 03 c9 66 3e 2f 21 62 3e
       0.04502005 -0.036804315 0.22537617 0.22082971
0000e0 16 46 57 3d f8 35 9c bd 4d c3 c4 3d be 47 e7 3c
       0.052557074 -0.07627481 0.09607563 0.028232452
0000f0 d8 bb d1 3d b5 1b 4d 3c ce a6 fd 3d b3 e4 6d 3c
       0.102409065 0.012518813 0.12385331 0.014519858
000100 ed 94 b4 3c a8 95 2e bc 99 00 19 bc b1 50 5d 3d
       0.02204367 -0.010655798 -0.009338521 0.05403203
000110 3c eb 98 bd b8 88 9b bc 66 18 20 3b ae e5 7b 3d
       -0.074667424 -0.018986091 0.0024428605 0.061498336
000120 38 ab de 3b 2b 81 07 be 1e f4 3d be 2d b4 3e be
       0.006795313 -0.13232867 -0.18550155 -0.18623419
000130 60 ad 3c be f3 38 ae bd b7 37 70 3b f4 18 9a bd
       -0.18425512 -0.08506956 0.0036654302 -0.07524291
000140 1f a4 d1 3c b9 3e 26 3e 03 2d ba ba 82 05 c6 bc
       0.025590954 0.16234864 -0.0014204088 -0.024172548
000150 bf a5 a8 bc 9e 16 e5 bc 74 a3 94 3d 50 b5 c1 3d
       -0.020586846 -0.027964886 0.07257739 0.09458411
000160 d9 c7 8f 3d 80 c3 28 3e 31 84 29 3b 41 09 6f bb
       0.0702054 0.16480827 0.0025866146 -0.0036474022
000170 63 10 6e 3d b0 f2 bc 3c 40 16 91 bd 49 f4 23 3d
       0.058121096 0.023064941 -0.07084322 0.04002789
000180 e2 58 53 bd b8 4b 31 bd 15 1b cf bc 58 5d 98 3d
       -0.051598437 -0.0432851 -0.025281468 0.07439679
000190 2d 26 41 bc f6 04 5e bd a6 81 88 bc 13 89 b6 3d
       -0.011788887 -0.05420395 -0.016663384 0.089128636
0001a0 8d f8 7c 3d 96 3a c5 3d a0 bc b3 3d 61 e7 81 bd
       0.061760474 0.09630315 0.08776212 -0.0634296
0001b0 dc 21 9b 3c 02 c6 1a bd dd 25 e8 3c a3 12 54 3c
       0.018937044 -0.03778649 0.028338367 0.012943896
0001c0 1f b8 28 bd 15 2b cf 3d 75 30 d3 bc 44 d9 58 bd
       -0.041191217 0.10115639 -0.025779942 -0.052941576
0001d0 b8 df 8a 3d e6 56 6f bd 17 75 88 3e 76 bf 93 3d
       0.06780952 -0.058432482 0.26651832 0.07214253
0001e0 32 20 c0 3a df bf 38 bd 5a 24 13 3c bf 86 c6 bd
       0.0014658032 -0.045104858 0.008980835 -0.096936695
0001f0 12 d8 7f bc 23 0b 19 ba 44 97 ab bd a3 df 07 bd
       -0.01561548 -0.00058381463 -0.08378461 -0.03317226
000200 01 0f 9f bd 45 5d 5f bd b8 04 93 ba c9 d3 39 be
       -0.07766534 -0.054532308 -0.0011216616 -0.18147196
000210 6d 9b fa 3b 24 04 25 ba cb 65 81 bd cf 49 aa bd
       0.0076479227 -0.00062948675 -0.063182436 -0.08314859
000220 22 b2 23 bc 70 ea 36 bd d7 d0 e2 3c 67 95 f5 3b
       -0.009991201 -0.04465717 0.027687473 0.007494617
000230 23 c9 32 bb 9d 0c 3a be 7b 57 4a bc a7 97 b2 bd
       -0.0027280531 -0.18168874 -0.0123499585 -0.08720332
000240 d5 b3 56 3d 53 0d 62 bc 11 50 af bd 3f ea 82 bd
       0.052417595 -0.013797122 -0.08560193 -0.06392335
000250 61 5f 21 bc 49 b6 d4 bd 80 80 54 bc f3 20 01 bd
       -0.0098494 -0.10386331 -0.01297009 -0.031525563
000260 93 d9 1b 3d d5 02 6c bc 34 3c ba bc d4 c4 93 3d
       0.03804929 -0.014404972 -0.022733785 0.07215276
000270 fa 08 aa bb 3d 6e e9 bb e8 48 2d bd 93 af 11 be
       -0.0051890584 -0.007123737 -0.042305857 -0.14227132
000280 7a d0 e7 bd df 91 87 bc 3c e6 31 3d ee fd 06 bc
       -0.113190606 -0.016549049 0.04343246 -0.0082392525
000290 2b 19 74 bc a5 cb 3a be 66 74 01 be 0f a2 0b bb
       -0.014898579 -0.18241747 -0.12642059 -0.0021306311
0002a0 99 4b 4d bd fa e4 19 3c 8c ea 57 bc b2 0e 03 be
       -0.050120924 0.009392971 -0.013178479 -0.12798575
0002b0 a9 c9 c1 3c fc 0d 75 3d 75 22 30 3d fe 06 1f bd
       0.02365573 0.05982779 0.04300161 -0.038825028
0002c0 3f d0 19 bd bc c6 0a be 97 ff 58 3b 13 9d a1 bc
       -0.037552115 -0.13552374 0.0033111328 -0.01972822
0002d0 95 f8 e6 bc b9 a1 36 3d 66 f0 9f 3b 71 21 97 3c
       -0.028194705 0.044587824 0.0048809526 0.018448563
0002e0 bc 31 71 be 5b 99 89 be 44 29 ff 3c f5 de e2 3c
       -0.23554128 -0.26874813 0.031147607 0.027694205
0002f0 5f 9e 09 3d 25 52 ad bc a6 e2 4a bd e9 ce ac bc
       0.0335983 -0.021157334 -0.049532555 -0.021094756
000300 6c 37 20 3d 9b 67 cf 3c 64 dc 7c 3b e7 4f 27 3d
       0.039115354 0.025317958 0.0038583511 0.040847685
000310 ef 91 d0 bc 54 54 8c bc 30 e7 82 bd 5a 2f 38 be
       -0.025460212 -0.017130055 -0.06391752 -0.17986813
000320 e2 a9 00 be 74 53 80 bc a3 cc a7 bd 63 56 7c 3d
       -0.12564805 -0.015664794 -0.08193328 0.061605822
000330 87 cb 6b 3b 92 0f bc bc b4 1e 7e 3d cb 6c 0f 3d
       0.0035979466 -0.022956643 0.062041 0.035015862
000340 7d 8a 34 bd 30 33 a3 3b cf bb 8d 3d 37 a0 a3 3c
       -0.044077385 0.0049804673 0.06920587 0.019973857
000350 e0 1c be 3d 0d 12 0c be 60 e6 ea 3b d2 a9 8c 3d
       0.09282851 -0.13678761 0.007168576 0.06868328
000360 64 62 cf bc 7e 22 a2 bc 77 b7 84 bd 4f 9a 3a 3d
       -0.025315471 -0.019791838 -0.06480306 0.045557316
000370 f5 f0 ca 3d c2 11 1d bd 9d eb a2 3d 99 38 04 bd
       0.0990924 -0.038347013 0.07955096 -0.03228054
000380 c7 f3 8e 3d 50 a8 5d 3d 32 05 dd bb b1 eb 6f bd
       0.069800906 0.054115593 -0.006745004 -0.058574382
000390 ce 67 93 3d 56 84 84 3d ef 02 d7 3d 2e fc b8 3c
       0.071975335 0.064705536 0.104986064 0.022581186
0003a0 b6 e4 7c 3b e8 37 17 3b a9 81 a3 3d 51 53 75 3d
       0.003858847 0.0023074094 0.07983715 0.05989391
0003b0 6a 9c bc 3d b0 83 a6 3e dd ac 17 be d3 33 04 be
       0.09209521 0.32522345 -0.14812036 -0.12910394
0003c0 ee da d1 bd e8 b8 a3 3d 6f a5 0a be 81 96 7d 3d
       -0.10246836 0.079942524 -0.1353967 0.06191111
0003d0 02 56 b8 bd 73 b7 37 3e 93 27 c1 bd 1f 37 27 be
       -0.0900078 0.17941074 -0.09431376 -0.16329621
0003e0 6b 5d 9e bd 64 d4 f9 bd 89 ed 36 be 5b 5b 88 bc
       -0.07732662 -0.121987134 -0.1786405 -0.016645124
0003f0 ee 13 85 3e ce 72 99 3d 4e a9 8b bd a5 e6 e2 3d
       0.25991768 0.074926004 -0.06819402 0.11079148

network.0.0.bias f4 [256]
000000 60 02 a1 bd 72 40 b0 ba 87 90 9a be ab 96 fe bd
       -0.07861781 -0.001344694 -0.3018839 -0.124310814
000010 40 47 4b bc 7d 18 bb 3d 76 3c 6c 3d c3 e2 5d 3d
       -0.012407124 0.0913553 0.057674848 0.054171335
000020 49 15 30 3d 6c 75 a3 3d d9 6d 74 3b 0d db ad 3d
       0.04298905 0.07981381 0.003729692 0.08489046
000030 ec 85 b3 3d b8 de 90 bd bc c6 f5 3c aa da 00 3e
       0.08765778 -0.0707373 0.03000199 0.12583414
000040 22 51 18 bd f8 8d ae b9 58 f5 e9 3c 5a 6d 03 3d
       -0.03718675 -0.0003329364 0.028559372 0.032086708
000050 55 76 13 3c 72 0a 94 be 49 31 a6 3d 1a 1c a7 bd
       0.0090003805 -0.2891422 0.08114869 -0.08159657
000060 97 70 a8 3c 25 25 b4 3d 55 73 aa 3b 5b 44 cd 3a
       0.0205615 0.08796147 0.005201737 0.001566063
000070 24 6c 06 be 47 48 44 3c 3e 87 c3 3c ad d5 91 bb
       -0.1312719 0.011980123 0.0238682 -0.004450521
000080 cd 28 f4 3d 0c 07 00 3e a7 4f 04 bd 4d e3 96 3d
       0.11921845 0.12502688 -0.032302525 0.07367573
000090 7f 8a 58 3d 63 43 f6 bd 78 7e f0 3c d9 ca a0 be
       0.052866455 -0.12024572 0.02935718 -0.3140476
0000a0 26 4c 84 3d 7f e9 da bd 12 68 af bd d5 73 ed bd
       0.06459837 -0.10689067 -0.08564772 -0.11594359
0000b0 de 91 32 bd cd de 55 3e d3 cd cc 3c 68 16 be bb
       -0.04359614 0.20885773 0.025000488 -0.005801011
0000c0 68 6e 6f 3d c1 4d 77 3c 8b 1a 17 bc 41 5a cd 3d
       0.0584549 0.015094222 -0.009222637 0.1002698
0000d0 ac 8a 9d 3d 05 ad 04 bc 0e 96 a8 3b 0a e2 c2 3c
       0.07692465 -0.008097892 0.005144841 0.023789424
0000e0 f8 07 13 3d a7 4b d1 3c c2 b2 89 3d c0 36 eb bc
       0.03589627 0.02554877 0.067235485 -0.02871263
0000f0 81 38 35 3c 2f 9f aa 3d f4 8f b3 3d 0d 82 ad 3d
       0.011060835 0.08331143 0.08767691 0.08472071
000100 c2 43 2f 3d b9 d6 82 3b f5 ec 3a 3d 88 b8 9f bc
       0.04278923 0.003992882 0.045636136 -0.019497171
000110 b3 e4 0d 3e 25 f1 bc bd 71 0c 9e 3d 9f ca 51 bc
       0.13856773 -0.09225682 0.07717217 -0.012804656
000120 7b c3 92 3d a9 65 8b bd a7 1a 1d 3c 10 f1 d7 3d
       0.07166191 -0.068064995 0.009588874 0.10544026
000130 d2 3d a7 bd 70 f7 f9 3d d1 01 72 3c b3 1d bc 3c
       -0.08166088 0.12205398 0.014770941 0.02296338
000140 78 3a 93 3c ce 1e c2 3d 52 e5 b2 3d d7 e0 48 3d
       0.017972216 0.09478532 0.08735146 0.04904255
000150 7d 3e e9 3c 44 9d d6 3d f5 30 22 3d 82 1e 32 3b
       0.02847218 0.10479215 0.03959747 0.0027178829
000160 74 df 7b 3d f7 f7 0f 3c 8c c6 21 3d be dd 6b 3d
       0.0614924 0.008787147 0.03949599 0.057584517
000170 6b 3b b0 3d 4b c9 0c 3d 6e 19 22 3d 1f ac 67 3d
       0.08605083 0.034371655 0.039575033 0.05656063
000180 a3 50 db ba 9a b9 00 bd eb 8a 4e 3d 46 3b ea 3b
       -0.0016732406 -0.031427003 0.05042545 0.007148179
000190 d1 c9 8b 3d a9 ca 8c 3d 2f bf 01 be 26 5c ee 3d
       0.06825603 0.06874592 -0.12670587 0.1163867
0001a0 69 34 a3 3b bd 84 a9 3d 4f b9 82 bd 37 20 9e 3b
       0.004980613 0.08277271 -0.06383001 0.0048256177
0001b0 e2 b5 26 be 2c ae ae bb 7d 49 06 3c 2f fd cc bd
       -0.1628032 -0.0053308215 0.008196232 -0.100092284
0001c0 b0 83 a2 3c 15 49 68 3d 37 2f 15 3c 86 ee 4d 3d
       0.019838184 0.05671032 0.009105495 0.0502763
0001d0 5d 1a c2 3d 5d e9 3b 3c ad d1 2d 3d f6 cb ba 3d
       0.09477685 0.011469212 0.04243629 0.09120934
0001e0 8c 44 89 3c 93 52 3e 3d e1 d7 a5 3c d0 c8 10 3d
       0.016756319 0.046465468 0.02024454 0.03534776
0001f0 51 08 90 3c 97 e6 3b 3d 80 cc d7 bb 36 50 f1 3c
       0.01758209 0.045874204 -0.0065856576 0.029457193
000200 61 3a 8d 3c c5 93 d2 be cb 6f ac 3c 16 5d 20 3c
       0.017239751 -0.41128364 0.0210494 0.009787818
000210 7a 8d 58 be 03 78 8b 3d 56 73 9c bd fd e8 22 bc
       -0.21147719 0.0681 -0.07639186 -0.009943244
000220 b2 69 88 bd d2 12 9d 3d 36 4a fa 3c bd 9f 95 be
       -0.06660785 0.07669605 0.030552965 -0.29223433
000230 51 b5 1b 3b 6b 9f 04 3d b4 29 22 bd 8b b9 ec 3d
       0.0023759196 0.032378595 -0.039590552 0.11558827
000240 54 da 66 bc cb b1 3b bc f8 a9 5c 3d aa e5 92 bd
       -0.014090139 -0.011455963 0.053873032 -0.07172711
000250 80 c9 b9 bd ec 91 ca bb 5d 2b 25 3e 46 d0 8b 3d
       -0.09071636 -0.006181946 0.16129823 0.068268344
000260 60 af 16 3d c8 61 ab bd d9 c4 20 3d 3c b7 7b 3c
       0.036788344 -0.0836826 0.03925023 0.015363511
000270 d0 2c 84 3d 16 de 92 bc eb 26 5b 3d 47 ac 45 bd
       0.0645386 -0.017928164 0.053503912 -0.04826
000280 4e dc 16 3b 30 d2 84 3e 73 69 85 3d 5e 8a 91 3a
       0.0023019495 0.2594161 0.065142535 0.0011103859
000290 e6 83 1a 3c 59 b2 80 3d 22 6e 87 3d cd 7b 76 3b
       0.009430861 0.06284017 0.06612803 0.0037610412
0002a0 28 fb 4a 3d 81 11 75 3d 12 e4 f3 3c 8d 54 a7 3d
       0.049555928 0.059831146 0.029771838 0.08170424
0002b0 2c 94 9d 3c 45 af 32 3d b7 75 2c 3b 90 fd 60 3d
       0.019235693 0.04362418 0.002631528 0.054929316
0002c0 70 72 97 bd e8 d1 1d bd 6b 30 2b 3d fe d1 73 39
       -0.07394874 -0.03853026 0.04179422 0.00023252514
0002d0 63 73 0d 3c bf 84 00 bc f6 92 e2 3d f2 8b 65 3d
       0.008633467 -0.007844149 0.11063187 0.056041665
0002e0 2e d9 de bb c2 6a b4 3c aa b3 f3 bd e9 f8 08 3c
       -0.006800792 0.022023562 -0.118995026 0.008360126
0002f0 03 5b ba 3b e0 4d 8c 3d ac b6 00 3c 26 2a 23 3c
       0.005687119 0.06850791 0.007856052 0.009958779
000300 94 48 4d 3b b8 dd df bb 70 dc 88 3c ba 0b 07 3d
       0.0031323778 -0.006831851 0.016706675 0.032970168
000310 70 0e 82 be d8 c5 ab 3d 34 68 87 b9 f4 8f fb 3c
       -0.2540164 0.08387345 -0.00025826844 0.03070829
000320 1e b5 5a 3c ff da 1f bc 71 b9 59 3d 50 fb 89 bd
       0.013348846 -0.009756803 0.053155366 -0.06737387
000330 c6 d7 99 3c 35 59 95 be 8e 55 11 bd 4b df 4c 38
       0.018779647 -0.29169622 -0.035481982 4.8845348e-05
000340 d8 06 9b 3d a1 f6 d8 bd 5f 44 8c 3d 39 34 5c be
       0.07569665 -0.10593916 0.06848978 -0.21504296
000350 97 05 10 3d 4e 3a 95 3d dc ec 2d be c4 60 27 be
       0.03516158 0.07286511 -0.16984886 -0.16345507
000360 a3 c1 98 3d 8e 30 76 3c 60 9a c9 3d 99 b9 56 3d
       0.07458808 0.015026225 0.09843898 0.052423093
000370 24 e8 6a 3d 10 69 ad 3d e2 b6 8c 3d eb 15 cb 3c
       0.057350293 0.08467305 0.0687082 0.024790725
000380 f0 9b e6 3c 60 a1 28 3d 9a 7c c9 3c 11 83 ae b9
       0.028150529 0.041169524 0.024595547 -0.00033285518
000390 8f 58 13 3d 42 38 8e 3d a8 a6 94 3d c0 63 1a 3d
       0.035973128 0.06944324 0.0725835 0.037692785
0003a0 d4 a0 91 3c 29 07 a1 3d cc e8 80 3c a1 23 0a be
       0.017776884 0.07862694 0.015736006 -0.13490154
0003b0 2c e4 15 bb f3 6e ee 3c 6c 39 5a 3d 8e b2 b1 3d
       -0.0022871597 0.02910564 0.053277418 0.08676635
0003c0 09 35 0e 3c dc ed 83 3d 8a 4f 03 3c a4 c0 2c 3c
       0.008679637 0.064418525 0.008014569 0.010543976
0003d0 43 83 b2 3d 4f b4 66 3c 8d 6c a6 3b bf a6 6b 3d
       0.087164424 0.014081075 0.005078858 0.05753207
0003e0 a2 a6 09 3c ac 95 6f bc 77 13 e9 3d 91 53 05 3c
       0.008401545 -0.014623087 0.11380666 0.0081376
0003f0 e0 8f a8 bd c9 a3 15 be 73 1c 96 3b 47 d5 87 3c
       -0.08230567 -0.1461326 0.004581028 0.01658119

network.1.0.weight f4 [128, 256]
000000 dc 5b e6 3c d2 e8 a5 bb 96 93 3c be e9 58 5a be
       0.028119974 -0.0050631547 -0.18415675 -0.21322979
000010 1b 4e 25 3c 34 ea aa bc cc 2c ee b8 38 66 b9 bb
       0.010089423 -0.02086363 -0.000113570684 -0.0056579374
000020 9c 28 23 be 70 48 a5 3c 36 9a 00 3d 0d 1f 23 bd
       -0.1593346 0.020176142 0.031397067 -0.039824534
000030 58 34 1c bd e5 23 76 bc ee b2 43 3c 07 14 03 3d
       -0.038135856 -0.015023206 0.011944516 0.03200152
000040 a4 c1 d4 bb 9a 94 9a bc 16 af 4f be f2 b9 9f bd
       -0.0064928103 -0.018869687 -0.20281634 -0.07799138
000050 27 fc 56 3d aa 88 1a be cc b6 89 3c 7c 1c 86 3d
       0.052486565 -0.15091196 0.016810797 0.06548402
000060 0e 61 12 bd 08 70 9f 3d b3 d8 20 3d da c1 9c bd
       -0.03573709 0.0778504 0.03926916 -0.07654162
000070 7e aa 2a 3d 43 58 3a 3d 63 5a 1b bd 9e eb 59 3d
       0.0416665 0.04549433 -0.037927996 0.053203218
000080 f4 6b 48 3d af f3 a3 bc cd cd a8 bd 6b d3 8a 3d
       0.048931077 -0.020013658 -0.082423784 0.06778606
000090 8c 2c f4 bc 6e 18 79 bd 48 93 53 3d 87 36 26 be
       -0.029806398 -0.060814314 0.05165413 -0.16231738
0000a0 32 49 ad 3c 3f 20 13 3d de 15 65 be a2 e2 82 be
       0.021153066 0.035919424 -0.22371623 -0.25563532
0000b0 4e df fe 3c c1 e1 43 be cf 90 f6 3c 61 73 45 bc
       0.03111234 -0.19129087 0.030098347 -0.012051434
0000c0 8b 6c b4 3b 37 fe 37 3d ec ee 2d bc d1 0e 8e bd
       0.0055061034 0.044920173 -0.010616045 -0.0693642
0000d0 47 3f 5c 3d de b5 6c bb 8b 87 83 3d 33 66 42 3d
       0.053771283 -0.0036119143 0.06422337 0.047460746
0000e0 61 34 bb 3e ee 47 64 bd bb 8d d6 bd a5 c3 d4 39
       0.365634 -0.05573266 -0.10476252 0.00040581558
0000f0 41 15 3c bc 22 f2 5a 3d c4 fa 7f 3d bc e8 ed bd
       -0.011479677 0.053453572 0.062495008 -0.11616656
000100 df af 3a 3c 1b 22 46 bd 13 cb 80 3c bd 04 0c bc
       0.01139447 -0.04837237 0.015721833 -0.008546052
000110 2e 52 83 3d 2e ac 22 3b 72 5b d6 bd 5b 66 93 bc
       0.06412159 0.0024821865 -0.104666606 -0.017993143
000120 93 8e 6f bd 73 d9 9f 3d 5f 6c a2 3d eb c6 e0 bc
       -0.05848558 0.07805147 0.079308264 -0.027438601
000130 92 1e 1e 3e b9 49 92 3d 8c 36 1b 3e 72 dc 99 3d
       0.15441349 0.07142968 0.15157527 0.0751275
000140 e0 25 6f be 03 10 a0 bd 5e 5f 31 bc de d0 2a be
       -0.23354292 -0.07815554 -0.01082596 -0.16681239
000150 65 a7 2d 3d 1e 5e 6b 3d 23 68 01 3d 64 18 85 3d
       0.042395968 0.057462804 0.031593453 0.06498793
000160 94 ff 5f 3d e0 aa 9a bd 69 bf f2 bd d9 f7 f7 3d
       0.054687098 -0.07552123 -0.11852915 0.1210782
000170 25 a4 01 bd fd 89 1a bd b8 c6 c8 3c 4d 4b 49 bc
       -0.03165068 -0.037729252 0.024508819 -0.0122860195
000180 de 1b 05 bc 2e 34 66 3d 7c 96 f1 bd 46 22 13 3d
       -0.00812432 0.056202106 -0.11796281 0.035921358
000190 e0 55 9c 3d a8 a0 58 3c 9c 5e cd bc ad 24 50 3d
       0.07633567 0.013221897 -0.025069527 0.050816227
0001a0 b2 9d 22 be 05 3d 96 bd ee 57 0c bc 86 dd 09 be
       -0.15880468 -0.07335857 -0.008565886 -0.1346341
0001b0 bc e5 43 bd 60 9a 8c 3d be eb 99 3d 56 48 89 3d
       -0.047826514 0.06865382 0.075156674 0.0670325
0001c0 20 f0 96 3b 42 1f 0e 3d 3c 89 81 3d e2 aa a8 3d
       0.004606262 0.03469778 0.063250035 0.08235718
0001d0 5b b8 a2 bc a0 41 c3 3a 96 4a e5 3c 27 01 63 bc
       -0.019863298 0.0014896877 0.027989667 -0.013855255
0001e0 d2 b4 09 be 5e 0a 3f 3d bb e7 3f 3d 1c 7e be 3b
       -0.13447884 0.046640746 0.046851855 0.0058133733
0001f0 02 c5 86 3d ca d6 10 bd 9a 13 58 be 87 e1 34 3d
       0.06580545 -0.03536109 -0.21101227 0.044160392
000200 e7 f1 ae bd 87 6f f4 bd 49 ec 90 3d a3 29 31 3d
       -0.08542233 -0.11935335 0.07076318 0.0432526
000210 d0 a2 ae 3c d5 3b c8 3c b3 00 f7 bd 83 32 8a 3d
       0.02131787 0.024442593 -0.1206068 0.067479156
000220 97 1c de bc 42 c1 12 bd 06 0f ae 3d 01 bb 56 3d
       -0.027113242 -0.035828836 0.08498959 0.052424435
000230 85 5c 66 bc ef f3 a2 3d 96 0f 81 3c 50 99 3e bd
       -0.014060144 0.07956683 0.015754502 -0.04653293
000240 88 b9 5a bc db 63 1a bd 4d 11 c9 3c b2 66 de 3d
       -0.013349898 -0.037692886 0.024544382 0.10859431
000250 72 e6 13 3e 53 70 30 3d 8d 7a 13 3d 4f 9e 3d bb
       0.14443377 0.04307587 0.036005545 -0.002893347
000260 20 53 40 3d 30 c4 04 bd 57 c0 58 3a 09 2b 1d be
       0.046954274 -0.03241366 0.0008268407 -0.15348448
000270 41 63 2a 3b 5a c6 b4 3d be 80 2b 3b 51 65 7a 3c
       0.0025999101 0.08826895 0.0026169266 0.015282945
000280 2d 4b 02 bd 3f 10 25 be 8c 4d fe bc e3 55 63 3c
       -0.031809974 -0.16119479 -0.031042837 0.013875457
000290 a3 9b bf bc 91 33 ca bc 9b ad 1f 3c 27 24 f9 bb
       -0.023389643 -0.024682792 0.009745981 -0.0076031866
0002a0 5b 73 f3 3c cf 02 83 3c 53 31 56 bd cb 8c 4a 3c
       0.029718092 0.01599255 -0.052293133 0.012362669
0002b0 73 1a 11 3e c7 d1 6d 3d 4e ac 35 3d 9d 95 ad 3d
       0.14170246 0.058061387 0.044353776 0.08475802
0002c0 96 f0 fd 3c f2 f8 39 bd a2 17 09 3c da 45 8f 3d
       0.03099851 -0.04540343 0.008367451 0.06995745
0002d0 b4 44 3b 3d de 2d 6c bd b1 d8 a5 bd 70 47 3d bc
       0.045719817 -0.05766093 -0.08097971 -0.011552677
0002e0 48 a5 1c be a1 11 77 be 93 76 3b 3c a6 37 79 bd
       -0.15297425 -0.24127819 0.0114418445 -0.060844086
0002f0 6d 7c cb bc d5 58 e4 bc c8 0c e2 bb aa fc 30 bd
       -0.024839604 -0.02787439 -0.0068984963 -0.04320971
000300 27 63 27 be 69 ae bf b8 bc 01 f3 3c 0e 20 08 bd
       -0.16346417 -9.140076e-05 0.029663913 -0.033233695
000310 da 91 0e be 06 3a d4 3a 95 27 5c bc 6b 04 8e bd
       -0.13922825 0.0016191609 -0.0134371715 -0.069344364
000320 5d ee b3 bd ab f8 7c bd fe a8 71 3c 87 86 bc 3c
       -0.087856986 -0.061760586 0.0147497635 0.023013366
000330 18 90 53 3d 38 c4 bc 3c 69 36 b6 bc 42 91 b7 bc
       0.05165109 0.023042783 -0.022242742 -0.022408132
000340 73 e9 bf 3b 15 0f 0b be b7 81 bb 3c 83 c0 61 3d
       0.0058566867 -0.13579972 0.022889001 0.055115234
000350 aa 87 3e 3d 2a 26 82 bb 3b 9d f7 3c a0 a0 8b bd
       0.046516098 -0.0039718347 0.03022634 -0.06817746
000360 46 bb 83 3c 93 b1 1a 3d a9 82 6d bd a4 56 e4 bb
       0.01608051 0.037767004 -0.057985935 -0.006968336
000370 94 08 d3 bc 7d 91 57 3d 0d eb 2f 3d ae f4 b5 bd
       -0.025760926 0.052628983 0.04294877 -0.088845596
000380 6b 3e 21 bd 71 a0 82 bd b6 97 9a 3d 42 98 35 bc
       -0.039366167 -0.06378258 0.07548468 -0.011083664
000390 47 60 65 3d a4 a0 02 3d 93 ca 49 bd 4c ad aa bc
       0.05600002 0.03189148 -0.049265455 -0.020834588
0003a0 67 06 d6 bd 79 06 1c bc 75 c4 26 3e 58 3f 47 bd
       -0.1045044 -0.009523028 0.1628588 -0.048644394
0003b0 fd 06 f6 bc 3e 5d 83 3d 4d 99 0c bd f1 d9 be 3c
       -0.03003263 0.06414269 -0.034325887 0.023297282
0003c0 03 37 d6 3b 20 db 7e 3d 15 6e 09 be 4c fb 0f bd
       0.0065373196 0.062220693 -0.13420899 -0.035151765
0003d0 b4 18 33 bd 96 cb 90 3d 3d ab e5 bd c2 9f 62 3d
       -0.04372473 0.07070081 -0.11214302 0.05532814
0003e0 e2 c4 e0 bc a1 40 4f 3d 1e d4 17 3c f4 6e 65 3c
       -0.027437631 0.050598744 0.009266881 0.014003504
0003f0 41 55 f4 bd f6 52 3d bd f3 ed 4c bd 56 48 a1 3c
       -0.119303234 -0.046221696 -0.050031614 0.019687813

network.1.0.bias f4 [128]
000000 fb 87 4c 3d 4d 2d b4 3c 97 85 57 3c f5 6c 77 bb
       0.04993437 0.021994257 0.013154409 -0.0037754152
000010 64 e4 1e bd 4d 46 18 3c 80 23 80 3d 00 80 f9 bc
       -0.03879203 0.009294105 0.06256771 -0.030456543
000020 f3 d9 10 bc b3 5a 24 bd 62 58 42 bd 0b 06 86 bc
       -0.008841026 -0.04012556 -0.04744757 -0.016360303
000030 3b 5b a3 3d 2e a5 36 bd 33 77 54 bc 79 9f cb 3c
       0.07976385 -0.04459112 -0.012967872 0.024856316
000040 03 5f 6b 3d 9c 3b 6e 3d 27 53 33 bd c9 1a 37 bc
       0.057463657 0.058162317 -0.043780472 -0.01117582
000050 e3 f3 92 3d b2 53 0d bd 74 b5 33 bc 62 e8 18 bd
       0.07175424 -0.034503646 -0.010968555 -0.037330993
000060 23 93 87 3c d1 c3 0b 3c d8 28 c4 3a 24 5a 1e bd
       0.016549652 0.008530573 0.0014965786 -0.038660184
000070 6f 63 a2 bc 5b 51 77 3d e3 65 df 3c 89 f6 93 3d
       -0.019822804 0.06038032 0.027270263 0.07224757
000080 7b dc 35 bd 8e 96 36 bd ef 74 d0 3c 5f 0f e1 bc
       -0.04439972 -0.044577174 0.025446383 -0.02747315
000090 02 81 8c 3b 1c 9d 8d 3c dc 76 3e 3d fa d0 0d bb
       0.00428784 0.01728683 0.046500072 -0.0021639452
0000a0 80 47 d4 3c 93 f8 35 3d 8e df a0 3b c0 41 49 3d
       0.025913 0.044426512 0.0049094623 0.04913497
0000b0 06 45 b7 3d b5 c4 11 3d 3e 55 4e bd 36 37 47 bc
       0.08948712 0.035587985 -0.050374262 -0.012159159
0000c0 93 f9 90 3c 60 c5 93 3b 42 ce 5f 3c 94 cb 68 bd
       0.017697131 0.004509613 0.013660016 -0.056834772
0000d0 d1 22 ba 3b fb a2 19 bd 13 af 36 3d e1 d8 b2 bc
       0.00568042 -0.037508946 0.044600558 -0.021831932
0000e0 c4 84 0b bb f5 a2 a2 bd da 83 bc 3c fa b6 49 3c
       -0.0021288851 -0.07941238 0.02301209 0.012311691
0000f0 66 85 05 3d b2 4e 98 3c 3e 8e bf be 7c ea 92 3d
       0.03259792 0.018592212 -0.3741321 0.071736306
000100 00 1b 82 3c bb 01 34 bc 0c ef 92 3b b2 cb 9a 3d
       0.015882015 -0.010986741 0.004484063 0.07558383
000110 e0 d5 66 bc 38 9b 26 3d af 52 59 bc 62 fe 46 bd
       -0.014089078 0.040675372 -0.013264342 -0.048582442
000120 eb e5 db bc 8c 67 b2 3d 67 eb c4 bc 64 63 c1 bc
       -0.026843032 0.08711156 -0.02403803 -0.023606963
000130 8e 54 1c bd a8 f3 82 3c f8 12 51 bc 0f 8d c5 bc
       -0.038166575 0.015985325 -0.01276087 -0.024115114
000140 a9 e3 63 3c be 0c 1f 3d 50 94 25 3d 51 4c a8 bd
       0.013909259 0.03883051 0.040424645 -0.08217681
000150 15 c9 7d bd a6 b1 50 3d 3b 1e 36 bd 50 37 f8 3c
       -0.061959345 0.05095067 -0.044462424 0.030299813
000160 af 1e 56 3d 51 2d b2 bc 1b 76 36 3d b1 59 8b bc
       0.052275356 -0.021750124 0.044546228 -0.017010542
000170 9a f9 7a 3c c9 0c c2 bd de c8 9d bc 48 51 dd b9
       0.015318299 -0.09475095 -0.01926082 -0.00042212964
000180 30 24 e0 3c 03 09 18 3d 66 0f c6 3c 44 ec ed bc
       0.027361006 0.03711797 0.024177264 -0.029043324
000190 f9 d1 71 3d e9 ed b0 bc a0 23 fa bc 31 0b 07 3c
       0.059038136 -0.02159782 -0.030534565 0.008242414
0001a0 c6 c0 cc 3d 54 f0 b5 3d 24 c3 83 3b 6d aa ef 3c
       0.09997706 0.088837296 0.0040210653 0.02925607
0001b0 44 97 d3 3c 5c d4 b1 bd 30 f5 fe 3c 4b b7 b3 3c
       0.025828965 -0.086830825 0.031122774 0.021937987
0001c0 0c d4 8b 3c c3 54 a7 bc c7 fc 60 3d 3f fd 91 3d
       0.017068885 -0.02042616 0.054928567 0.07128381
0001d0 5e 1b 59 3e 23 55 7b bd 7a 3c 84 3d 00 32 30 ba
       0.21201846 -0.06136049 0.064568475 -0.0006721318
0001e0 4d c7 28 bc 7c 33 4d 3c 60 08 75 3d 2e bc 95 3c
       -0.010301423 0.012524482 0.05982244 0.018278208
0001f0 01 14 ec 3b 63 53 8b 3d 73 a3 e7 bc 40 95 8d bd
       0.007204533 0.06803014 -0.02827618 -0.06913233

network.2.0.weight f4 [64, 128]
000000 f1 35 cf bd 91 cb 0f 3d 34 9e fe bd 9a e2 db 3d
       -0.101177104 0.035106245 -0.124325186 0.1073658
000010 cf 52 9b bd e8 ee 1d bd ff 32 66 bd 4a 21 6f 3d
       -0.07584154 -0.038557917 -0.056200977 0.058381356
000020 f3 bd 34 3e a6 68 4a 3e 18 6e 08 3e cc 85 10 bd
       0.17650585 0.19766483 0.13323247 -0.03528385
000030 64 8f 06 3d 1b a7 1b be a7 a0 f8 3d dc 8e 85 bc
       0.03285159 -0.15200464 0.12140017 -0.016303472
000040 75 cd 07 bd 1d d7 c5 bc 89 aa 11 bd ee 0f a7 3d
       -0.033154923 -0.024150426 -0.035563026 0.08157335
000050 52 f7 31 3d 6f 1b a0 3d 39 4e 06 be 5f 87 16 be
       0.043448754 0.078177325 -0.13115777 -0.14700077
000060 22 58 53 bd 4e 9e a3 3d 72 19 ad bb ea cc cf bd
       -0.051597722 0.079891786 -0.0052825743 -0.10146506
000070 0c 3b 1b be f0 a3 ae bc ed 7c 99 3d d7 75 40 bb
       -0.15159243 -0.021318406 0.07494531 -0.0029367113
000080 d6 6e bd 3d 79 7a 01 be cf ab e8 bd 5b 2d 31 3e
       0.09249656 -0.12644376 -0.11360895 0.17302458
000090 2d d0 3b be e3 a1 61 3d 52 9f 91 bc 84 53 c3 3d
       -0.18341132 0.055086028 -0.017776165 0.09537414
0000a0 83 be 1c 3f d7 fa e0 3d 1e 0b 39 3d ca ca dd 3d
       0.612282 0.10985344 0.045176618 0.108296946
0000b0 d3 83 97 bd 01 9b e1 bd 93 44 13 3e 7a 83 32 3b
       -0.0739819 -0.11015893 0.14381628 0.002723901
0000c0 0c e3 cb 3d af a5 0d 3d bd 64 ae 3d 22 a4 8a bd
       0.09955415 0.034581836 0.08515308 -0.06769587
0000d0 2c 1b cc 3d c3 87 dd 3d 08 ea a2 bc 27 35 87 3d
       0.0996612 0.1081691 -0.019886985 0.06601935
0000e0 84 6c c8 bd 81 a9 4c bc 26 33 ab bb 5d 09 d1 bc
       -0.09786323 -0.012491585 -0.005224603 -0.02551716
0000f0 6b 04 d2 bd 68 f5 07 3e c1 79 c6 3c ba 48 66 3d
       -0.10254749 0.13277209 0.024227979 0.0562217
000100 02 25 5e 3e 30 14 a6 3c a4 4c 33 3e 32 c5 9f bc
       0.21693805 0.020273298 0.17509705 -0.01950321
000110 f2 62 eb bd 61 04 47 3d 91 71 15 bd b1 bb 1e 3e
       -0.11493482 0.04858816 -0.03648526 0.15501286
000120 3b eb f3 3d 2d 7b bf 3d 88 0f f7 3d 9d a1 8b bd
       0.11910101 0.09349666 0.12063509 -0.06817935
000130 af 72 d5 bc 44 bc 7c bd 55 f6 a5 3c ab ef c2 3d
       -0.026055662 -0.06170298 0.020259062 0.09518369
000140 75 db 0b 3d c2 c3 e1 3c 80 22 1e 3d 36 cf 9f 3c
       0.034144837 0.027559165 0.03860712 0.019507986
000150 f5 ab d7 3d ad 79 55 bc 59 6b 5b bd 50 4a 22 be
       0.10530845 -0.013029498 -0.05356917 -0.1584866
000160 fc ff 14 3e 86 e8 43 3e 1d ae f5 bb 37 77 ee bd
       0.14550775 0.1913167 -0.0074975626 -0.11643832
000170 16 1c d1 3d a2 c3 df bc 90 31 23 3c b2 28 92 3e
       0.10210435 -0.027314965 0.009960547 0.28546673
000180 d9 75 31 3e d5 75 ce bd 12 a7 d0 3d 01 05 39 bd
       0.17330112 -0.100810684 0.10188116 -0.045170788
000190 47 16 f9 3d 70 20 19 bc b7 72 ba bd 03 e1 13 3d
       0.12162452 -0.009346113 -0.09103911 0.03610326
0001a0 84 0c 89 3c 52 5f 1d 3e bd 25 9c bd d8 18 0a 3e
       0.0167296 0.15368393 -0.076243855 0.1348604
0001b0 bf fe 06 be e1 45 a7 3d 67 1a 0f 3e 88 12 ce bd
       -0.13183115 0.08167625 0.13974915 -0.10062128
0001c0 ee 06 04 be 77 3b 91 3d f8 9f 11 3e b0 dd 89 3d
       -0.12893268 0.0709142 0.1422118 0.06731737
0001d0 e2 77 ac be 6d 3e 05 3e bd 3d fb 3d 44 5d 17 bd
       -0.33685213 0.13012095 0.12267635 -0.03695418
0001e0 bb 9a 26 3e d4 1a 85 bd 2f fd a0 bd a3 cc a7 b9
       0.16269962 -0.06499258 -0.07860791 -0.00032005188
0001f0 39 2f a1 bb e3 3b ca bc 24 79 17 bd 59 a0 c1 3c
       -0.0049189595 -0.02468676 -0.036980763 0.02363603
000200 b2 c3 64 3d c5 83 12 3c c6 11 99 3d cb 23 7e 3d
       0.055850692 0.008942549 0.07474093 0.062045854
000210 f3 5f 0d be 6b 4b a6 3d fd b2 54 bd c7 9f 71 bd
       -0.13806133 0.081198536 -0.05192851 -0.058990266
000220 05 98 81 bd 6f f7 18 3b 01 fd 1f 3c e5 7f b4 bc
       -0.063278235 0.0023340841 0.009764911 -0.022033641
000230 2b 1a c3 3d 21 8a 42 bd 19 9e b2 3d c4 17 c6 bd
       0.095264755 -0.04749501 0.08721561 -0.09672502
000240 01 23 e8 3d 9e 6c e0 3c 2d 35 a4 be 98 87 a7 3d
       0.113348015 0.027395543 -0.3207182 0.08180159
000250 3e de 52 bd 69 06 c4 bc 25 7a 20 bd 18 93 93 bd
       -0.051481478 -0.023928838 -0.039178986 -0.0720579
000260 68 46 43 bd f0 c3 2d be 38 29 c9 3a b1 81 1b 3d
       -0.047674567 -0.16969275 0.0015347367 0.03796548
000270 1f a6 e0 3a b4 62 f7 bd eb 16 0d 3e c3 30 43 3d
       0.0017139352 -0.12079373 0.13778274 0.047653925
000280 bd 0f 85 bb 3c 08 3a 3c a2 84 32 3d 7a 89 c7 bd
       -0.004060714 0.011354502 0.04358352 -0.097430184
000290 9e a2 3e bb fd 6a f2 bd 55 e3 e6 bd 7e 1a bf bd
       -0.0029088627 -0.11836813 -0.11273829 -0.09331225
0002a0 11 36 5c be 6e c2 97 bd cf 2d a2 bd dd 1a 3f 3c
       -0.21505 -0.074101314 -0.079188935 0.01166412
0002b0 63 2a 04 3e 42 17 cc 3d a1 7c 90 bc 4e 73 92 be
       0.12906794 0.099653736 -0.017637553 -0.28603595
0002c0 ab 36 41 bd 6d 19 dc bd 36 da 88 3d 8c e9 f7 bd
       -0.047171276 -0.10747037 0.066822454 -0.121050924
0002d0 16 08 c6 bc 24 f1 d0 bd 98 1e 5e 3d 88 04 2f bd
       -0.024173778 -0.10202244 0.054228395 -0.04272893
0002e0 94 14 95 3d 6f ac ea be 44 17 6d 3d 1c d0 7d 3d
       0.072793156 -0.4583468 0.057883516 0.061966047
0002f0 76 3a 12 3d d1 79 17 bc 52 1d c3 be 97 63 c2 3c
       0.035700284 -0.009245352 -0.38108307 0.023729129
000300 21 41 26 be da d9 be bd 83 bd 83 bd cd ef 0b be
       -0.16235782 -0.09318896 -0.06432631 -0.13665695
000310 9c 78 70 3d 9a 6f e0 3d 8b 51 95 3d e4 7c d9 bd
       0.058708772 0.10958786 0.07290944 -0.10619524
000320 82 ad 83 bc 2e df 1a 3e c9 4f 0c bc 06 c6 27 bd
       -0.016073946 0.15124199 -0.008563944 -0.040960334
000330 6e 2e 9a bc d4 f4 8b 3c 5e be f8 3c f5 7c 58 3b
       -0.018820968 0.017084517 0.030364212 0.0033033465
000340 52 27 c9 3d 37 c5 a9 3c c8 22 49 3a ae 88 f3 be
       0.09821953 0.020723922 0.00076727243 -0.47565216
000350 30 01 05 bd 23 94 90 3d 9a b1 31 3d 6f 77 b7 3c
       -0.032471836 0.07059505 0.043382265 0.022395818
000360 e3 b6 be bd 0e fc a7 bd 19 d8 a0 3b 53 17 22 3d
       -0.093122266 -0.082023725 0.0049085733 0.039573025
000370 69 0c e4 bd e3 ef ca be ea 37 14 be 3c 56 d7 bc
       -0.111351795 -0.39636144 -0.14474455 -0.026286237
000380 cf fa 67 bd 0c 07 fa bb 5e b5 81 bc 29 ba 94 bc
       -0.056635674 -0.0076302346 -0.015833553 -0.018155174
000390 af af 0a 3e d7 23 0b 3e b1 5b 8f 3b 48 55 6e 3d
       0.1354358 0.1358789 0.004374944 0.0581868
0003a0 b6 27 10 3e 9e 62 00 3e 67 28 b3 3d e3 86 00 be
       0.14077649 0.1253762 0.087479405 -0.12551455
0003b0 1b d5 13 3d c9 93 e9 be dd e3 84 3d 8a 83 eb bc
       0.036091905 -0.45620564 0.06488774 -0.028749246
0003c0 2d b8 3e 3d 24 20 3f be a7 38 0f be b9 76 e1 bd
       0.046562362 -0.18664604 -0.13986455 -0.11008973
0003d0 03 ff 15 be 35 05 25 3d 94 e6 82 bd b3 c2 c2 bd
       -0.1464806 0.04028817 -0.063916355 -0.09509792
0003e0 2d be 44 3d 97 f6 d5 3d e3 be 2a 3d 8a ff 17 3c
       0.04803293 0.10447424 0.04168595 0.009277234
0003f0 aa f2 ac bd b3 16 96 3d 98 9b 02 3d 16 25 f9 3b
       -0.08444722 0.07328548 0.031886667 0.007603298

network.2.0.bias f4 [64]
000000 d1 5d ee bc fb a7 ff bb ce d3 3f 3b 9c 83 9d 3d
       -0.02909747 -0.0078020073 0.0029270533 0.07691118
000010 63 ef 29 3d b0 2e b1 3d ef 89 d0 3d 89 52 2f bc
       0.041488063 0.08651483 0.10182559 -0.01070083
000020 32 5f 70 bd fe db be 3b f5 86 f7 3b 70 5b db 3d
       -0.058684535 0.005824565 0.00755393 0.107108
000030 c6 cf 20 3d 51 67 94 3b 46 bd 2e 3d d3 97 80 3d
       0.03926065 0.004528918 0.042660974 0.06278958
000040 96 a8 f0 3d 45 01 e1 3b 9c 2d 5c bc 66 86 b8 3d
       0.11750905 0.0068666064 -0.0134386085 0.090100095
000050 30 6a 37 3d 1b 61 00 3b ca 02 12 bc bd 43 02 3b
       0.044779003 0.001958913 -0.008911798 0.00198768
000060 c8 9d 26 3d 82 e1 ae bc 43 87 92 b9 cd c5 a6 3c
       0.040677816 -0.021347765 -0.00027948068 0.02035799
000070 a2 0b 18 3b 96 dc fa bc 7a 9b e2 3c 26 6d 5b bc
       0.0023200293 -0.030622762 0.027662028 -0.013392722
000080 5d 9e 9b 3d 1d 51 db bb c9 e4 d9 3d 0f 0d 5e ba
       0.07598565 -0.006693019 0.106393404 -0.0008470574
000090 cf c0 13 3c 69 da 94 bc 56 c0 86 3c a6 6d d2 bd
       0.009018137 -0.018170552 0.016449135 -0.1027482
0000a0 75 a2 43 3c ec 16 31 3d d1 51 43 bc 21 f2 9d 3d
       0.011940588 0.04323475 -0.011921362 0.07712198
0000b0 37 2f c7 3d e9 70 e9 3d 62 b3 dc 3b 5d 4c 18 3d
       0.097258024 0.11398489 0.0067352513 0.0371822
0000c0 f0 f1 cd 3c ff ba 08 3d fa aa 01 3c bb 66 d6 bc
       0.025139779 0.03338146 0.007914299 -0.026172033
0000d0 db d6 7e 3b bc b9 8f 3d 7e 0b 12 3d e2 9b af 3d
       0.0038885388 0.07017848 0.03565549 0.08574654
0000e0 ac 23 ee 3c 44 82 ee 3d fc bd c9 3c f4 e6 d2 3d
       0.029069744 0.1164594 0.024626724 0.10297957
0000f0 dc af 18 3e b4 e7 60 bd cf a8 ed 3d ea 3b cb 3d
       0.14910835 -0.05490847 0.11604463 0.09923537

network.3.weight f4 [1, 64]
000000 f8 c5 1b 3e 38 c7 59 be 7f 68 84 3e 43 60 15 be
       0.15212238 -0.21267402 0.25860974 -0.14587502
000010 d5 18 e4 bd b5 e5 8a 3e 7e 67 15 3e cb 3a 2c be
       -0.11137549 0.27128378 0.1459026 -0.16819303
000020 24 a6 23 3e a3 10 44 3e ea e8 00 3e af 11 fb bd
       0.15981346 0.19146971 0.1258885 -0.12259232
000030 95 f0 79 3e c1 5c d1 bd 49 5c fc 3d 5b 7b 22 be
       0.24408181 -0.102227695 0.123222895 -0.15867369
000040 1d 28 00 3e dc ab 40 3e 27 27 46 be 3a b7 ff bd
       0.12515302 0.18815559 -0.19350873 -0.124861196
000050 a9 0f 20 3e 19 1e 2d 3e 26 30 53 3e f7 67 17 3e
       0.15630974 0.16906013 0.20623836 0.14785753
000060 2b 90 44 be 95 6b 52 3e 22 5c e2 bd 0f ea c9 bd
       -0.1919562 0.20548852 -0.11052729 -0.09859096
000070 aa b9 62 3e b0 6f 0a be ca cd ca bd aa 26 15 3e
       0.22141138 -0.13519168 -0.099025324 0.1456553
000080 e8 b0 16 be 63 13 17 be a4 5d 2c 3e b2 6d 18 be
       -0.14715922 -0.14753489 0.16832596 -0.14885595
000090 94 54 21 be 47 fa 55 3e 72 df 17 3e dd 50 14 be
       -0.1575492 0.20896254 0.14831331 -0.14483972
0000a0 ef 70 0d be 28 4f 13 be 12 9b 48 3e cc f3 cd bd
       -0.13812612 -0.14385664 0.19590405 -0.10056266
0000b0 e9 2f ec bd ed 03 0e 3e ab db 74 3e 78 a9 d7 bd
       -0.11532576 0.13868685 0.23911922 -0.105303705
0000c0 26 1d 52 be 4c 50 1a be 1f 8b 8d 3e 34 00 54 3e
       -0.20518932 -0.15069693 0.27645203 0.20703202
0000d0 34 19 45 3e 3d 22 f9 bd 66 82 df bd 90 d5 34 3e
       0.19247895 -0.121647336 -0.109135434 0.17659593
0000e0 4c 34 8a be 0e 32 09 3e 3f eb e7 bd 09 e3 31 3e
       -0.26993024 0.13398 -0.113241665 0.17371763
0000f0 b9 f8 63 be aa d6 20 3e 6d a8 3e be 76 c1 f5 3e
       -0.22262849 0.15706888 -0.18618937 0.4799916
