data/user_properties/trained_weights/DenseNet-agl_log10_thermal_expansion_300K.pth (torch_old, 289666 bytes, 7 tensors)

network.0.0.weight f4 [256, 119]
00000000: 0e88 19bc 6c58 503d b9e5 c33d e050 a43d
00000010: c7b1 033b fdf9 d0bd 10d5 cbbd 3bdb cabd
00000020: cd0f 85bc 40d6 79bd 7fb9 f7bc ea4c 3f3e
00000030: 78e3 483d fc99 5b3d d8a7 913d 651a 6e3d
00000040: 4c90 5c3b fdbc 44bc 7f4d c83d 3c33 913e
00000050: 69b1 69bc a95a 57bd 1358 553d 2592 b3bc
00000060: 81df 9f3d 4c82 fd3c d22e 443c 49c4 ee3c
00000070: 27ad 863d b18c b3bc dff5 573d aafc 593d
00000080: fe0d febc 0c0e a83d 5248 ff3c 21a5 b53c
00000090: 02d1 b53d a6d2 1a3e 53a9 1b3d 5dce bfbd
000000a0: f8b4 a1bc 704b 863d 5398 8abc c7e8 cabd
000000b0: 0c79 cbbd 1d46 583c 9777 c1bc aa9c 9a3d
000000c0: 6115 833d 7393 50bd 92f6 81bc 52c8 79bd
000000d0: 0f62 cdbd 97f7 1c3e 9727 2d3e 77d8 88bc
000000e0: 4b96 003e 61c5 643d a012 dd3d f7fc 71bc
000000f0: e3b4 143e 382d 52bd 7149 d7bb ed64 8dbc
00000100: 036a 6b3d 752d b63c 8223 663d b7ca 8e3d
00000110: 47f3 c8bd b4c7 05bd 85bd bcbc 1d45 1e3d
00000120: 5f3a 70bd 8c3b 3e3d 0207 cfbd 3321 cbbd
00000130: 902c cebd 2b85 57bc 7e07 55bc dfbc 86bc
00000140: abc9 12bd 008b 3c3e 5b6c 743d 2314 ccbd
00000150: 2468 efbb 9ab1 603d 6a3d 903c b1e6 25bd
00000160: bccb 983d e56a a03c 0cfb 22bd a4ad 98ba
00000170: 00a8 df3d d1a6 563d aaa5 94bc 76e7 463d
00000180: d072 143d 1d68 bb3d f9c3 62bd 97bb 8e3d
00000190: 617a 203d 8fee 393d 7fd8 f03c f777 bc3d
000001a0: 9df4 c73d b14b 27bd 2383 3f3d a915 e23d
000001b0: e885 993c c2f6 583d 1e00 2ebd 8b6e 6bbc
000001c0: 6bbe 943d 0680 8aba ebfb 4bbd 33a7 513d
000001d0: 8641 de3d c186 20bd 2a56 473e c6e3 bcbc
000001e0: 397d 0d3d c9dc 0b3c b9dc dc3c 7688 b6bd
000001f0: c6ac e73d 61e7 953d 33a1 503e 60a2 87bd
00000200: aead 8cbd 7f21 153d a2f6 e4bd ceca 103c
00000210: c94d 373d d49c 2d3d 0011 493c 7c36 28bd
00000220: 0e5b 33bc 7dd7 d2bc f32c e5bd 8151 48bd
00000230: 9475 4cbd 7332 013e 94ca 88bd 20e2 c4bd
00000240: 53c7 bbbc 568e 82bd 4c83 953c c485 8abd
00000250: 4e20 983c 9eb9 5b3c 20d1 45bc d539 8fbd
00000260: 8095 803d b794 9c3d 6448 87bd 487b 813c
00000270: 49e1 e6bd b11d d6bd 42db 81bd 0ce2 72bd
00000280: 8997 d63c 8e7a 173d d1e0 2b3e 94c4 343d
00000290: a383 183d 4d00 693d 2f47 83bd 7569 b6bd
000002a0: 35b1 82bd 31a2 7cbc 6d52 a6bd ca46 b83c
000002b0: a93f b5bd 1e04 90bd 1dea cebd 40e4 a2bd
000002c0: 954a f4bc 6f4c e23d d9f6 4b3d ee4a ac3c
000002d0: 992a e13c f7ee b6bd 5b81 003d de9d 6c3b
000002e0: a68a bfbd beb3 81bd 808f e93d a9e9 86bd
000002f0: be72 cbbd d77c 31bd 6b38 bb3d d54c 013e
00000300: 4316 133e 59de 503d ae27 6b3e 135f 213e
00000310: 21ba ff3d ec21 5dbd 7f33 83bd 93dc 723d
00000320: 4d8b d8bd f3f6 793d 2247 81bd 7e64 b8bc
00000330: a348 acbc 5100 fabc 06fd c9bc 42a2 2d3d
00000340: 0ffc 86bd 7f5a fe3d 6257 003e 8b1d c7bc
00000350: 2a01 273d 9841 1d3c da92 b1bc af9c 013d
00000360: d67e 91bd 2888 29bd 42b8 a6bd 66a9 43bd
00000370: 7231 773d b135 873c b1a2 cdbc 4178 293d
00000380: fd10 273c 3ade b6ba 607a d63c 93c6 593d
00000390: d3d7 3cbd d511 203d 6066 4437 90f1 c4bd
000003a0: 47f4 2b3c e991 9cba 9a9b 65bc 9331 aabd
000003b0: 90ae cebc 152b c53d a50c 763d 6294 d9bd
000003c0: b8c5 c23d 0176 53be 8f43 debc 3308 983b
000003d0: 8dd9 f53b 4614 dabd 53e0 96bd e177 cdbd
000003e0: 3fc9 6a3d 63d5 54be 6b5f 9cbd e067 9ebd
000003f0: d91c 9abd cf23 54be b664 90bd 43d9 debd
-0.009370817 0.050865576 0.095653005 0.08023238 0.0020094977 -0.102039315 -0.09952748 -0.09905096
-0.016242886 -0.06099534 -0.030239819 0.18681684 0.049045056 0.053613648 0.07112092 0.05813064
0.0033655344 -0.012007949 0.09780406 0.283594 -0.014263489 -0.052576695 0.052085947 -0.021920273
0.07806302 0.03094592 0.011974053 0.02914633 0.06575995 -0.021917673 0.052724715 0.053219475
-0.031012531 0.08205804 0.031162415 0.022173466 0.08877756 0.15119419 0.038003277 -0.093655325
-0.019739613 0.06557357 -0.016918337 -0.0990768 -0.09935197 0.01320031 -0.023616595 0.075494125
0.06400562 -0.05092187 -0.015864644 -0.060982056 -0.10028469 0.15328823 0.16909634 -0.016704781
0.12557332 0.055852298 0.10794568 -0.014769784 0.14522128 -0.051312655 -0.006570034 -0.01726004
0.057474148 0.022238472 0.056186207 0.069722585 -0.098120265 -0.032661155 -0.023039589 0.03864013
-0.058649417 0.046443507 -0.101087585 -0.099184416 -0.10067093 -0.013154308 -0.013002275 -0.016447483
-0.035836857 0.184124 0.05967365 -0.09964778 -0.0073061157 0.054856874 0.01760741 -0.040503208
0.07460734 0.019582221 -0.0397902 -0.0011648429 0.10920715 0.052405182 -0.018145401 0.048560582
0.036242306 0.091507174 -0.055362675 0.06969374 0.03917921 0.045393523 0.029400108 0.09202569
0.09763453 -0.04084367 0.04675592 0.110392876 0.01874061 0.0529697 -0.04248058 -0.014369617
0.07262882 -0.0010566718 -0.049800795 0.051184844 0.10852341 -0.03919101 0.19466463 -0.02305783
0.03454325 0.008536526 0.026960718 -0.089127466 0.11312251 0.07319523 0.20373993 -0.066227674
-0.06869064 0.036408897 -0.11179854 0.008837415 0.044751916 0.04238589 0.0122721195 -0.041067585
-0.010947002 -0.025737518 -0.11190214 -0.048905853 -0.04991682 0.12616901 -0.06679264 -0.096134424
-0.022922194 -0.06374805 0.018251084 -0.06763795 0.018570092 0.013410954 -0.012073785 -0.069934525
0.06278515 0.076455526 -0.06605604 0.015805855 -0.112734385 -0.10454882 -0.06340648 -0.059297606
0.026195304 0.03698211 0.1678498 0.044132784 0.037234914 0.056885052 -0.064100616 -0.08906833
-0.06381456 -0.015419529 -0.0812119 0.022494692 -0.08850033 -0.07032035 -0.10103247 -0.079536915
-0.02982072 0.11049735 0.04979596 0.021031823 0.027486132 -0.08932298 0.031373363 0.0036104838
-0.09352617 -0.06333111 0.114043236 -0.06587536 -0.09933995 -0.043331947 0.0914162 0.12626965
0.14363961 0.050993297 0.22964355 0.15758924 0.12486673 -0.05398743 -0.064063065 0.059292387
-0.105734445 0.061026525 -0.06312396 -0.022508856 -0.02103073 -0.030517729 -0.024656784 0.04239107
-0.06591045 0.124196045 0.12533334 -0.02430608 0.040772595 0.009598158 -0.02167647 0.031643566
-0.0710427 -0.041389614 -0.08140613 -0.047768973 0.06034989 0.016505094 -0.025101991 0.04137445
0.010196921 -0.0013951727 0.0261814 0.05316789 -0.046104264 0.039079506 1.1706346e-05 -0.09616387
0.010495252 -0.001194534 -0.014014149 -0.08310237 -0.025229722 0.09627358 0.060070653 -0.10624005
0.09510368 -0.20650484 -0.027131824 0.0046396493 0.0075027407 -0.10648398 -0.07367005 -0.10032631
0.05732083 -0.20784526 -0.07635387 -0.07734656 -0.075250335 -0.20716785 -0.07050459 -0.10881283

network.0.0.bias f4 [256]
00000000: 68cf 9bbd 1d55 553c bdb2 093b 9afa e03b
00000010: c456 cbbb e22d 203d b8f3 84bb 1baf 003c
00000020: 2c2c e6bc 3e1b 493c 52fc c03c 19cc 213d
00000030: 4345 15bd 36d9 483c 8a56 2a3d 3dab d338
00000040: 0605 0bbd 44bb 063d 7742 7dbd 9196 3d3d
00000050: 3eab 4ebd 20e3 e2bc 68ab 1bbe 7bf7 95bb
00000060: 7e6c 00ba b65a 37bc 2725 1f3b bf3a a2b9
00000070: ec03 293c 4594 7a3c bf5a 97bd 3b72 453d
00000080: 3f48 793d d96c 403d d22e b63c 8023 083b
00000090: 8b16 c5ba 7937 733d 6bb8 953c aef8 2b3c
000000a0: 7eb8 493d ea9e 103a 1260 aabd 9d29 233d
000000b0: c487 843d 3f9e 7c3d 97bc 64bc 3b40 993d
000000c0: 926e 1dbe f479 da3c 39d4 da3c 8c1f d13c
000000d0: 66c2 69bd c674 633d 8449 d93b 7e2e 66b9
000000e0: a395 003c ba95 a33d 84a5 4f38 7ac9 d13c
000000f0: a5d0 80ba febc 26ba b963 b13a 5562 223d
00000100: 261a 913c d545 1d3d 07c8 82ba 3f36 a23c
00000110: fcfe b03d d6f8 1b3d ad70 f53c 9857 ab3d
00000120: cb7f 9a3d 6787 483d 24a3 043c c4d8 333c
00000130: 79fe 043c 811c fdbd 0d69 a13c f2c6 82bd
00000140: 86fb 93bb c2eb a3ba ccb0 5a3d d2b4 4cbc
00000150: cbfe 473d 2cfd 47b9 7a38 8d3d 4061 923c
00000160: c8a8 833d efbf 9d3b aff1 263d 419d 103d
00000170: d719 9bbc 031b b33b f1db 5f3c 65f6 0f3d
00000180: a056 96bc ccbc 15bb 94d4 7ebb 9d78 5dbc
00000190: b623 1b3d 9664 77bd 1080 013d 4b69 423d
000001a0: e1d6 b63c 78b1 ddbd d0b0 853d 9829 993d
000001b0: 5eeb 223d 9d9e 633c 545d 00be 2b5f 3b3b
000001c0: a198 ea3b 54e3 dbba 9a34 8f3c 8840 363c
000001d0: acf8 0abd 4ad0 803a 6f3d 0bbd e0a1 213c
000001e0: 1c36 833b 0323 7a3d dc1a 9d3c 755c f3bc
000001f0: 7572 e03c 06bb a63d d307 a1bb c1cf 4e3d
00000200: 1345 9c3c 5f7e a13b 8362 e83c f644 a2ba
00000210: a6a6 0bbc bb87 01b9 d692 6d3d b153 743c
00000220: 41f5 1a3d 032c af3c 844d c23c 3451 833d
00000230: 72ce 4e3d 85ec 4a3d efce ef3c c894 7ebb
00000240: 3a5a 79bb 6dae 4b3c e233 1b38 c740 81ba
00000250: fb4f c9bd 17c2 833c 9166 1dbd bef2 4bbb
00000260: da60 a33c 8816 a7bd 14ed 52bd 67e9 2b3c
00000270: 2f37 0e3d eaeb b83c fd9d 913d b620 a93d
00000280: 1954 a63c f9ce 073c 27c6 c73b dd0a d43b
00000290: bead 033b 24f4 7abe e96d d53c 9999 b53d
000002a0: 2ae7 9c3d 06cc b43b 9be7 e1bd d6fd 8cba
000002b0: 8fbe 253d 79a5 ddbd c69e cebb 41da e93c
000002c0: 2aa3 8b3d 30b9 e83b 7d48 b23d 8ceb bcba
000002d0: 4993 8e3d 31d7 803d 8dcb ca3b 4a6b 6c3d
000002e0: 9edd 84bc f0d6 0a3d a48e c03c abbf ce3a
000002f0: 7f4d c83c a3bd c6ba ed65 793b 89a4 a3bd
00000300: 13a9 7b3d d204 1fbc b11c 69ba 471e 213d
00000310: 5eb8 543d 3da2 90b9 f085 9a3c c86e abbb
00000320: 3ba8 11bd f995 0b3d 72b9 2ebe b6ef 83bd
00000330: 4ec3 4a3c 2716 513d 6871 e03b 1985 83bb
00000340: c3b6 3f3b 3e03 b9bb e402 1e3d ffb7 96bd
00000350: 80fb 6cbc a519 333d 2a0a 3d3d d698 d03c
00000360: c241 d53b 48c3 8c3d 547b 033d 80b0 b53b
00000370: 2f38 923d ff0f 833c 27f9 a3ba 06b1 3f3d
00000380: a69e 09be 0117 893d bc89 b23d 03ff 5d3a
00000390: 4bce e8bd 86b5 f33c dfd7 423d be42 203c
000003a0: fc2d 7e3c 2436 8b3d 97da 3a38 4033 923d
000003b0: e235 0b3d 032b b8ba 2e57 0abe c81f ebbc
000003c0: 8463 11bc b6f7 123c 80e8 253d b8e4 5f3d
000003d0: bbfe 723d ed14 383c e6c7 fdbb 8135 0e3c
000003e0: a031 21bc 90a3 363d 0ad8 61bc ef68 08bd
000003f0: c0ef b83c 8c18 c83b e829 cc3c 1b65 1f3d
-0.07607919 0.013020781 0.0021011077 0.0068658115 -0.0062054116 0.039106257 -0.004057374 0.007854248
-0.028097235 0.012274561 0.023557816 0.039501283 -0.036443006 0.012258818 0.041586436 0.0001009316
-0.033940338 0.032893434 -0.061830964 0.04628617 -0.050456278 -0.027696192 -0.15202105 -0.004576621
-0.0004898979 -0.011191061 0.002428362 -0.00030942817 0.010315876 0.015294139 -0.07390355 0.04820464
0.060859915 0.046978805 0.022239123 0.0020773113 -0.0015036626 0.059379075 0.018276414 0.010496302
0.04924821 0.0005516844 -0.08319105 0.039834607 0.06471208 0.061674353 -0.013960979 0.07482954
-0.1537421 0.02666948 0.026712524 0.025527738 -0.05707016 0.055531286 0.006631078 -0.00021951829
0.007848176 0.079875425 4.9506794e-05 0.025608767 -0.0009827806 -0.00063605595 0.0013533748 0.039644558
0.017712664 0.038396675 -0.0009977826 0.019801257 0.086423844 0.038079105 0.029960955 0.083663166
0.07543906 0.048957255 0.008095536 0.010976974 0.008117312 -0.12358952 0.019703412 -0.06385602
-0.004516068 -0.0012506174 0.053391263 -0.012494283 0.048826974 -0.00019072433 0.06895538 0.017868638
0.06428677 0.00481414 0.04075783 0.03530622 -0.01893322 0.0054658665 0.013663278 0.03514709
-0.018351853 -0.0022848127 -0.003888403 -0.013517526 0.037875853 -0.06039866 0.03161627 0.047463696
0.02231926 -0.10824865 0.06527865 0.074786365 0.039775245 0.013892797 -0.12535602 0.002859066
0.007159308 -0.0016776123 0.017481137 0.011123784 -0.03392856 0.00098277 -0.033994135 0.009865254
0.004004253 0.061068546 0.019177847 -0.029707173 0.027398327 0.08141141 -0.004914263 0.0504911
0.019075906 0.0049283947 0.028367287 -0.0012380171 -0.008523619 -0.00012352962 0.05800136 0.014912532
0.03783155 0.021383291 0.023718603 0.06411973 0.05048985 0.04954197 0.029273478 -0.0038846005
-0.0038048164 0.012431723 3.70032e-05 -0.0009861224 -0.09829708 0.01608376 -0.038427893 -0.0031120027
0.019943643 -0.08158594 -0.051495627 0.010492659 0.034720596 0.02257343 0.07110212 0.08258192
0.020303773 0.008289092 0.0060966196 0.0064710216 0.0020092572 -0.24507195 0.026053386 0.08867187
0.076612785 0.0055174856 -0.11030503 -0.0010756801 0.040464934 -0.10822577 -0.0063055484 0.028546454
0.068182305 0.007102154 0.08705232 -0.001441346 0.06961686 0.062910445 0.006188816 0.057719506
-0.016218957 0.033896387 0.023505516 0.0015773674 0.024451016 -0.0015162717 0.0038055137 -0.07990367
0.06144054 -0.009705739 -0.000889252 0.039335515 0.05193364 -0.00027586697 0.018862695 -0.005231712
-0.035560828 0.034078572 -0.1706293 -0.064422056 0.012375666 0.051046517 0.0068494566 -0.004013669
0.0029253222 -0.0056461385 0.038576975 -0.07359313 -0.014464259 0.04372563 0.04615227 0.025463503
0.006508083 0.068731844 0.032100037 0.005544722 0.071396224 0.015998838 -0.0012510166 0.046799682
-0.13439426 0.06693841 0.08717677 0.00084684807 -0.11367472 0.029749643 0.047569152 0.009781538
0.015513893 0.06797436 4.4549433e-05 0.071386814 0.033986934 -0.0014050904 -0.13509819 -0.028701678
-0.008873824 0.008970192 0.040504932 0.054661483 0.05932496 0.011235458 -0.007744777 0.0086797485
-0.009838492 0.04458958 -0.013784418 -0.033303197 0.02257526 0.006106442 0.024922326 0.03891478

network.1.0.weight f4 [128, 256]
00000000: 0b5a 033d 3f5d 8ebd d84a 8d3b e86a 8c3d
00000010: 400d e4bd f8de ab3d d899 f23d 3453 873d
00000020: df05 86bd 1424 80bd 308c 8bbd 9821 b2bd
00000030: eb72 883e d3a9 a6bc 2350 863d fcaa 7d3e
00000040: 6be6 063d 3fa3 e4bd c037 0fbd 7009 143d
00000050: bbc7 a9bc 5c3a ef3d 0ab8 4abe 94c3 d63d
00000060: d119 1a3e 56ac 5f3e 362b 373d ba36 9b3d
00000070: a97e b7bd 51aa aebc 7b99 993d aa82 543c
00000080: bb41 47bc 159c 963c 8325 40bd 6259 12ba
00000090: 4416 623c 39ab 30bd cee0 d5bb c03e a63d
000000a0: 8566 af3d 814c 4b3d b01d efbd 1501 69bd
000000b0: 22a7 ec3d ea4a 6d3d 9585 fdbc 47b3 48bc
000000c0: 02f9 6dbe f2ba a13d 451d a93c a9f6 c9bd
000000d0: 193b 1fbe 8623 e83d 8434 553d 9ee4 af3e
000000e0: 338b 1fbd 2418 7dbd a54d 083e 9b2c 8cbd
000000f0: 4dae 773d 3fdf 313e c1dc 2dbd 1358 ea3c
00000100: 4f45 b2bd 6d03 c4bc e841 813e e456 15bd
00000110: 8b50 913d 2419 d33d 3d14 bdbd ea62 b4bd
00000120: dac9 d73b a3d9 24bd 6063 813c 3647 123c
00000130: 2f0f db3d b3d8 79be 09d8 ca3d ba12 0dbc
00000140: 571e 903c 1506 843d 1696 bd3d e517 113e
00000150: d94c 43bd 1ec0 3a3d 09bc 9fbd 1685 bcbd
00000160: 70c3 e1bc bc0d 02bc 0d17 8e3d 8efc c33b
00000170: 90fc 233e 2dbb a5bc dfa6 803d 01b1 c7bd
00000180: ddd6 31bd dfbd 5bbe ef55 c63d 1112 523d
00000190: 36c7 503d 089d 7dbd f232 05bd f4c9 863d
000001a0: b7c3 1c3d 0d27 bb3c fc60 7b3a 0127 193c
000001b0: 36ad 9abd a6b6 a7bc 7e24 b53e 647e 073e
000001c0: 932f 2bbe 566e e4bd 8235 8bbd e44b 553c
000001d0: 68b3 0a3d 329f 303d 8f88 0a3e 63e2 083e
000001e0: 5615 c0bd 66be f33c 021c 8fbd 0b3b bdbd
000001f0: 5dd9 c43c 23a5 90bd 4ea2 dbbd 2de3 6abd
00000200: b0ee f8bd f6d3 0f3c 97ea 1f3d cfea 91bd
00000210: 77c4 5dbd d5aa 883d d6b8 cc3d 87b0 353c
00000220: 7076 a7bc 456c 9fbd dcfe 76bd ba6b 8cbc
00000230: 745d 583d 0653 353c 21ac f3bc bd40 7e3e
00000240: a839 01bd 77c7 dcbd e7da 7b3e 0456 173e
00000250: a36e 17bd 38c6 553c 7aef d43d 8b9c a8bc
00000260: 0e48 bfbc 7aac 43be 2de8 33bd 034b 20be
00000270: 3da5 dbbc 85d6 61bd a63f a5bd c5f1 79bd
00000280: f881 333d 790a df3d 25a1 533d 84f9 fb3c
00000290: 7ca9 78bd bd6a a3be 0f7b 143e 595f 233c
000002a0: 0ec7 59bd cd51 033d 452d 613d ef1f c33b
000002b0: 6f7f 893d 1950 b1bd bba7 1a3e 8b68 2fbd
000002c0: 3be2 8f3d 611d 463d 2071 dbbd 7567 ef3d
000002d0: f4b7 77bd 947a 353d 7d0b 71bc 8417 c7bd
000002e0: 06a2 4e3e 0222 75bd 7dd4 3ebd 3f55 f33c
000002f0: 555a b73b 55af a93d 8b92 a03c 4a3c 16bc
00000300: 2913 5c3c ece8 93bb 9567 09bc ae90 f43d
00000310: d4a0 7ebc 23eb 1d3e 423d 51bd c13f 39bd
00000320: 1c3a d3bb 9846 a83d fd9a a3be bb2d 84bd
00000330: 2a08 c5bd e8bb b23d 5859 17bd 0e32 ecbc
00000340: bba1 87bc 771d 493e de5b 85bc 762f aebd
00000350: 0ecd 233e d7c3 78bc 3821 133d e53c 1b3d
00000360: 3344 6b3c 5bf1 04bd a94e 90bd 58b3 693c
00000370: 0780 7cbd 736e 9c3c d7d0 563e 46cf 50bd
00000380: 1b77 8dbe b74a 89bd 4fdf 693c 3a2e 2e3e
00000390: 0707 e13d 807c 653d 8d2c 70bd f511 7ebd
000003a0: 68a0 003e 4a27 a53d cc9c 063e 3592 46bc
000003b0: 040d 0a3d 3da9 ce3d 8301 dabd dfe7 8e3d
000003c0: db0f 11be 18e3 c2bd 5030 d0bd 799d 15be
000003d0: cfc4 c0bc 293f 01bd 9bb5 083e 4a16 65bd
000003e0: e8a9 a33e d8fe a8bd 0211 f3bd 3480 59bc
000003f0: bdd9 d3bc e5d0 74bd 9936 03bb 5cc2 233c
0.032068294 -0.06951379 0.0043119006 0.06856328 -0.1113534 0.08392137 0.118457496 0.066076666
-0.065440886 -0.06256881 -0.06813848 -0.08697814 0.26650175 -0.02034465 0.065582536 0.24772257
0.032934587 -0.11163949 -0.034965277 0.036141813 -0.020725122 0.11681053 -0.19796768 0.10486522
0.1504891 0.21843085 0.044718944 0.07578798 -0.089597054 -0.021321448 0.07499977 0.012970606
-0.012161667 0.018384973 -0.046910774 -0.0005582777 0.013799254 -0.04313204 -0.006527043 0.08117437
0.08564476 0.049633507 -0.11675584 -0.056885798 0.115553156 0.05793277 -0.030947486 -0.012249774
-0.2323952 0.07896985 0.02064384 -0.098615 -0.15549888 0.113349006 0.052052036 0.3435411
-0.03895111 -0.0617906 0.13310869 -0.06844445 0.06046896 0.17370318 -0.042446855 0.02860645
-0.08704626 -0.023927415 0.25245595 -0.03645982 0.070954405 0.103075296 -0.09232376 -0.08807929
0.006585342 -0.040246617 0.015794456 0.008928111 0.106962554 -0.2439907 0.09904487 -0.008610422
0.017592592 0.064464726 0.09257142 0.14169271 -0.04768071 0.045593373 -0.07799537 -0.09205072
-0.027559012 -0.007937845 0.0693799 0.0059810346 0.16014314 -0.020230854 0.06281828 -0.09750558
-0.0434178 -0.21459149 0.09684359 0.05128676 0.050971232 -0.061917335 -0.03251929 0.06581488
0.038272586 0.02284577 0.0009589342 0.009347678 -0.075525686 -0.020472836 0.35379404 0.13231808
-0.16717367 -0.111538574 -0.06797315 0.013018582 0.0338625 0.04312057 0.13528655 0.1336761
-0.093790695 0.029753875 -0.06987764 -0.09239777 0.024029428 -0.07062747 -0.107243165 -0.057345558
-0.12154901 0.008778563 0.03904208 -0.07124864 -0.05414244 0.066732086 0.09996192 0.011089451
-0.020442218 -0.07784323 -0.060301647 -0.017141212 0.0528235 0.011067158 -0.029745163 0.24829383
-0.031549126 -0.107802324 0.24595223 0.14778906 -0.036970746 0.013047747 0.10397239 -0.020582458
-0.023349788 -0.19108763 -0.043922592 -0.15653615 -0.02681219 -0.055136222 -0.080687806 -0.061021585
0.04382512 0.108906694 0.05166735 0.030758627 -0.060708508 -0.31917372 0.14500068 0.009971463
-0.05316835 0.032060433 0.054974813 0.0059547345 0.06713759 -0.086578555 0.15103047 -0.04282431
0.07025572 0.04836786 -0.10714936 0.11689655 -0.060478166 0.044306353 -0.014712212 -0.09721282
0.20178995 -0.059846886 -0.046589363 0.029703734 0.005595485 0.08285395 0.019601127 -0.0091696475
0.0134323025 -0.0045138504 -0.008386512 0.11941658 -0.015541274 0.15421729 -0.05108381 -0.045226816
-0.006446136 0.0821659 -0.31954184 -0.06454035 -0.09620698 0.087272465 -0.03695044 -0.028832462
-0.016556611 0.19640146 -0.016279157 -0.08505146 0.15996191 -0.015183411 0.03592035 0.03789987
0.014359522 -0.032456737 -0.07046253 0.01426395 -0.061645534 0.019095635 0.20978104 -0.05097892
-0.27629933 -0.06703704 0.014274432 0.17009822 0.109876685 0.056026936 -0.058636237 -0.062028844
0.1256119 0.080641344 0.13145751 -0.012119819 0.03370382 0.100908734 -0.106448196 0.0697782
-0.14166205 -0.09515971 -0.10165465 -0.14610852 -0.023531346 -0.031554375 0.13350527 -0.05592946
0.31965566 -0.082517326 -0.11868478 -0.013275195 -0.025860662 -0.05976953 -0.0020021556 0.009995069

network.1.0.bias f4 [128]
00000000: ae7e 4b3d 547d 583d 1ad4 513d 7909 ef3c
00000010: 0209 a93c b26f e2bb b680 d93b 33b6 8c3d
00000020: 8b5a 2cbd fb2d c23c c6d0 89bc 92c4 f13a
00000030: 3a02 393b f162 f2bc 9f47 b5bc 05d3 dfbb
00000040: 25e9 bfbc 2646 40bc e7a2 65bb 8f5a 183d
00000050: 5f2b 0f3d ab5f 703d 0f02 1c3d 6d40 c03c
00000060: 39bf c73c 8c40 c63c c037 743c 62e0 91bc
00000070: 70f9 563d 3e14 943b a2cf 3d3d 8ea0 97bb
00000080: 6d53 593c 2ee7 203c 6952 ff3c fc20 02bc
00000090: a44f 27bc d162 413d 027a 5a3c de98 993d
000000a0: 06ef 603d e174 e53c 02a1 a2bb e4c4 5c3d
000000b0: 7654 6f3c d519 d93c 2f4f de3c f951 e3bc
000000c0: ad45 883d dffe 313d eef9 163d 8ee6 cabb
000000d0: 38cd 3b3d e6a6 86bc af0b 903d d5f2 e0bc
000000e0: d78b 443b 6280 cdbc 4c9f b6bc bcd1 fc3c
000000f0: 3dcc d03c d4df 453b 1977 183d b59c 26bd
00000100: c580 943c 0063 f13c d191 cebb be7c 92bc
00000110: 6bc7 86bc 42d3 7c3d 80f7 ab3b f1e0 d33c
00000120: 5798 0dbc e15b a73c bf62 223d 3dd6 00bc
00000130: dd8e 8a3d 68de 9dbc d7b9 51bd d5da 9cbc
00000140: f72c 01bd 264e 4ebd 1170 613d 5756 8a3c
00000150: 1ea8 b93d a2aa 80bb 87e6 68bc 2210 883c
00000160: 7b11 c4bc 634e b2bc 80b6 37be 83ba fe3c
00000170: d8e7 cfbc 7b0a 3d3d 1d18 85ba ac86 853d
00000180: 0eaf afbc 4491 1c3d e3d5 403c 5f8a 4d3d
00000190: 8f80 663c becd f1bc 2340 c9bc d781 253d
000001a0: 7364 34bd 505e 423d 8dcb a03c e527 713c
000001b0: f5ee 1e3d 63f8 793d 3cbd 4c3d 7adb 213d
000001c0: c41d 233d e64f 00bd a786 0c3c 46dc e1bc
000001d0: 9308 503d e893 2c3d 4254 113d ea8a 3dbc
000001e0: 72d8 f33c c912 393d 34e9 d13c 43c5 0d3d
000001f0: b428 88bc 159a 55bd 508b e3bc a59b 933c
0.049681358 0.052853897 0.051227666 0.029179322 0.020634178 -0.006910288 0.006637658 0.06870689
-0.042078536 0.023703566 -0.016823184 0.0018445423 0.0028230087 -0.029588195 -0.022128878 -0.0068305754
-0.023426602 -0.011735475 -0.0035039724 0.03719574 0.03495347 0.058684986 0.0380879 0.02346822
0.024383174 0.0242007 0.01490587 -0.01780719 0.052483976 0.0045190146 0.046340592 -0.004627294
0.013264519 0.0098207425 0.031167226 -0.007942434 -0.010211859 0.04721338 0.013334753 0.0749986
0.05491545 0.028009834 -0.0049630413 0.053898707 0.014607539 0.026501575 0.027137367 -0.027749049
0.066539146 0.043455955 0.036859445 -0.006192035 0.04585001 -0.016437005 0.070334785 -0.027459541
0.0029990578 -0.025085632 -0.022292756 0.030861728 0.025488013 0.0030193226 0.037222955 -0.04067679
0.018127808 0.029466152 -0.0063040038 -0.017881747 -0.016452512 0.06172491 0.00524801 0.025864096
-0.008642278 0.020429553 0.039644953 -0.007863578 0.0676553 -0.01927109 -0.05120262 -0.019147316
-0.031537022 -0.050367497 0.055038515 0.016886873 0.09065269 -0.003926591 -0.014215118 0.016609255
-0.023934117 -0.021765893 -0.17940712 0.031094795 -0.025379106 0.046152573 -0.0010154281 0.06519827
-0.021445777 0.038224474 0.011769745 0.05018079 0.014068737 -0.02951705 -0.024566716 0.040407028
-0.04404111 0.047453225 0.01962831 0.014718984 0.038802106 0.061027896 0.049985155 0.03951595
0.03982331 -0.031326197 0.0085770255 -0.027570855 0.050789427 0.042133242 0.035480745 -0.011568764
0.029766295 0.04518393 0.025623895 0.03461195 -0.016620971 -0.052148897 -0.02777639 0.018018553

network.2.0.weight f4 [64, 128]
00000000: c46a 18bc 06ae 8d3d 2840 183c 0521 0bbd
00000010: d011 923c 173c 8dbd 50a7 1cbd 0e22 48bd
00000020: 19a3 013e b6b0 113d bc98 bbbd d84b a3bb
00000030: ec3e d53c cadf af3d 09c6 c7bd c010 e8bd
00000040: e437 333d 078e 56bd 393f fe3c 868f e4bd
00000050: b03f 48bd cea6 ad3c e607 043e e4a4 babc
00000060: 64e1 21bd 463a fe3d c7e0 ee3d 65a4 043e
00000070: 9452 f3bd adff 8abd aee1 dd3c 5bde 79bc
00000080: b13c cabd 917d 4abd e92f 333d a86a cf3d
00000090: 74c4 1f3d 4dda 143d 9302 183d 4b27 5dbd
000000a0: 52ed 883c 210e fb3c 9890 31bd 56a0 1ebd
000000b0: b061 013d 1d78 c73d e58a 80bc 025c d53d
000000c0: ba37 883d 58e8 013e f723 c83c 1e7e 09bd
000000d0: 4505 3c3d 5420 9a3d bb42 c93d 70ee 783d
000000e0: db5e cd3d 0690 bcbc c386 afbc 180a 2f3e
000000f0: 435e e03d a6f9 2c3d 8c90 063d 2577 d1bd
00000100: 87e5 723c e007 57bd f0d7 cdbd 91fe 25bd
00000110: e8dd fc3d aec2 d5bc 15f6 413d e57c 5b3d
00000120: f684 9bbd 60d6 023c 9d67 debc d77d b6bc
00000130: 2f13 bd3d 55af 383e adeb 833d 3f30 95ba
00000140: 4802 043e ddb7 cebd 2ece e4bd 1d01 3e3d
00000150: 3b0f ce3c 0e71 eabd 9125 0bbd 4c90 c03d
00000160: 124d 413d d50e dd3d c4da cebd f6e6 9d3d
00000170: a9a2 663b ae3a e23c 844b 9b3d 997d 5cbd
00000180: 85c1 263d d9a5 cd3c 0f1f 2ebd df19 a83d
00000190: ade1 bebd debc 093e 91fd 323d 82c5 533d
000001a0: 5457 e53c 356f 823d 631a e73b 19ba 2bbd
000001b0: 1dd2 3a3d e239 bd3d e1ec 1abd 6422 ea3c
000001c0: f2af c53c 1b92 3f3d 1c09 223d 8fd1 1fbd
000001d0: 75b0 893d 991e 05bd bf51 f43d 6f66 debd
000001e0: 711b 23bd e4ae 2b3d 637f b3bd 210f 193d
000001f0: 8ef5 d53d e95e 423d 579f 113e 46ea 99bd
00000200: 9ac6 db3d 2035 1d3d 463c a73d 134b cabc
00000210: d40e d03c 65e4 0a3e 9185 1d3d a529 24bd
00000220: 6c1f febd ce21 233d 5311 893d 3b3e f83c
00000230: f878 97bd 7dd3 4f3d eade 723d a7d2 463d
00000240: cf6d 2e3e 28c3 123e ad34 e4bd d807 613d
00000250: c032 64bd 2735 69bc 024e a5bb 363e f4bc
00000260: 96ab 3dbc 582a b8b9 53e9 f7bd 980e e5bb
00000270: cf5f 75bc f886 b23d 1146 003c d79f d73c
00000280: fa28 fdbb c29f e5bd 32b4 893c 4e79 993c
00000290: 0e18 58bd 629d d1bd d562 2b3c 8692 b2bd
000002a0: a0a9 a7bc fbea fbbc 8bd2 013d 60a6 613d
000002b0: 9306 6c3c 3f4b 8b3d a3a0 fdbc ee55 a33d
000002c0: ad0e a6bd 7274 c6bd 2766 733d 78fa 773d
000002d0: 5394 363d dbef 18bd 108f 073d 94c9 363d
000002e0: 1a57 cdbd 17f4 313e 7e73 6d3d 3836 a83b
000002f0: d655 153c da3b f23d e36e e33c 0ea7 0b3e
00000300: 7460 45bd 8cde bf3d 0395 0f3e 0936 5ebc
00000310: d852 f83d 00db 2abc 032e bb3c 8ae9 3f3c
00000320: 564f 3d3d 3aac 0e3e 3c14 903d 3d18 ce3c
00000330: 34e6 21bd e661 593c 98b4 093c 8c39 e2ba
00000340: 6917 25bd 4d44 443d c495 bb3c 951f 1b3d
00000350: 1bd6 2dbd c8b7 b03d 8631 0b3e c7c6 4cbd
00000360: 1aae 82bd 2d34 89bd f34d 8cbd 0d80 9bbd
00000370: 1f3e 883d 9b6b 32bd abc5 81bd 587d 2d3c
00000380: 3b1f e93b a619 953d aaf6 ef3d f84d aa3c
00000390: d122 9f3d 144d 5cbd 4972 273b 15c3 a03c
000003a0: f3cc b83d 7e41 f3bd 1343 053e 0563 073e
000003b0: 7a58 b03c 789c 22bd 571c ce3d 4292 003e
000003c0: 3ed6 bbbc c304 e93b a917 663d 87c2 0a3e
000003d0: 2924 683d f3a3 c5bd b09e c8bc 7579 36bc
000003e0: d15b b63c 5ad1 b23d cb11 703d 5159 5a3d
000003f0: f998 26bb a322 f83d f52f 3abd 3e1d 86bd
-0.009302799 0.06917958 0.00929264 -0.033967037 0.01783076 -0.06896227 -0.0382455 -0.048860602
0.12659873 0.035568915 -0.09159991 -0.0049834065 0.02603098 0.08587606 -0.09754569 -0.1133132
0.043754473 -0.05238154 0.031036006 -0.111601874 -0.048888862 0.021197703 0.12893638 -0.022783704
-0.03952159 0.124134585 0.116639666 0.12953337 -0.11880985 -0.067870475 0.027085152 -0.015250768
-0.09874857 -0.049436156 0.043746863 0.10127765 0.03900571 0.036341 0.03711183 -0.05399255
0.016714726 0.030646386 -0.043350786 -0.038727127 0.031587303 0.09739707 -0.01569123 0.1041794
0.06651254 0.12686288 0.024431212 -0.03356754 0.045903463 0.07525697 0.09827181 0.060774267
0.10027858 -0.023017894 -0.021426564 0.17093694 0.10955479 0.04223027 0.032852694 -0.10227803
0.014825231 -0.052497745 -0.100509524 -0.040525977 0.12347013 -0.026093807 0.047353823 0.053585906
-0.0759372 0.007985681 -0.027149016 -0.022276802 0.092321746 0.18035634 0.06441436 -0.0011382176
0.12891495 -0.10093663 -0.11172138 0.04638778 0.025153747 -0.11447345 -0.033971373 0.094025224
0.04719264 0.107938446 -0.1010032 0.07710068 0.0035192168 0.027615871 0.07582763 -0.053830717
0.0407119 0.025103496 -0.04251009 0.082080595 -0.09320388 0.13450953 0.04369885 0.05170203
0.027995743 0.06368867 0.007052706 -0.041925523 0.045610536 0.09239556 -0.03782356 0.028580852
0.024131749 0.046770196 0.03955947 -0.03901821 0.0672311 -0.032499883 0.11929654 -0.108593814
-0.039821092 0.041914836 -0.087645315 0.037367944 0.104472265 0.047453795 0.1422094 -0.07515387
0.107312396 0.038380742 0.08165793 -0.024694001 0.025397696 0.13563688 0.038457457 -0.040078778
-0.12408337 0.03982716 0.066927575 0.030303111 -0.0739612 0.0507388 0.05929462 0.048540737
0.17034076 0.14332259 -0.111428596 0.05493912 -0.05571246 -0.014233864 -0.0050446996 -0.02981482
-0.011576554 -0.00035126763 -0.1210505 -0.006990265 -0.014976456 0.087171495 0.007829205 0.026321335
-0.007725832 -0.11212112 0.016809557 0.0187346 -0.052757315 -0.102350965 0.010460575 -0.087193534
-0.020466626 -0.030751696 0.03169493 0.05509031 0.014405864 0.068014614 -0.030960387 0.07975374
-0.08108268 -0.09690179 0.059423592 0.0605416 0.044575047 -0.03733812 0.03309542 0.044625834
-0.10026379 0.17378269 0.05797147 0.0051334165 0.009114703 0.11827822 0.027762836 0.13637945
-0.048187688 0.09368619 0.14021687 -0.013562688 0.12125176 -0.01042819 0.022849089 0.011713395
0.04621824 0.13932887 0.070351094 0.025158042 -0.03952618 0.01326797 0.008404873 -0.0017259582
-0.04030553 0.0479167 0.022898562 0.037871916 -0.042440515 0.086288035 0.1359311 -0.049994256
-0.063808635 -0.06699405 -0.06850805 -0.07592783 0.06652474 -0.04355965 -0.0633653 0.010588966
0.0071143187 0.07280283 0.11716969 0.020789132 0.077703126 -0.053784445 0.0025550297 0.019624272
0.09023466 -0.11877726 0.13013868 0.13221367 0.021526564 -0.0397 0.10063999 0.12555793
-0.022929307 0.0071111633 0.056174908 0.13550769 0.05667511 -0.096504115 -0.02448973 -0.011137356
0.022260578 0.08731337 0.05861072 0.053307835 -0.0025420769 0.121159814 -0.04545589 -0.06548546

network.2.0.bias f4 [64]
00000000: 3e9e c93d b608 bf3d b467 e9ba 6f8f d63c
00000010: b4bb 823d ed39 c13d 3ffe cb3d 752b 373d
00000020: 452a bb3b 9057 5e3c ec33 36bd 3617 823c
00000030: e345 af3c 9c3a b43d 4233 d23b 504e 853d
00000040: 4690 81bd 2946 d03d da0b a83d e9f7 133d
00000050: 9e50 923d 0b9b 7f3d 854a ce3d d16d 903d
00000060: 152d d03d 3289 8b3b 457a 863d 9cfe e03c
00000070: e13b 973b 992a 063d f2c9 0fbd 1ed0 d03d
00000080: 84d7 0b3d 641f 5c3d d27e d7bb 4538 4e3d
00000090: 6972 fcbd be88 12bd 8399 973d 2218 443d
000000a0: bffa 383c 2308 a43c 7aae 8b3b d747 8a3d
000000b0: 9532 1fbd 3b6b 6e3d 19e2 963d e4db 12bd
000000c0: e121 8cbb 1b83 17bd 9c70 1e3d 67d8 5b3d
000000d0: 7a66 023d df3c 0abc 7c80 473d 8b18 78bd
000000e0: d877 123d a222 dd3c 18a8 ecbc 30f2 c83d
000000f0: 895f cdbd 0433 943d d24a df3c 59b8 0a3b
0.098446354 0.09327833 -0.0017807395 0.026191441 0.06383458 0.094348766 0.09960603 0.04471918
0.005711826 0.013570681 -0.04448311 0.015880208 0.02139563 0.08800241 0.006414802 0.065090775
-0.06326346 0.10169632 0.082053855 0.036125097 0.07144283 0.06240372 0.10072807 0.07052196
0.10164849 0.0042582983 0.0656629 0.027465157 0.0046152924 0.032755468 -0.0351047 0.10195945
0.03414108 0.053740874 -0.0065763975 0.05034663 -0.123265095 -0.03577494 0.07402327 0.047874577
0.011290251 0.020023411 0.0042627426 0.067519836 -0.0388666 0.05820773 0.073673435 -0.035854235
-0.0042764996 -0.036990266 0.03868161 0.053673174 0.03183601 -0.008437364 0.048706517 -0.06057028
0.035758823 0.026994053 -0.028888747 0.098118186 -0.100279875 0.07236293 0.027257357 0.0021167009

network.3.weight f4 [1, 64]
00000000: a519 163e 1fb7 ecbd b244 a33d 961d 9abd
00000010: 2483 d1bd cbf4 193e ded2 273e 4a4d f73d
00000020: 9d10 cb3d 4f81 0fbe 0892 1c3e f099 97bd
00000030: 8a28 db3d bcab ae3d 007e 9dbd 610e b93d
00000040: 4c7e b53d 9bae 1f3e 9228 a0bd bdac a5bd
00000050: 035d 223e 8bc1 8cbd abe6 23be 61c0 be3d
00000060: e78e 253e d614 433e 6eed 2b3e 8fd5 023e
00000070: 7e59 1dbe 1b2a 333e f8c7 35be b91d fa3d
00000080: 83cf 0f3e c6e3 ee3d feaf b53e 0b4e cdbd
00000090: b2e4 7e3e d884 253e b723 cdbd 9a01 2c3e
000000a0: be40 24be 2f09 a7bd 77a8 15be 9015 2abe
000000b0: 2fce 3a3e a9f4 203e a9da 05be d53a 2b3e
000000c0: 0c5b cebd a08d e4bd ce0a 7ebe bea8 02be
000000d0: 1935 a7bd 7fa1 18be c1f6 b43d c0f0 313e
000000e0: da3c 283e 9a15 0dbe ca3e 2fbe 30bf 5fbe
000000f0: 692d dd3e 3f38 223e 4b4f f33d 5145 293e
0.1465822 -0.11558365 0.07972087 -0.07525174 -0.10230091 0.15034787 0.16389033 0.120752886
0.09915278 -0.14014171 0.15290082 -0.07402408 0.107010916 0.085288495 -0.07690048 0.09035946
0.0886198 0.1559395 -0.07820238 -0.08089588 0.15855794 -0.06872853 -0.16005962 0.09314037
0.16167794 0.19050917 0.16789791 0.12776779 -0.1536617 0.1749653 -0.17752063 0.122127004
0.14044003 0.11664538 0.35485834 -0.10024651 0.24891928 0.16163957 -0.10016578 0.16797486
-0.16040322 -0.081560485 -0.14615045 -0.16609788 0.18242715 0.1571833 -0.13071693 0.16721661
-0.100759596 -0.11159825 -0.24808809 -0.12759683 -0.081644244 -0.14905356 0.08836127 0.17376995
0.16429463 -0.13777772 -0.17113796 -0.21850276 0.43198708 0.15841769 0.11880358 0.16530348
